…
I0403 07:28:36.818277 14231 net.cpp:275] The NetState phase (0) differed from the phase (1) specified by a rule in layer loss2/top-1
I0403 07:28:36.818353 14231 net.cpp:275] The NetState phase (0) differed from the phase (1) specified by a rule in layer loss3/top-1
I0403 07:28:36.819289 14231 net.cpp:39] Initializing net from parameters: 
name: "fd_GoogleNet"
layers {
  top: "data"
  top: "label"
  name: "data"
  type: DATA
  data_param {
    source: "/mnt_data/yilin_guo/data/food_detection/train_images/"
    batch_size: 32
    backend: LMDB
  }
  include {
    phase: TRAIN
  }
  transform_param {
    mirror: true
    crop_size: 224
    mean_file: "data/ilsvrc12/imagenet_mean.binaryproto"
  }
}
layers {
  bottom: "data"
  top: "conv1/7x7_s2"
  name: "conv1/7x7_s2"
  type: CONVOLUTION
  blobs_lr: 1
  blobs_lr: 2
  weight_decay: 1
  weight_decay: 0
  convolution_param {
    num_output: 64
    pad: 3
    kernel_size: 7
    stride: 2
    weight_filler {
      type: "xavier"
      std: 0.1
    }
    bias_filler {
      type: "constant"
      value: 0.2
    }
  }
}
layers {
  bottom: "conv1/7x7_s2"
  top: "conv1/7x7_s2"
  name: "conv1/relu_7x7"
  type: RELU
}
layers {
  bottom: "conv1/7x7_s2"
  top: "pool1/3x3_s2"
  name: "pool1/3x3_s2"
  type: POOLING
  pooling_param {
    pool: MAX
    kernel_size: 3
    stride: 2
  }
}
layers {
  bottom: "pool1/3x3_s2"
  top: "pool1/norm1"
  name: "pool1/norm1"
  type: LRN
  lrn_param {
    local_size: 5
    alpha: 0.0001
    beta: 0.75
  }
}
layers {
  bottom: "pool1/norm1"
  top: "conv2/3x3_reduce"
  name: "conv2/3x3_reduce"
  type: CONVOLUTION
  blobs_lr: 1
  blobs_lr: 2
  weight_decay: 1
  weight_decay: 0
  convolution_param {
    num_output: 64
    kernel_size: 1
    weight_filler {
      type: "xavier"
      std: 0.1
    }
    bias_filler {
      type: "constant"
      value: 0.2
    }
  }
}
layers {
  bottom: "conv2/3x3_reduce"
  top: "conv2/3x3_reduce"
  name: "conv2/relu_3x3_reduce"
  type: RELU
}
layers {
  bottom: "conv2/3x3_reduce"
  top: "conv2/3x3"
  name: "conv2/3x3"
  type: CONVOLUTION
  blobs_lr: 1
  blobs_lr: 2
  weight_decay: 1
  weight_decay: 0
  convolution_param {
    num_output: 192
    pad: 1
    kernel_size: 3
    weight_filler {
      type: "xavier"
      std: 0.03
    }
    bias_filler {
      type: "constant"
      value: 0.2
    }
  }
}
layers {
  bottom: "conv2/3x3"
  top: "conv2/3x3"
  name: "conv2/relu_3x3"
  type: RELU
}
layers {
  bottom: "conv2/3x3"
  top: "conv2/norm2"
  name: "conv2/norm2"
  type: LRN
  lrn_param {
    local_size: 5
    alpha: 0.0001
    beta: 0.75
  }
}
layers {
  bottom: "conv2/norm2"
  top: "pool2/3x3_s2"
  name: "pool2/3x3_s2"
  type: POOLING
  pooling_param {
    pool: MAX
    kernel_size: 3
    stride: 2
  }
}
layers {
  bottom: "pool2/3x3_s2"
  top: "inception_3a/1x1"
  name: "inception_3a/1x1"
  type: CONVOLUTION
  blobs_lr: 1
  blobs_lr: 2
  weight_decay: 1
  weight_decay: 0
  convolution_param {
    num_output: 64
    kernel_size: 1
    weight_filler {
      type: "xavier"
      std: 0.03
    }
    bias_filler {
      type: "constant"
      value: 0.2
    }
  }
}
layers {
  bottom: "inception_3a/1x1"
  top: "inception_3a/1x1"
  name: "inception_3a/relu_1x1"
  type: RELU
}
layers {
  bottom: "pool2/3x3_s2"
  top: "inception_3a/3x3_reduce"
  name: "inception_3a/3x3_reduce"
  type: CONVOLUTION
  blobs_lr: 1
  blobs_lr: 2
  weight_decay: 1
  weight_decay: 0
  convolution_param {
    num_output: 96
    kernel_size: 1
    weight_filler {
      type: "xavier"
      std: 0.09
    }
    bias_filler {
      type: "constant"
      value: 0.2
    }
  }
}
layers {
  bottom: "inception_3a/3x3_reduce"
  top: "inception_3a/3x3_reduce"
  name: "inception_3a/relu_3x3_reduce"
  type: RELU
}
layers {
  bottom: "inception_3a/3x3_reduce"
  top: "inception_3a/3x3"
  name: "inception_3a/3x3"
  type: CONVOLUTION
  blobs_lr: 1
  blobs_lr: 2
  weight_decay: 1
  weight_decay: 0
  convolution_param {
    num_output: 128
    pad: 1
    kernel_size: 3
    weight_filler {
      type: "xavier"
      std: 0.03
    }
    bias_filler {
      type: "constant"
      value: 0.2
    }
  }
}
layers {
  bottom: "inception_3a/3x3"
  top: "inception_3a/3x3"
  name: "inception_3a/relu_3x3"
  type: RELU
}
layers {
  bottom: "pool2/3x3_s2"
  top: "inception_3a/5x5_reduce"
  name: "inception_3a/5x5_reduce"
  type: CONVOLUTION
  blobs_lr: 1
  blobs_lr: 2
  weight_decay: 1
  weight_decay: 0
  convolution_param {
    num_output: 16
    kernel_size: 1
    weight_filler {
      type: "xavier"
      std: 0.2
    }
    bias_filler {
      type: "constant"
      value: 0.2
    }
  }
}
layers {
  bottom: "inception_3a/5x5_reduce"
  top: "inception_3a/5x5_reduce"
  name: "inception_3a/relu_5x5_reduce"
  type: RELU
}
layers {
  bottom: "inception_3a/5x5_reduce"
  top: "inception_3a/5x5"
  name: "inception_3a/5x5"
  type: CONVOLUTION
  blobs_lr: 1
  blobs_lr: 2
  weight_decay: 1
  weight_decay: 0
  convolution_param {
    num_output: 32
    pad: 2
    kernel_size: 5
    weight_filler {
      type: "xavier"
      std: 0.03
    }
    bias_filler {
      type: "constant"
      value: 0.2
    }
  }
}
layers {
  bottom: "inception_3a/5x5"
  top: "inception_3a/5x5"
  name: "inception_3a/relu_5x5"
  type: RELU
}
layers {
  bottom: "pool2/3x3_s2"
  top: "inception_3a/pool"
  name: "inception_3a/pool"
  type: POOLING
  pooling_param {
    pool: MAX
    kernel_size: 3
    stride: 1
    pad: 1
  }
}
layers {
  bottom: "inception_3a/pool"
  top: "inception_3a/pool_proj"
  name: "inception_3a/pool_proj"
  type: CONVOLUTION
  blobs_lr: 1
  blobs_lr: 2
  weight_decay: 1
  weight_decay: 0
  convolution_param {
    num_output: 32
    kernel_size: 1
    weight_filler {
      type: "xavier"
      std: 0.1
    }
    bias_filler {
      type: "constant"
      value: 0.2
    }
  }
}
layers {
  bottom: "inception_3a/pool_proj"
  top: "inception_3a/pool_proj"
  name: "inception_3a/relu_pool_proj"
  type: RELU
}
layers {
  bottom: "inception_3a/1x1"
  bottom: "inception_3a/3x3"
  bottom: "inception_3a/5x5"
  bottom: "inception_3a/pool_proj"
  top: "inception_3a/output"
  name: "inception_3a/output"
  type: CONCAT
}
layers {
  bottom: "inception_3a/output"
  top: "inception_3b/1x1"
  name: "inception_3b/1x1"
  type: CONVOLUTION
  blobs_lr: 1
  blobs_lr: 2
  weight_decay: 1
  weight_decay: 0
  convolution_param {
    num_output: 128
    kernel_size: 1
    weight_filler {
      type: "xavier"
      std: 0.03
    }
    bias_filler {
      type: "constant"
      value: 0.2
    }
  }
}
layers {
  bottom: "inception_3b/1x1"
  top: "inception_3b/1x1"
  name: "inception_3b/relu_1x1"
  type: RELU
}
layers {
  bottom: "inception_3a/output"
  top: "inception_3b/3x3_reduce"
  name: "inception_3b/3x3_reduce"
  type: CONVOLUTION
  blobs_lr: 1
  blobs_lr: 2
  weight_decay: 1
  weight_decay: 0
  convolution_param {
    num_output: 128
    kernel_size: 1
    weight_filler {
      type: "xavier"
      std: 0.09
    }
    bias_filler {
      type: "constant"
      value: 0.2
    }
  }
}
layers {
  bottom: "inception_3b/3x3_reduce"
  top: "inception_3b/3x3_reduce"
  name: "inception_3b/relu_3x3_reduce"
  type: RELU
}
layers {
  bottom: "inception_3b/3x3_reduce"
  top: "inception_3b/3x3"
  name: "inception_3b/3x3"
  type: CONVOLUTION
  blobs_lr: 1
  blobs_lr: 2
  weight_decay: 1
  weight_decay: 0
  convolution_param {
    num_output: 192
    pad: 1
    kernel_size: 3
    weight_filler {
      type: "xavier"
      std: 0.03
    }
    bias_filler {
      type: "constant"
      value: 0.2
    }
  }
}
layers {
  bottom: "inception_3b/3x3"
  top: "inception_3b/3x3"
  name: "inception_3b/relu_3x3"
  type: RELU
}
layers {
  bottom: "inception_3a/output"
  top: "inception_3b/5x5_reduce"
  name: "inception_3b/5x5_reduce"
  type: CONVOLUTION
  blobs_lr: 1
  blobs_lr: 2
  weight_decay: 1
  weight_decay: 0
  convolution_param {
    num_output: 32
    kernel_size: 1
    weight_filler {
      type: "xavier"
      std: 0.2
    }
    bias_filler {
      type: "constant"
      value: 0.2
    }
  }
}
layers {
  bottom: "inception_3b/5x5_reduce"
  top: "inception_3b/5x5_reduce"
  name: "inception_3b/relu_5x5_reduce"
  type: RELU
}
layers {
  bottom: "inception_3b/5x5_reduce"
  top: "inception_3b/5x5"
  name: "inception_3b/5x5"
  type: CONVOLUTION
  blobs_lr: 1
  blobs_lr: 2
  weight_decay: 1
  weight_decay: 0
  convolution_param {
    num_output: 96
    pad: 2
    kernel_size: 5
    weight_filler {
      type: "xavier"
      std: 0.03
    }
    bias_filler {
      type: "constant"
      value: 0.2
    }
  }
}
layers {
  bottom: "inception_3b/5x5"
  top: "inception_3b/5x5"
  name: "inception_3b/relu_5x5"
  type: RELU
}
layers {
  bottom: "inception_3a/output"
  top: "inception_3b/pool"
  name: "inception_3b/pool"
  type: POOLING
  pooling_param {
    pool: MAX
    kernel_size: 3
    stride: 1
    pad: 1
  }
}
layers {
  bottom: "inception_3b/pool"
  top: "inception_3b/pool_proj"
  name: "inception_3b/pool_proj"
  type: CONVOLUTION
  blobs_lr: 1
  blobs_lr: 2
  weight_decay: 1
  weight_decay: 0
  convolution_param {
    num_output: 64
    kernel_size: 1
    weight_filler {
      type: "xavier"
      std: 0.1
    }
    bias_filler {
      type: "constant"
      value: 0.2
    }
  }
}
layers {
  bottom: "inception_3b/pool_proj"
  top: "inception_3b/pool_proj"
  name: "inception_3b/relu_pool_proj"
  type: RELU
}
layers {
  bottom: "inception_3b/1x1"
  bottom: "inception_3b/3x3"
  bottom: "inception_3b/5x5"
  bottom: "inception_3b/pool_proj"
  top: "inception_3b/output"
  name: "inception_3b/output"
  type: CONCAT
}
layers {
  bottom: "inception_3b/output"
  top: "pool3/3x3_s2"
  name: "pool3/3x3_s2"
  type: POOLING
  pooling_param {
    pool: MAX
    kernel_size: 3
    stride: 2
  }
}
layers {
  bottom: "pool3/3x3_s2"
  top: "inception_4a/1x1"
  name: "inception_4a/1x1"
  type: CONVOLUTION
  blobs_lr: 1
  blobs_lr: 2
  weight_decay: 1
  weight_decay: 0
  convolution_param {
    num_output: 192
    kernel_size: 1
    weight_filler {
      type: "xavier"
      std: 0.03
    }
    bias_filler {
      type: "constant"
      value: 0.2
    }
  }
}
layers {
  bottom: "inception_4a/1x1"
  top: "inception_4a/1x1"
  name: "inception_4a/relu_1x1"
  type: RELU
}
layers {
  bottom: "pool3/3x3_s2"
  top: "inception_4a/3x3_reduce"
  name: "inception_4a/3x3_reduce"
  type: CONVOLUTION
  blobs_lr: 1
  blobs_lr: 2
  weight_decay: 1
  weight_decay: 0
  convolution_param {
    num_output: 96
    kernel_size: 1
    weight_filler {
      type: "xavier"
      std: 0.09
    }
    bias_filler {
      type: "constant"
      value: 0.2
    }
  }
}
layers {
  bottom: "inception_4a/3x3_reduce"
  top: "inception_4a/3x3_reduce"
  name: "inception_4a/relu_3x3_reduce"
  type: RELU
}
layers {
  bottom: "inception_4a/3x3_reduce"
  top: "inception_4a/3x3"
  name: "inception_4a/3x3"
  type: CONVOLUTION
  blobs_lr: 1
  blobs_lr: 2
  weight_decay: 1
  weight_decay: 0
  convolution_param {
    num_output: 208
    pad: 1
    kernel_size: 3
    weight_filler {
      type: "xavier"
      std: 0.03
    }
    bias_filler {
      type: "constant"
      value: 0.2
    }
  }
}
layers {
  bottom: "inception_4a/3x3"
  top: "inception_4a/3x3"
  name: "inception_4a/relu_3x3"
  type: RELU
}
layers {
  bottom: "pool3/3x3_s2"
  top: "inception_4a/5x5_reduce"
  name: "inception_4a/5x5_reduce"
  type: CONVOLUTION
  blobs_lr: 1
  blobs_lr: 2
  weight_decay: 1
  weight_decay: 0
  convolution_param {
    num_output: 16
    kernel_size: 1
    weight_filler {
      type: "xavier"
      std: 0.2
    }
    bias_filler {
      type: "constant"
      value: 0.2
    }
  }
}
layers {
  bottom: "inception_4a/5x5_reduce"
  top: "inception_4a/5x5_reduce"
  name: "inception_4a/relu_5x5_reduce"
  type: RELU
}
layers {
  bottom: "inception_4a/5x5_reduce"
  top: "inception_4a/5x5"
  name: "inception_4a/5x5"
  type: CONVOLUTION
  blobs_lr: 1
  blobs_lr: 2
  weight_decay: 1
  weight_decay: 0
  convolution_param {
    num_output: 48
    pad: 2
    kernel_size: 5
    weight_filler {
      type: "xavier"
      std: 0.03
    }
    bias_filler {
      type: "constant"
      value: 0.2
    }
  }
}
layers {
  bottom: "inception_4a/5x5"
  top: "inception_4a/5x5"
  name: "inception_4a/relu_5x5"
  type: RELU
}
layers {
  bottom: "pool3/3x3_s2"
  top: "inception_4a/pool"
  name: "inception_4a/pool"
  type: POOLING
  pooling_param {
    pool: MAX
    kernel_size: 3
    stride: 1
    pad: 1
  }
}
layers {
  bottom: "inception_4a/pool"
  top: "inception_4a/pool_proj"
  name: "inception_4a/pool_proj"
  type: CONVOLUTION
  blobs_lr: 1
  blobs_lr: 2
  weight_decay: 1
  weight_decay: 0
  convolution_param {
    num_output: 64
    kernel_size: 1
    weight_filler {
      type: "xavier"
      std: 0.1
    }
    bias_filler {
      type: "constant"
      value: 0.2
    }
  }
}
layers {
  bottom: "inception_4a/pool_proj"
  top: "inception_4a/pool_proj"
  name: "inception_4a/relu_pool_proj"
  type: RELU
}
layers {
  bottom: "inception_4a/1x1"
  bottom: "inception_4a/3x3"
  bottom: "inception_4a/5x5"
  bottom: "inception_4a/pool_proj"
  top: "inception_4a/output"
  name: "inception_4a/output"
  type: CONCAT
}
layers {
  bottom: "inception_4a/output"
  top: "loss1/ave_pool"
  name: "loss1/ave_pool"
  type: POOLING
  pooling_param {
    pool: AVE
    kernel_size: 5
    stride: 3
  }
}
layers {
  bottom: "loss1/ave_pool"
  top: "loss1/conv"
  name: "loss1/conv"
  type: CONVOLUTION
  blobs_lr: 1
  blobs_lr: 2
  weight_decay: 1
  weight_decay: 0
  convolution_param {
    num_output: 128
    kernel_size: 1
    weight_filler {
      type: "xavier"
      std: 0.08
    }
    bias_filler {
      type: "constant"
      value: 0.2
    }
  }
}
layers {
  bottom: "loss1/conv"
  top: "loss1/conv"
  name: "loss1/relu_conv"
  type: RELU
}
layers {
  bottom: "loss1/conv"
  top: "loss1/fc"
  name: "loss1/fc"
  type: INNER_PRODUCT
  blobs_lr: 1
  blobs_lr: 2
  weight_decay: 1
  weight_decay: 0
  inner_product_param {
    num_output: 1024
    weight_filler {
      type: "xavier"
      std: 0.02
    }
    bias_filler {
      type: "constant"
      value: 0.2
    }
  }
}
layers {
  bottom: "loss1/fc"
  top: "loss1/fc"
  name: "loss1/relu_fc"
  type: RELU
}
layers {
  bottom: "loss1/fc"
  top: "loss1/fc"
  name: "loss1/drop_fc"
  type: DROPOUT
  dropout_param {
    dropout_ratio: 0.7
  }
}
layers {
  bottom: "loss1/fc"
  top: "fd_loss1/classifier"
  name: "fd_loss1/classifier"
  type: INNER_PRODUCT
  blobs_lr: 10
  blobs_lr: 20
  weight_decay: 1
  weight_decay: 0
  inner_product_param {
    num_output: 2
    weight_filler {
      type: "xavier"
      std: 0.0009765625
    }
    bias_filler {
      type: "constant"
      value: 0
    }
  }
}
layers {
  bottom: "fd_loss1/classifier"
  bottom: "label"
  top: "loss1/loss1"
  name: "loss1/loss"
  type: SOFTMAX_LOSS
  loss_weight: 0.3
}
layers {
  bottom: "inception_4a/output"
  top: "inception_4b/1x1"
  name: "inception_4b/1x1"
  type: CONVOLUTION
  blobs_lr: 1
  blobs_lr: 2
  weight_decay: 1
  weight_decay: 0
  convolution_param {
    num_output: 160
    kernel_size: 1
    weight_filler {
      type: "xavier"
      std: 0.03
    }
    bias_filler {
      type: "constant"
      value: 0.2
    }
  }
}
layers {
  bottom: "inception_4b/1x1"
  top: "inception_4b/1x1"
  name: "inception_4b/relu_1x1"
  type: RELU
}
layers {
  bottom: "inception_4a/output"
  top: "inception_4b/3x3_reduce"
  name: "inception_4b/3x3_reduce"
  type: CONVOLUTION
  blobs_lr: 1
  blobs_lr: 2
  weight_decay: 1
  weight_decay: 0
  convolution_param {
    num_output: 112
    kernel_size: 1
    weight_filler {
      type: "xavier"
      std: 0.09
    }
    bias_filler {
      type: "constant"
      value: 0.2
    }
  }
}
layers {
  bottom: "inception_4b/3x3_reduce"
  top: "inception_4b/3x3_reduce"
  name: "inception_4b/relu_3x3_reduce"
  type: RELU
}
layers {
  bottom: "inception_4b/3x3_reduce"
  top: "inception_4b/3x3"
  name: "inception_4b/3x3"
  type: CONVOLUTION
  blobs_lr: 1
  blobs_lr: 2
  weight_decay: 1
  weight_decay: 0
  convolution_param {
    num_output: 224
    pad: 1
    kernel_size: 3
    weight_filler {
      type: "xavier"
      std: 0.03
    }
    bias_filler {
      type: "constant"
      value: 0.2
    }
  }
}
layers {
  bottom: "inception_4b/3x3"
  top: "inception_4b/3x3"
  name: "inception_4b/relu_3x3"
  type: RELU
}
layers {
  bottom: "inception_4a/output"
  top: "inception_4b/5x5_reduce"
  name: "inception_4b/5x5_reduce"
  type: CONVOLUTION
  blobs_lr: 1
  blobs_lr: 2
  weight_decay: 1
  weight_decay: 0
  convolution_param {
    num_output: 24
    kernel_size: 1
    weight_filler {
      type: "xavier"
      std: 0.2
    }
    bias_filler {
      type: "constant"
      value: 0.2
    }
  }
}
layers {
  bottom: "inception_4b/5x5_reduce"
  top: "inception_4b/5x5_reduce"
  name: "inception_4b/relu_5x5_reduce"
  type: RELU
}
layers {
  bottom: "inception_4b/5x5_reduce"
  top: "inception_4b/5x5"
  name: "inception_4b/5x5"
  type: CONVOLUTION
  blobs_lr: 1
  blobs_lr: 2
  weight_decay: 1
  weight_decay: 0
  convolution_param {
    num_output: 64
    pad: 2
    kernel_size: 5
    weight_filler {
      type: "xavier"
      std: 0.03
    }
    bias_filler {
      type: "constant"
      value: 0.2
    }
  }
}
layers {
  bottom: "inception_4b/5x5"
  top: "inception_4b/5x5"
  name: "inception_4b/relu_5x5"
  type: RELU
}
layers {
  bottom: "inception_4a/output"
  top: "inception_4b/pool"
  name: "inception_4b/pool"
  type: POOLING
  pooling_param {
    pool: MAX
    kernel_size: 3
    stride: 1
    pad: 1
  }
}
layers {
  bottom: "inception_4b/pool"
  top: "inception_4b/pool_proj"
  name: "inception_4b/pool_proj"
  type: CONVOLUTION
  blobs_lr: 1
  blobs_lr: 2
  weight_decay: 1
  weight_decay: 0
  convolution_param {
    num_output: 64
    kernel_size: 1
    weight_filler {
      type: "xavier"
      std: 0.1
    }
    bias_filler {
      type: "constant"
      value: 0.2
    }
  }
}
layers {
  bottom: "inception_4b/pool_proj"
  top: "inception_4b/pool_proj"
  name: "inception_4b/relu_pool_proj"
  type: RELU
}
layers {
  bottom: "inception_4b/1x1"
  bottom: "inception_4b/3x3"
  bottom: "inception_4b/5x5"
  bottom: "inception_4b/pool_proj"
  top: "inception_4b/output"
  name: "inception_4b/output"
  type: CONCAT
}
layers {
  bottom: "inception_4b/output"
  top: "inception_4c/1x1"
  name: "inception_4c/1x1"
  type: CONVOLUTION
  blobs_lr: 1
  blobs_lr: 2
  weight_decay: 1
  weight_decay: 0
  convolution_param {
    num_output: 128
    kernel_size: 1
    weight_filler {
      type: "xavier"
      std: 0.03
    }
    bias_filler {
      type: "constant"
      value: 0.2
    }
  }
}
layers {
  bottom: "inception_4c/1x1"
  top: "inception_4c/1x1"
  name: "inception_4c/relu_1x1"
  type: RELU
}
layers {
  bottom: "inception_4b/output"
  top: "inception_4c/3x3_reduce"
  name: "inception_4c/3x3_reduce"
  type: CONVOLUTION
  blobs_lr: 1
  blobs_lr: 2
  weight_decay: 1
  weight_decay: 0
  convolution_param {
    num_output: 128
    kernel_size: 1
    weight_filler {
      type: "xavier"
      std: 0.09
    }
    bias_filler {
      type: "constant"
      value: 0.2
    }
  }
}
layers {
  bottom: "inception_4c/3x3_reduce"
  top: "inception_4c/3x3_reduce"
  name: "inception_4c/relu_3x3_reduce"
  type: RELU
}
layers {
  bottom: "inception_4c/3x3_reduce"
  top: "inception_4c/3x3"
  name: "inception_4c/3x3"
  type: CONVOLUTION
  blobs_lr: 1
  blobs_lr: 2
  weight_decay: 1
  weight_decay: 0
  convolution_param {
    num_output: 256
    pad: 1
    kernel_size: 3
    weight_filler {
      type: "xavier"
      std: 0.03
    }
    bias_filler {
      type: "constant"
      value: 0.2
    }
  }
}
layers {
  bottom: "inception_4c/3x3"
  top: "inception_4c/3x3"
  name: "inception_4c/relu_3x3"
  type: RELU
}
layers {
  bottom: "inception_4b/output"
  top: "inception_4c/5x5_reduce"
  name: "inception_4c/5x5_reduce"
  type: CONVOLUTION
  blobs_lr: 1
  blobs_lr: 2
  weight_decay: 1
  weight_decay: 0
  convolution_param {
    num_output: 24
    kernel_size: 1
    weight_filler {
      type: "xavier"
      std: 0.2
    }
    bias_filler {
      type: "constant"
      value: 0.2
    }
  }
}
layers {
  bottom: "inception_4c/5x5_reduce"
  top: "inception_4c/5x5_reduce"
  name: "inception_4c/relu_5x5_reduce"
  type: RELU
}
layers {
  bottom: "inception_4c/5x5_reduce"
  top: "inception_4c/5x5"
  name: "inception_4c/5x5"
  type: CONVOLUTION
  blobs_lr: 1
  blobs_lr: 2
  weight_decay: 1
  weight_decay: 0
  convolution_param {
    num_output: 64
    pad: 2
    kernel_size: 5
    weight_filler {
      type: "xavier"
      std: 0.03
    }
    bias_filler {
      type: "constant"
      value: 0.2
    }
  }
}
layers {
  bottom: "inception_4c/5x5"
  top: "inception_4c/5x5"
  name: "inception_4c/relu_5x5"
  type: RELU
}
layers {
  bottom: "inception_4b/output"
  top: "inception_4c/pool"
  name: "inception_4c/pool"
  type: POOLING
  pooling_param {
    pool: MAX
    kernel_size: 3
    stride: 1
    pad: 1
  }
}
layers {
  bottom: "inception_4c/pool"
  top: "inception_4c/pool_proj"
  name: "inception_4c/pool_proj"
  type: CONVOLUTION
  blobs_lr: 1
  blobs_lr: 2
  weight_decay: 1
  weight_decay: 0
  convolution_param {
    num_output: 64
    kernel_size: 1
    weight_filler {
      type: "xavier"
      std: 0.1
    }
    bias_filler {
      type: "constant"
      value: 0.2
    }
  }
}
layers {
  bottom: "inception_4c/pool_proj"
  top: "inception_4c/pool_proj"
  name: "inception_4c/relu_pool_proj"
  type: RELU
}
layers {
  bottom: "inception_4c/1x1"
  bottom: "inception_4c/3x3"
  bottom: "inception_4c/5x5"
  bottom: "inception_4c/pool_proj"
  top: "inception_4c/output"
  name: "inception_4c/output"
  type: CONCAT
}
layers {
  bottom: "inception_4c/output"
  top: "inception_4d/1x1"
  name: "inception_4d/1x1"
  type: CONVOLUTION
  blobs_lr: 1
  blobs_lr: 2
  weight_decay: 1
  weight_decay: 0
  convolution_param {
    num_output: 112
    kernel_size: 1
    weight_filler {
      type: "xavier"
      std: 0.03
    }
    bias_filler {
      type: "constant"
      value: 0.2
    }
  }
}
layers {
  bottom: "inception_4d/1x1"
  top: "inception_4d/1x1"
  name: "inception_4d/relu_1x1"
  type: RELU
}
layers {
  bottom: "inception_4c/output"
  top: "inception_4d/3x3_reduce"
  name: "inception_4d/3x3_reduce"
  type: CONVOLUTION
  blobs_lr: 1
  blobs_lr: 2
  weight_decay: 1
  weight_decay: 0
  convolution_param {
    num_output: 144
    kernel_size: 1
    weight_filler {
      type: "xavier"
      std: 0.09
    }
    bias_filler {
      type: "constant"
      value: 0.2
    }
  }
}
layers {
  bottom: "inception_4d/3x3_reduce"
  top: "inception_4d/3x3_reduce"
  name: "inception_4d/relu_3x3_reduce"
  type: RELU
}
layers {
  bottom: "inception_4d/3x3_reduce"
  top: "inception_4d/3x3"
  name: "inception_4d/3x3"
  type: CONVOLUTION
  blobs_lr: 1
  blobs_lr: 2
  weight_decay: 1
  weight_decay: 0
  convolution_param {
    num_output: 288
    pad: 1
    kernel_size: 3
    weight_filler {
      type: "xavier"
      std: 0.03
    }
    bias_filler {
      type: "constant"
      value: 0.2
    }
  }
}
layers {
  bottom: "inception_4d/3x3"
  top: "inception_4d/3x3"
  name: "inception_4d/relu_3x3"
  type: RELU
}
layers {
  bottom: "inception_4c/output"
  top: "inception_4d/5x5_reduce"
  name: "inception_4d/5x5_reduce"
  type: CONVOLUTION
  blobs_lr: 1
  blobs_lr: 2
  weight_decay: 1
  weight_decay: 0
  convolution_param {
    num_output: 32
    kernel_size: 1
    weight_filler {
      type: "xavier"
      std: 0.2
    }
    bias_filler {
      type: "constant"
      value: 0.2
    }
  }
}
layers {
  bottom: "inception_4d/5x5_reduce"
  top: "inception_4d/5x5_reduce"
  name: "inception_4d/relu_5x5_reduce"
  type: RELU
}
layers {
  bottom: "inception_4d/5x5_reduce"
  top: "inception_4d/5x5"
  name: "inception_4d/5x5"
  type: CONVOLUTION
  blobs_lr: 1
  blobs_lr: 2
  weight_decay: 1
  weight_decay: 0
  convolution_param {
    num_output: 64
    pad: 2
    kernel_size: 5
    weight_filler {
      type: "xavier"
      std: 0.03
    }
    bias_filler {
      type: "constant"
      value: 0.2
    }
  }
}
layers {
  bottom: "inception_4d/5x5"
  top: "inception_4d/5x5"
  name: "inception_4d/relu_5x5"
  type: RELU
}
layers {
  bottom: "inception_4c/output"
  top: "inception_4d/pool"
  name: "inception_4d/pool"
  type: POOLING
  pooling_param {
    pool: MAX
    kernel_size: 3
    stride: 1
    pad: 1
  }
}
layers {
  bottom: "inception_4d/pool"
  top: "inception_4d/pool_proj"
  name: "inception_4d/pool_proj"
  type: CONVOLUTION
  blobs_lr: 1
  blobs_lr: 2
  weight_decay: 1
  weight_decay: 0
  convolution_param {
    num_output: 64
    kernel_size: 1
    weight_filler {
      type: "xavier"
      std: 0.1
    }
    bias_filler {
      type: "constant"
      value: 0.2
    }
  }
}
layers {
  bottom: "inception_4d/pool_proj"
  top: "inception_4d/pool_proj"
  name: "inception_4d/relu_pool_proj"
  type: RELU
}
layers {
  bottom: "inception_4d/1x1"
  bottom: "inception_4d/3x3"
  bottom: "inception_4d/5x5"
  bottom: "inception_4d/pool_proj"
  top: "inception_4d/output"
  name: "inception_4d/output"
  type: CONCAT
}
layers {
  bottom: "inception_4d/output"
  top: "loss2/ave_pool"
  name: "loss2/ave_pool"
  type: POOLING
  pooling_param {
    pool: AVE
    kernel_size: 5
    stride: 3
  }
}
layers {
  bottom: "loss2/ave_pool"
  top: "loss2/conv"
  name: "loss2/conv"
  type: CONVOLUTION
  blobs_lr: 1
  blobs_lr: 2
  weight_decay: 1
  weight_decay: 0
  convolution_param {
    num_output: 128
    kernel_size: 1
    weight_filler {
      type: "xavier"
      std: 0.08
    }
    bias_filler {
      type: "constant"
      value: 0.2
    }
  }
}
layers {
  bottom: "loss2/conv"
  top: "loss2/conv"
  name: "loss2/relu_conv"
  type: RELU
}
layers {
  bottom: "loss2/conv"
  top: "loss2/fc"
  name: "loss2/fc"
  type: INNER_PRODUCT
  blobs_lr: 1
  blobs_lr: 2
  weight_decay: 1
  weight_decay: 0
  inner_product_param {
    num_output: 1024
    weight_filler {
      type: "xavier"
      std: 0.02
    }
    bias_filler {
      type: "constant"
      value: 0.2
    }
  }
}
layers {
  bottom: "loss2/fc"
  top: "loss2/fc"
  name: "loss2/relu_fc"
  type: RELU
}
layers {
  bottom: "loss2/fc"
  top: "loss2/fc"
  name: "loss2/drop_fc"
  type: DROPOUT
  dropout_param {
    dropout_ratio: 0.7
  }
}
layers {
  bottom: "loss2/fc"
  top: "fd_loss2/classifier"
  name: "fd_loss2/classifier"
  type: INNER_PRODUCT
  blobs_lr: 10
  blobs_lr: 20
  weight_decay: 1
  weight_decay: 0
  inner_product_param {
    num_output: 2
    weight_filler {
      type: "xavier"
      std: 0.0009765625
    }
    bias_filler {
      type: "constant"
      value: 0
    }
  }
}
layers {
  bottom: "fd_loss2/classifier"
  bottom: "label"
  top: "loss2/loss1"
  name: "loss2/loss"
  type: SOFTMAX_LOSS
  loss_weight: 0.3
}
layers {
  bottom: "inception_4d/output"
  top: "inception_4e/1x1"
  name: "inception_4e/1x1"
  type: CONVOLUTION
  blobs_lr: 1
  blobs_lr: 2
  weight_decay: 1
  weight_decay: 0
  convolution_param {
    num_output: 256
    kernel_size: 1
    weight_filler {
      type: "xavier"
      std: 0.03
    }
    bias_filler {
      type: "constant"
      value: 0.2
    }
  }
}
layers {
  bottom: "inception_4e/1x1"
  top: "inception_4e/1x1"
  name: "inception_4e/relu_1x1"
  type: RELU
}
layers {
  bottom: "inception_4d/output"
  top: "inception_4e/3x3_reduce"
  name: "inception_4e/3x3_reduce"
  type: CONVOLUTION
  blobs_lr: 1
  blobs_lr: 2
  weight_decay: 1
  weight_decay: 0
  convolution_param {
    num_output: 160
    kernel_size: 1
    weight_filler {
      type: "xavier"
      std: 0.09
    }
    bias_filler {
      type: "constant"
      value: 0.2
    }
  }
}
layers {
  bottom: "inception_4e/3x3_reduce"
  top: "inception_4e/3x3_reduce"
  name: "inception_4e/relu_3x3_reduce"
  type: RELU
}
layers {
  bottom: "inception_4e/3x3_reduce"
  top: "inception_4e/3x3"
  name: "inception_4e/3x3"
  type: CONVOLUTION
  blobs_lr: 1
  blobs_lr: 2
  weight_decay: 1
  weight_decay: 0
  convolution_param {
    num_output: 320
    pad: 1
    kernel_size: 3
    weight_filler {
      type: "xavier"
      std: 0.03
    }
    bias_filler {
      type: "constant"
      value: 0.2
    }
  }
}
layers {
  bottom: "inception_4e/3x3"
  top: "inception_4e/3x3"
  name: "inception_4e/relu_3x3"
  type: RELU
}
layers {
  bottom: "inception_4d/output"
  top: "inception_4e/5x5_reduce"
  name: "inception_4e/5x5_reduce"
  type: CONVOLUTION
  blobs_lr: 1
  blobs_lr: 2
  weight_decay: 1
  weight_decay: 0
  convolution_param {
    num_output: 32
    kernel_size: 1
    weight_filler {
      type: "xavier"
      std: 0.2
    }
    bias_filler {
      type: "constant"
      value: 0.2
    }
  }
}
layers {
  bottom: "inception_4e/5x5_reduce"
  top: "inception_4e/5x5_reduce"
  name: "inception_4e/relu_5x5_reduce"
  type: RELU
}
layers {
  bottom: "inception_4e/5x5_reduce"
  top: "inception_4e/5x5"
  name: "inception_4e/5x5"
  type: CONVOLUTION
  blobs_lr: 1
  blobs_lr: 2
  weight_decay: 1
  weight_decay: 0
  convolution_param {
    num_output: 128
    pad: 2
    kernel_size: 5
    weight_filler {
      type: "xavier"
      std: 0.03
    }
    bias_filler {
      type: "constant"
      value: 0.2
    }
  }
}
layers {
  bottom: "inception_4e/5x5"
  top: "inception_4e/5x5"
  name: "inception_4e/relu_5x5"
  type: RELU
}
layers {
  bottom: "inception_4d/output"
  top: "inception_4e/pool"
  name: "inception_4e/pool"
  type: POOLING
  pooling_param {
    pool: MAX
    kernel_size: 3
    stride: 1
    pad: 1
  }
}
layers {
  bottom: "inception_4e/pool"
  top: "inception_4e/pool_proj"
  name: "inception_4e/pool_proj"
  type: CONVOLUTION
  blobs_lr: 1
  blobs_lr: 2
  weight_decay: 1
  weight_decay: 0
  convolution_param {
    num_output: 128
    kernel_size: 1
    weight_filler {
      type: "xavier"
      std: 0.1
    }
    bias_filler {
      type: "constant"
      value: 0.2
    }
  }
}
layers {
  bottom: "inception_4e/pool_proj"
  top: "inception_4e/pool_proj"
  name: "inception_4e/relu_pool_proj"
  type: RELU
}
layers {
  bottom: "inception_4e/1x1"
  bottom: "inception_4e/3x3"
  bottom: "inception_4e/5x5"
  bottom: "inception_4e/pool_proj"
  top: "inception_4e/output"
  name: "inception_4e/output"
  type: CONCAT
}
layers {
  bottom: "inception_4e/output"
  top: "pool4/3x3_s2"
  name: "pool4/3x3_s
I0403 07:28:36.820627 14231 net.cpp:56] Memory required for data: 0
I0403 07:28:36.820837 14231 net.cpp:67] Creating Layer data
I0403 07:28:36.820852 14231 net.cpp:356] data -> data
I0403 07:28:36.820880 14231 net.cpp:356] data -> label
I0403 07:28:36.820896 14231 net.cpp:96] Setting up data
I0403 07:28:36.821014 14231 data_layer.cpp:68] Opening lmdb /mnt_data/yilin_guo/data/food_detection/train_images/
I0403 07:28:36.859786 14231 data_layer.cpp:128] output data size: 32,3,224,224
I0403 07:28:36.859807 14231 base_data_layer.cpp:36] Loading mean file fromdata/ilsvrc12/imagenet_mean.binaryproto
I0403 07:28:36.920764 14231 base_data_layer.cpp:64] Initializing prefetch
I0403 07:28:36.920902 14231 base_data_layer.cpp:66] Prefetch initialized.
I0403 07:28:36.920922 14231 net.cpp:103] Top shape: 32 3 224 224 (4816896)
I0403 07:28:36.920929 14231 net.cpp:103] Top shape: 32 1 1 1 (32)
I0403 07:28:36.920933 14231 net.cpp:113] Memory required for data: 19267712
I0403 07:28:36.920963 14231 net.cpp:67] Creating Layer label_data_1_split
I0403 07:28:36.920974 14231 net.cpp:394] label_data_1_split <- label
I0403 07:28:36.921001 14231 net.cpp:356] label_data_1_split -> label_data_1_split_0
I0403 07:28:36.921031 14231 net.cpp:356] label_data_1_split -> label_data_1_split_1
I0403 07:28:36.921052 14231 net.cpp:356] label_data_1_split -> label_data_1_split_2
I0403 07:28:36.921073 14231 net.cpp:96] Setting up label_data_1_split
I0403 07:28:36.921087 14231 net.cpp:103] Top shape: 32 1 1 1 (32)
I0403 07:28:36.921094 14231 net.cpp:103] Top shape: 32 1 1 1 (32)
I0403 07:28:36.921099 14231 net.cpp:103] Top shape: 32 1 1 1 (32)
I0403 07:28:36.921103 14231 net.cpp:113] Memory required for data: 19268096
I0403 07:28:36.921120 14231 net.cpp:67] Creating Layer conv1/7x7_s2
I0403 07:28:36.921125 14231 net.cpp:394] conv1/7x7_s2 <- data
I0403 07:28:36.921139 14231 net.cpp:356] conv1/7x7_s2 -> conv1/7x7_s2
I0403 07:28:36.921147 14231 net.cpp:96] Setting up conv1/7x7_s2
I0403 07:28:36.921838 14231 net.cpp:103] Top shape: 32 64 112 112 (25690112)
I0403 07:28:36.921845 14231 net.cpp:113] Memory required for data: 122028544
I0403 07:28:36.921870 14231 net.cpp:67] Creating Layer conv1/relu_7x7
I0403 07:28:36.921876 14231 net.cpp:394] conv1/relu_7x7 <- conv1/7x7_s2
I0403 07:28:36.921885 14231 net.cpp:345] conv1/relu_7x7 -> conv1/7x7_s2 (in-place)
I0403 07:28:36.921893 14231 net.cpp:96] Setting up conv1/relu_7x7
I0403 07:28:36.921898 14231 net.cpp:103] Top shape: 32 64 112 112 (25690112)
I0403 07:28:36.921901 14231 net.cpp:113] Memory required for data: 224788992
I0403 07:28:36.921916 14231 net.cpp:67] Creating Layer pool1/3x3_s2
I0403 07:28:36.921921 14231 net.cpp:394] pool1/3x3_s2 <- conv1/7x7_s2
I0403 07:28:36.921931 14231 net.cpp:356] pool1/3x3_s2 -> pool1/3x3_s2
I0403 07:28:36.921939 14231 net.cpp:96] Setting up pool1/3x3_s2
I0403 07:28:36.921954 14231 net.cpp:103] Top shape: 32 64 56 56 (6422528)
I0403 07:28:36.921958 14231 net.cpp:113] Memory required for data: 250479104
I0403 07:28:36.921969 14231 net.cpp:67] Creating Layer pool1/norm1
I0403 07:28:36.921974 14231 net.cpp:394] pool1/norm1 <- pool1/3x3_s2
I0403 07:28:36.921983 14231 net.cpp:356] pool1/norm1 -> pool1/norm1
I0403 07:28:36.921991 14231 net.cpp:96] Setting up pool1/norm1
I0403 07:28:36.922000 14231 net.cpp:103] Top shape: 32 64 56 56 (6422528)
I0403 07:28:36.922004 14231 net.cpp:113] Memory required for data: 276169216
I0403 07:28:36.922013 14231 net.cpp:67] Creating Layer conv2/3x3_reduce
I0403 07:28:36.922019 14231 net.cpp:394] conv2/3x3_reduce <- pool1/norm1
I0403 07:28:36.922029 14231 net.cpp:356] conv2/3x3_reduce -> conv2/3x3_reduce
I0403 07:28:36.922040 14231 net.cpp:96] Setting up conv2/3x3_reduce
I0403 07:28:36.922317 14231 net.cpp:103] Top shape: 32 64 56 56 (6422528)
I0403 07:28:36.922323 14231 net.cpp:113] Memory required for data: 301859328
I0403 07:28:36.922338 14231 net.cpp:67] Creating Layer conv2/relu_3x3_reduce
I0403 07:28:36.922343 14231 net.cpp:394] conv2/relu_3x3_reduce <- conv2/3x3_reduce
I0403 07:28:36.922353 14231 net.cpp:345] conv2/relu_3x3_reduce -> conv2/3x3_reduce (in-place)
I0403 07:28:36.922359 14231 net.cpp:96] Setting up conv2/relu_3x3_reduce
I0403 07:28:36.922363 14231 net.cpp:103] Top shape: 32 64 56 56 (6422528)
I0403 07:28:36.922368 14231 net.cpp:113] Memory required for data: 327549440
I0403 07:28:36.922379 14231 net.cpp:67] Creating Layer conv2/3x3
I0403 07:28:36.922382 14231 net.cpp:394] conv2/3x3 <- conv2/3x3_reduce
I0403 07:28:36.922394 14231 net.cpp:356] conv2/3x3 -> conv2/3x3
I0403 07:28:36.922402 14231 net.cpp:96] Setting up conv2/3x3
I0403 07:28:36.930534 14231 net.cpp:103] Top shape: 32 192 56 56 (19267584)
I0403 07:28:36.930557 14231 net.cpp:113] Memory required for data: 404619776
I0403 07:28:36.930580 14231 net.cpp:67] Creating Layer conv2/relu_3x3
I0403 07:28:36.930588 14231 net.cpp:394] conv2/relu_3x3 <- conv2/3x3
I0403 07:28:36.930603 14231 net.cpp:345] conv2/relu_3x3 -> conv2/3x3 (in-place)
I0403 07:28:36.930613 14231 net.cpp:96] Setting up conv2/relu_3x3
I0403 07:28:36.930619 14231 net.cpp:103] Top shape: 32 192 56 56 (19267584)
I0403 07:28:36.930624 14231 net.cpp:113] Memory required for data: 481690112
I0403 07:28:36.930640 14231 net.cpp:67] Creating Layer conv2/norm2
I0403 07:28:36.930647 14231 net.cpp:394] conv2/norm2 <- conv2/3x3
I0403 07:28:36.930662 14231 net.cpp:356] conv2/norm2 -> conv2/norm2
I0403 07:28:36.930675 14231 net.cpp:96] Setting up conv2/norm2
I0403 07:28:36.930683 14231 net.cpp:103] Top shape: 32 192 56 56 (19267584)
I0403 07:28:36.930688 14231 net.cpp:113] Memory required for data: 558760448
I0403 07:28:36.930698 14231 net.cpp:67] Creating Layer pool2/3x3_s2
I0403 07:28:36.930706 14231 net.cpp:394] pool2/3x3_s2 <- conv2/norm2
I0403 07:28:36.930718 14231 net.cpp:356] pool2/3x3_s2 -> pool2/3x3_s2
I0403 07:28:36.930730 14231 net.cpp:96] Setting up pool2/3x3_s2
I0403 07:28:36.930740 14231 net.cpp:103] Top shape: 32 192 28 28 (4816896)
I0403 07:28:36.930745 14231 net.cpp:113] Memory required for data: 578028032
I0403 07:28:36.930755 14231 net.cpp:67] Creating Layer pool2/3x3_s2_pool2/3x3_s2_0_split
I0403 07:28:36.930762 14231 net.cpp:394] pool2/3x3_s2_pool2/3x3_s2_0_split <- pool2/3x3_s2
I0403 07:28:36.930775 14231 net.cpp:356] pool2/3x3_s2_pool2/3x3_s2_0_split -> pool2/3x3_s2_pool2/3x3_s2_0_split_0
I0403 07:28:36.930789 14231 net.cpp:356] pool2/3x3_s2_pool2/3x3_s2_0_split -> pool2/3x3_s2_pool2/3x3_s2_0_split_1
I0403 07:28:36.930804 14231 net.cpp:356] pool2/3x3_s2_pool2/3x3_s2_0_split -> pool2/3x3_s2_pool2/3x3_s2_0_split_2
I0403 07:28:36.930815 14231 net.cpp:356] pool2/3x3_s2_pool2/3x3_s2_0_split -> pool2/3x3_s2_pool2/3x3_s2_0_split_3
I0403 07:28:36.930824 14231 net.cpp:96] Setting up pool2/3x3_s2_pool2/3x3_s2_0_split
I0403 07:28:36.930835 14231 net.cpp:103] Top shape: 32 192 28 28 (4816896)
I0403 07:28:36.930840 14231 net.cpp:103] Top shape: 32 192 28 28 (4816896)
I0403 07:28:36.930845 14231 net.cpp:103] Top shape: 32 192 28 28 (4816896)
I0403 07:28:36.930850 14231 net.cpp:103] Top shape: 32 192 28 28 (4816896)
I0403 07:28:36.930855 14231 net.cpp:113] Memory required for data: 655098368
I0403 07:28:36.930869 14231 net.cpp:67] Creating Layer inception_3a/1x1
I0403 07:28:36.930876 14231 net.cpp:394] inception_3a/1x1 <- pool2/3x3_s2_pool2/3x3_s2_0_split_0
I0403 07:28:36.930892 14231 net.cpp:356] inception_3a/1x1 -> inception_3a/1x1
I0403 07:28:36.930909 14231 net.cpp:96] Setting up inception_3a/1x1
I0403 07:28:36.932082 14231 net.cpp:103] Top shape: 32 64 28 28 (1605632)
I0403 07:28:36.932101 14231 net.cpp:113] Memory required for data: 661520896
I0403 07:28:36.932118 14231 net.cpp:67] Creating Layer inception_3a/relu_1x1
I0403 07:28:36.932126 14231 net.cpp:394] inception_3a/relu_1x1 <- inception_3a/1x1
I0403 07:28:36.932139 14231 net.cpp:345] inception_3a/relu_1x1 -> inception_3a/1x1 (in-place)
I0403 07:28:36.932150 14231 net.cpp:96] Setting up inception_3a/relu_1x1
I0403 07:28:36.932157 14231 net.cpp:103] Top shape: 32 64 28 28 (1605632)
I0403 07:28:36.932162 14231 net.cpp:113] Memory required for data: 667943424
I0403 07:28:36.932174 14231 net.cpp:67] Creating Layer inception_3a/3x3_reduce
I0403 07:28:36.932181 14231 net.cpp:394] inception_3a/3x3_reduce <- pool2/3x3_s2_pool2/3x3_s2_0_split_1
I0403 07:28:36.932198 14231 net.cpp:356] inception_3a/3x3_reduce -> inception_3a/3x3_reduce
I0403 07:28:36.932214 14231 net.cpp:96] Setting up inception_3a/3x3_reduce
I0403 07:28:36.933384 14231 net.cpp:103] Top shape: 32 96 28 28 (2408448)
I0403 07:28:36.933398 14231 net.cpp:113] Memory required for data: 677577216
I0403 07:28:36.933420 14231 net.cpp:67] Creating Layer inception_3a/relu_3x3_reduce
I0403 07:28:36.933426 14231 net.cpp:394] inception_3a/relu_3x3_reduce <- inception_3a/3x3_reduce
I0403 07:28:36.933436 14231 net.cpp:345] inception_3a/relu_3x3_reduce -> inception_3a/3x3_reduce (in-place)
I0403 07:28:36.933444 14231 net.cpp:96] Setting up inception_3a/relu_3x3_reduce
I0403 07:28:36.933449 14231 net.cpp:103] Top shape: 32 96 28 28 (2408448)
I0403 07:28:36.933451 14231 net.cpp:113] Memory required for data: 687211008
I0403 07:28:36.933460 14231 net.cpp:67] Creating Layer inception_3a/3x3
I0403 07:28:36.933465 14231 net.cpp:394] inception_3a/3x3 <- inception_3a/3x3_reduce
I0403 07:28:36.933476 14231 net.cpp:356] inception_3a/3x3 -> inception_3a/3x3
I0403 07:28:36.933485 14231 net.cpp:96] Setting up inception_3a/3x3
I0403 07:28:36.942138 14231 net.cpp:103] Top shape: 32 128 28 28 (3211264)
I0403 07:28:36.942155 14231 net.cpp:113] Memory required for data: 700056064
I0403 07:28:36.942168 14231 net.cpp:67] Creating Layer inception_3a/relu_3x3
I0403 07:28:36.942178 14231 net.cpp:394] inception_3a/relu_3x3 <- inception_3a/3x3
I0403 07:28:36.942188 14231 net.cpp:345] inception_3a/relu_3x3 -> inception_3a/3x3 (in-place)
I0403 07:28:36.942195 14231 net.cpp:96] Setting up inception_3a/relu_3x3
I0403 07:28:36.942203 14231 net.cpp:103] Top shape: 32 128 28 28 (3211264)
I0403 07:28:36.942206 14231 net.cpp:113] Memory required for data: 712901120
I0403 07:28:36.942215 14231 net.cpp:67] Creating Layer inception_3a/5x5_reduce
I0403 07:28:36.942220 14231 net.cpp:394] inception_3a/5x5_reduce <- pool2/3x3_s2_pool2/3x3_s2_0_split_2
I0403 07:28:36.942234 14231 net.cpp:356] inception_3a/5x5_reduce -> inception_3a/5x5_reduce
I0403 07:28:36.942245 14231 net.cpp:96] Setting up inception_3a/5x5_reduce
I0403 07:28:36.942457 14231 net.cpp:103] Top shape: 32 16 28 28 (401408)
I0403 07:28:36.942469 14231 net.cpp:113] Memory required for data: 714506752
I0403 07:28:36.942483 14231 net.cpp:67] Creating Layer inception_3a/relu_5x5_reduce
I0403 07:28:36.942488 14231 net.cpp:394] inception_3a/relu_5x5_reduce <- inception_3a/5x5_reduce
I0403 07:28:36.942498 14231 net.cpp:345] inception_3a/relu_5x5_reduce -> inception_3a/5x5_reduce (in-place)
I0403 07:28:36.942505 14231 net.cpp:96] Setting up inception_3a/relu_5x5_reduce
I0403 07:28:36.942509 14231 net.cpp:103] Top shape: 32 16 28 28 (401408)
I0403 07:28:36.942513 14231 net.cpp:113] Memory required for data: 716112384
I0403 07:28:36.942528 14231 net.cpp:67] Creating Layer inception_3a/5x5
I0403 07:28:36.942533 14231 net.cpp:394] inception_3a/5x5 <- inception_3a/5x5_reduce
I0403 07:28:36.942544 14231 net.cpp:356] inception_3a/5x5 -> inception_3a/5x5
I0403 07:28:36.942553 14231 net.cpp:96] Setting up inception_3a/5x5
I0403 07:28:36.943418 14231 net.cpp:103] Top shape: 32 32 28 28 (802816)
I0403 07:28:36.943434 14231 net.cpp:113] Memory required for data: 719323648
I0403 07:28:36.943446 14231 net.cpp:67] Creating Layer inception_3a/relu_5x5
I0403 07:28:36.943451 14231 net.cpp:394] inception_3a/relu_5x5 <- inception_3a/5x5
I0403 07:28:36.943464 14231 net.cpp:345] inception_3a/relu_5x5 -> inception_3a/5x5 (in-place)
I0403 07:28:36.943474 14231 net.cpp:96] Setting up inception_3a/relu_5x5
I0403 07:28:36.943477 14231 net.cpp:103] Top shape: 32 32 28 28 (802816)
I0403 07:28:36.943480 14231 net.cpp:113] Memory required for data: 722534912
I0403 07:28:36.943487 14231 net.cpp:67] Creating Layer inception_3a/pool
I0403 07:28:36.943492 14231 net.cpp:394] inception_3a/pool <- pool2/3x3_s2_pool2/3x3_s2_0_split_3
I0403 07:28:36.943502 14231 net.cpp:356] inception_3a/pool -> inception_3a/pool
I0403 07:28:36.943511 14231 net.cpp:96] Setting up inception_3a/pool
I0403 07:28:36.943519 14231 net.cpp:103] Top shape: 32 192 28 28 (4816896)
I0403 07:28:36.943522 14231 net.cpp:113] Memory required for data: 741802496
I0403 07:28:36.943534 14231 net.cpp:67] Creating Layer inception_3a/pool_proj
I0403 07:28:36.943539 14231 net.cpp:394] inception_3a/pool_proj <- inception_3a/pool
I0403 07:28:36.943550 14231 net.cpp:356] inception_3a/pool_proj -> inception_3a/pool_proj
I0403 07:28:36.943562 14231 net.cpp:96] Setting up inception_3a/pool_proj
I0403 07:28:36.943965 14231 net.cpp:103] Top shape: 32 32 28 28 (802816)
I0403 07:28:36.943979 14231 net.cpp:113] Memory required for data: 745013760
I0403 07:28:36.943996 14231 net.cpp:67] Creating Layer inception_3a/relu_pool_proj
I0403 07:28:36.944002 14231 net.cpp:394] inception_3a/relu_pool_proj <- inception_3a/pool_proj
I0403 07:28:36.944011 14231 net.cpp:345] inception_3a/relu_pool_proj -> inception_3a/pool_proj (in-place)
I0403 07:28:36.944020 14231 net.cpp:96] Setting up inception_3a/relu_pool_proj
I0403 07:28:36.944023 14231 net.cpp:103] Top shape: 32 32 28 28 (802816)
I0403 07:28:36.944027 14231 net.cpp:113] Memory required for data: 748225024
I0403 07:28:36.944033 14231 net.cpp:67] Creating Layer inception_3a/output
I0403 07:28:36.944037 14231 net.cpp:394] inception_3a/output <- inception_3a/1x1
I0403 07:28:36.944046 14231 net.cpp:394] inception_3a/output <- inception_3a/3x3
I0403 07:28:36.944051 14231 net.cpp:394] inception_3a/output <- inception_3a/5x5
I0403 07:28:36.944057 14231 net.cpp:394] inception_3a/output <- inception_3a/pool_proj
I0403 07:28:36.944067 14231 net.cpp:356] inception_3a/output -> inception_3a/output
I0403 07:28:36.944077 14231 net.cpp:96] Setting up inception_3a/output
I0403 07:28:36.944082 14231 net.cpp:103] Top shape: 32 256 28 28 (6422528)
I0403 07:28:36.944085 14231 net.cpp:113] Memory required for data: 773915136
I0403 07:28:36.944092 14231 net.cpp:67] Creating Layer inception_3a/output_inception_3a/output_0_split
I0403 07:28:36.944097 14231 net.cpp:394] inception_3a/output_inception_3a/output_0_split <- inception_3a/output
I0403 07:28:36.944108 14231 net.cpp:356] inception_3a/output_inception_3a/output_0_split -> inception_3a/output_inception_3a/output_0_split_0
I0403 07:28:36.944118 14231 net.cpp:356] inception_3a/output_inception_3a/output_0_split -> inception_3a/output_inception_3a/output_0_split_1
I0403 07:28:36.944128 14231 net.cpp:356] inception_3a/output_inception_3a/output_0_split -> inception_3a/output_inception_3a/output_0_split_2
I0403 07:28:36.944136 14231 net.cpp:356] inception_3a/output_inception_3a/output_0_split -> inception_3a/output_inception_3a/output_0_split_3
I0403 07:28:36.944144 14231 net.cpp:96] Setting up inception_3a/output_inception_3a/output_0_split
I0403 07:28:36.944149 14231 net.cpp:103] Top shape: 32 256 28 28 (6422528)
I0403 07:28:36.944154 14231 net.cpp:103] Top shape: 32 256 28 28 (6422528)
I0403 07:28:36.944157 14231 net.cpp:103] Top shape: 32 256 28 28 (6422528)
I0403 07:28:36.944160 14231 net.cpp:103] Top shape: 32 256 28 28 (6422528)
I0403 07:28:36.944164 14231 net.cpp:113] Memory required for data: 876675584
I0403 07:28:36.944171 14231 net.cpp:67] Creating Layer inception_3b/1x1
I0403 07:28:36.944176 14231 net.cpp:394] inception_3b/1x1 <- inception_3a/output_inception_3a/output_0_split_0
I0403 07:28:36.944191 14231 net.cpp:356] inception_3b/1x1 -> inception_3b/1x1
I0403 07:28:36.944201 14231 net.cpp:96] Setting up inception_3b/1x1
I0403 07:28:36.947180 14231 net.cpp:103] Top shape: 32 128 28 28 (3211264)
I0403 07:28:36.947196 14231 net.cpp:113] Memory required for data: 889520640
I0403 07:28:36.947209 14231 net.cpp:67] Creating Layer inception_3b/relu_1x1
I0403 07:28:36.947218 14231 net.cpp:394] inception_3b/relu_1x1 <- inception_3b/1x1
I0403 07:28:36.947239 14231 net.cpp:345] inception_3b/relu_1x1 -> inception_3b/1x1 (in-place)
I0403 07:28:36.947249 14231 net.cpp:96] Setting up inception_3b/relu_1x1
I0403 07:28:36.947253 14231 net.cpp:103] Top shape: 32 128 28 28 (3211264)
I0403 07:28:36.947257 14231 net.cpp:113] Memory required for data: 902365696
I0403 07:28:36.947265 14231 net.cpp:67] Creating Layer inception_3b/3x3_reduce
I0403 07:28:36.947270 14231 net.cpp:394] inception_3b/3x3_reduce <- inception_3a/output_inception_3a/output_0_split_1
I0403 07:28:36.947284 14231 net.cpp:356] inception_3b/3x3_reduce -> inception_3b/3x3_reduce
I0403 07:28:36.947294 14231 net.cpp:96] Setting up inception_3b/3x3_reduce
I0403 07:28:36.949635 14231 net.cpp:103] Top shape: 32 128 28 28 (3211264)
I0403 07:28:36.949653 14231 net.cpp:113] Memory required for data: 915210752
I0403 07:28:36.949671 14231 net.cpp:67] Creating Layer inception_3b/relu_3x3_reduce
I0403 07:28:36.949678 14231 net.cpp:394] inception_3b/relu_3x3_reduce <- inception_3b/3x3_reduce
I0403 07:28:36.949692 14231 net.cpp:345] inception_3b/relu_3x3_reduce -> inception_3b/3x3_reduce (in-place)
I0403 07:28:36.949707 14231 net.cpp:96] Setting up inception_3b/relu_3x3_reduce
I0403 07:28:36.949712 14231 net.cpp:103] Top shape: 32 128 28 28 (3211264)
I0403 07:28:36.949717 14231 net.cpp:113] Memory required for data: 928055808
I0403 07:28:36.949736 14231 net.cpp:67] Creating Layer inception_3b/3x3
I0403 07:28:36.949744 14231 net.cpp:394] inception_3b/3x3 <- inception_3b/3x3_reduce
I0403 07:28:36.949762 14231 net.cpp:356] inception_3b/3x3 -> inception_3b/3x3
I0403 07:28:36.949776 14231 net.cpp:96] Setting up inception_3b/3x3
I0403 07:28:36.966784 14231 net.cpp:103] Top shape: 32 192 28 28 (4816896)
I0403 07:28:36.966799 14231 net.cpp:113] Memory required for data: 947323392
I0403 07:28:36.966814 14231 net.cpp:67] Creating Layer inception_3b/relu_3x3
I0403 07:28:36.966820 14231 net.cpp:394] inception_3b/relu_3x3 <- inception_3b/3x3
I0403 07:28:36.966832 14231 net.cpp:345] inception_3b/relu_3x3 -> inception_3b/3x3 (in-place)
I0403 07:28:36.966841 14231 net.cpp:96] Setting up inception_3b/relu_3x3
I0403 07:28:36.966845 14231 net.cpp:103] Top shape: 32 192 28 28 (4816896)
I0403 07:28:36.966848 14231 net.cpp:113] Memory required for data: 966590976
I0403 07:28:36.966857 14231 net.cpp:67] Creating Layer inception_3b/5x5_reduce
I0403 07:28:36.966862 14231 net.cpp:394] inception_3b/5x5_reduce <- inception_3a/output_inception_3a/output_0_split_2
I0403 07:28:36.966873 14231 net.cpp:356] inception_3b/5x5_reduce -> inception_3b/5x5_reduce
I0403 07:28:36.966882 14231 net.cpp:96] Setting up inception_3b/5x5_reduce
I0403 07:28:36.967432 14231 net.cpp:103] Top shape: 32 32 28 28 (802816)
I0403 07:28:36.967445 14231 net.cpp:113] Memory required for data: 969802240
I0403 07:28:36.967459 14231 net.cpp:67] Creating Layer inception_3b/relu_5x5_reduce
I0403 07:28:36.967465 14231 net.cpp:394] inception_3b/relu_5x5_reduce <- inception_3b/5x5_reduce
I0403 07:28:36.967475 14231 net.cpp:345] inception_3b/relu_5x5_reduce -> inception_3b/5x5_reduce (in-place)
I0403 07:28:36.967483 14231 net.cpp:96] Setting up inception_3b/relu_5x5_reduce
I0403 07:28:36.967488 14231 net.cpp:103] Top shape: 32 32 28 28 (802816)
I0403 07:28:36.967490 14231 net.cpp:113] Memory required for data: 973013504
I0403 07:28:36.967499 14231 net.cpp:67] Creating Layer inception_3b/5x5
I0403 07:28:36.967506 14231 net.cpp:394] inception_3b/5x5 <- inception_3b/5x5_reduce
I0403 07:28:36.967517 14231 net.cpp:356] inception_3b/5x5 -> inception_3b/5x5
I0403 07:28:36.967531 14231 net.cpp:96] Setting up inception_3b/5x5
I0403 07:28:36.973289 14231 net.cpp:103] Top shape: 32 96 28 28 (2408448)
I0403 07:28:36.973304 14231 net.cpp:113] Memory required for data: 982647296
I0403 07:28:36.973320 14231 net.cpp:67] Creating Layer inception_3b/relu_5x5
I0403 07:28:36.973326 14231 net.cpp:394] inception_3b/relu_5x5 <- inception_3b/5x5
I0403 07:28:36.973336 14231 net.cpp:345] inception_3b/relu_5x5 -> inception_3b/5x5 (in-place)
I0403 07:28:36.973345 14231 net.cpp:96] Setting up inception_3b/relu_5x5
I0403 07:28:36.973348 14231 net.cpp:103] Top shape: 32 96 28 28 (2408448)
I0403 07:28:36.973352 14231 net.cpp:113] Memory required for data: 992281088
I0403 07:28:36.973359 14231 net.cpp:67] Creating Layer inception_3b/pool
I0403 07:28:36.973364 14231 net.cpp:394] inception_3b/pool <- inception_3a/output_inception_3a/output_0_split_3
I0403 07:28:36.973376 14231 net.cpp:356] inception_3b/pool -> inception_3b/pool
I0403 07:28:36.973387 14231 net.cpp:96] Setting up inception_3b/pool
I0403 07:28:36.973393 14231 net.cpp:103] Top shape: 32 256 28 28 (6422528)
I0403 07:28:36.973397 14231 net.cpp:113] Memory required for data: 1017971200
I0403 07:28:36.973405 14231 net.cpp:67] Creating Layer inception_3b/pool_proj
I0403 07:28:36.973410 14231 net.cpp:394] inception_3b/pool_proj <- inception_3b/pool
I0403 07:28:36.973424 14231 net.cpp:356] inception_3b/pool_proj -> inception_3b/pool_proj
I0403 07:28:36.973433 14231 net.cpp:96] Setting up inception_3b/pool_proj
I0403 07:28:36.974750 14231 net.cpp:103] Top shape: 32 64 28 28 (1605632)
I0403 07:28:36.974767 14231 net.cpp:113] Memory required for data: 1024393728
I0403 07:28:36.974784 14231 net.cpp:67] Creating Layer inception_3b/relu_pool_proj
I0403 07:28:36.974792 14231 net.cpp:394] inception_3b/relu_pool_proj <- inception_3b/pool_proj
I0403 07:28:36.974807 14231 net.cpp:345] inception_3b/relu_pool_proj -> inception_3b/pool_proj (in-place)
I0403 07:28:36.974822 14231 net.cpp:96] Setting up inception_3b/relu_pool_proj
I0403 07:28:36.974828 14231 net.cpp:103] Top shape: 32 64 28 28 (1605632)
I0403 07:28:36.974833 14231 net.cpp:113] Memory required for data: 1030816256
I0403 07:28:36.974843 14231 net.cpp:67] Creating Layer inception_3b/output
I0403 07:28:36.974848 14231 net.cpp:394] inception_3b/output <- inception_3b/1x1
I0403 07:28:36.974859 14231 net.cpp:394] inception_3b/output <- inception_3b/3x3
I0403 07:28:36.974869 14231 net.cpp:394] inception_3b/output <- inception_3b/5x5
I0403 07:28:36.974877 14231 net.cpp:394] inception_3b/output <- inception_3b/pool_proj
I0403 07:28:36.974887 14231 net.cpp:356] inception_3b/output -> inception_3b/output
I0403 07:28:36.974899 14231 net.cpp:96] Setting up inception_3b/output
I0403 07:28:36.974907 14231 net.cpp:103] Top shape: 32 480 28 28 (12042240)
I0403 07:28:36.974912 14231 net.cpp:113] Memory required for data: 1078985216
I0403 07:28:36.974922 14231 net.cpp:67] Creating Layer pool3/3x3_s2
I0403 07:28:36.974930 14231 net.cpp:394] pool3/3x3_s2 <- inception_3b/output
I0403 07:28:36.974946 14231 net.cpp:356] pool3/3x3_s2 -> pool3/3x3_s2
I0403 07:28:36.974958 14231 net.cpp:96] Setting up pool3/3x3_s2
I0403 07:28:36.974968 14231 net.cpp:103] Top shape: 32 480 14 14 (3010560)
I0403 07:28:36.974973 14231 net.cpp:113] Memory required for data: 1091027456
I0403 07:28:36.974982 14231 net.cpp:67] Creating Layer pool3/3x3_s2_pool3/3x3_s2_0_split
I0403 07:28:36.974988 14231 net.cpp:394] pool3/3x3_s2_pool3/3x3_s2_0_split <- pool3/3x3_s2
I0403 07:28:36.975005 14231 net.cpp:356] pool3/3x3_s2_pool3/3x3_s2_0_split -> pool3/3x3_s2_pool3/3x3_s2_0_split_0
I0403 07:28:36.975024 14231 net.cpp:356] pool3/3x3_s2_pool3/3x3_s2_0_split -> pool3/3x3_s2_pool3/3x3_s2_0_split_1
I0403 07:28:36.975038 14231 net.cpp:356] pool3/3x3_s2_pool3/3x3_s2_0_split -> pool3/3x3_s2_pool3/3x3_s2_0_split_2
I0403 07:28:36.975050 14231 net.cpp:356] pool3/3x3_s2_pool3/3x3_s2_0_split -> pool3/3x3_s2_pool3/3x3_s2_0_split_3
I0403 07:28:36.975059 14231 net.cpp:96] Setting up pool3/3x3_s2_pool3/3x3_s2_0_split
I0403 07:28:36.975069 14231 net.cpp:103] Top shape: 32 480 14 14 (3010560)
I0403 07:28:36.975075 14231 net.cpp:103] Top shape: 32 480 14 14 (3010560)
I0403 07:28:36.975080 14231 net.cpp:103] Top shape: 32 480 14 14 (3010560)
I0403 07:28:36.975085 14231 net.cpp:103] Top shape: 32 480 14 14 (3010560)
I0403 07:28:36.975090 14231 net.cpp:113] Memory required for data: 1139196416
I0403 07:28:36.975102 14231 net.cpp:67] Creating Layer inception_4a/1x1
I0403 07:28:36.975110 14231 net.cpp:394] inception_4a/1x1 <- pool3/3x3_s2_pool3/3x3_s2_0_split_0
I0403 07:28:36.975128 14231 net.cpp:356] inception_4a/1x1 -> inception_4a/1x1
I0403 07:28:36.975142 14231 net.cpp:96] Setting up inception_4a/1x1
I0403 07:28:36.982252 14231 net.cpp:103] Top shape: 32 192 14 14 (1204224)
I0403 07:28:36.982269 14231 net.cpp:113] Memory required for data: 1144013312
I0403 07:28:36.982281 14231 net.cpp:67] Creating Layer inception_4a/relu_1x1
I0403 07:28:36.982287 14231 net.cpp:394] inception_4a/relu_1x1 <- inception_4a/1x1
I0403 07:28:36.982300 14231 net.cpp:345] inception_4a/relu_1x1 -> inception_4a/1x1 (in-place)
I0403 07:28:36.982308 14231 net.cpp:96] Setting up inception_4a/relu_1x1
I0403 07:28:36.982313 14231 net.cpp:103] Top shape: 32 192 14 14 (1204224)
I0403 07:28:36.982316 14231 net.cpp:113] Memory required for data: 1148830208
I0403 07:28:36.982326 14231 net.cpp:67] Creating Layer inception_4a/3x3_reduce
I0403 07:28:36.982331 14231 net.cpp:394] inception_4a/3x3_reduce <- pool3/3x3_s2_pool3/3x3_s2_0_split_1
I0403 07:28:36.982344 14231 net.cpp:356] inception_4a/3x3_reduce -> inception_4a/3x3_reduce
I0403 07:28:36.982360 14231 net.cpp:96] Setting up inception_4a/3x3_reduce
I0403 07:28:36.986150 14231 net.cpp:103] Top shape: 32 96 14 14 (602112)
I0403 07:28:36.986166 14231 net.cpp:113] Memory required for data: 1151238656
I0403 07:28:36.986196 14231 net.cpp:67] Creating Layer inception_4a/relu_3x3_reduce
I0403 07:28:36.986212 14231 net.cpp:394] inception_4a/relu_3x3_reduce <- inception_4a/3x3_reduce
I0403 07:28:36.986222 14231 net.cpp:345] inception_4a/relu_3x3_reduce -> inception_4a/3x3_reduce (in-place)
I0403 07:28:36.986232 14231 net.cpp:96] Setting up inception_4a/relu_3x3_reduce
I0403 07:28:36.986235 14231 net.cpp:103] Top shape: 32 96 14 14 (602112)
I0403 07:28:36.986239 14231 net.cpp:113] Memory required for data: 1153647104
I0403 07:28:36.986248 14231 net.cpp:67] Creating Layer inception_4a/3x3
I0403 07:28:36.986253 14231 net.cpp:394] inception_4a/3x3 <- inception_4a/3x3_reduce
I0403 07:28:36.986265 14231 net.cpp:356] inception_4a/3x3 -> inception_4a/3x3
I0403 07:28:36.986276 14231 net.cpp:96] Setting up inception_4a/3x3
I0403 07:28:37.000226 14231 net.cpp:103] Top shape: 32 208 14 14 (1304576)
I0403 07:28:37.000241 14231 net.cpp:113] Memory required for data: 1158865408
I0403 07:28:37.000255 14231 net.cpp:67] Creating Layer inception_4a/relu_3x3
I0403 07:28:37.000262 14231 net.cpp:394] inception_4a/relu_3x3 <- inception_4a/3x3
I0403 07:28:37.000272 14231 net.cpp:345] inception_4a/relu_3x3 -> inception_4a/3x3 (in-place)
I0403 07:28:37.000279 14231 net.cpp:96] Setting up inception_4a/relu_3x3
I0403 07:28:37.000283 14231 net.cpp:103] Top shape: 32 208 14 14 (1304576)
I0403 07:28:37.000288 14231 net.cpp:113] Memory required for data: 1164083712
I0403 07:28:37.000298 14231 net.cpp:67] Creating Layer inception_4a/5x5_reduce
I0403 07:28:37.000304 14231 net.cpp:394] inception_4a/5x5_reduce <- pool3/3x3_s2_pool3/3x3_s2_0_split_2
I0403 07:28:37.000315 14231 net.cpp:356] inception_4a/5x5_reduce -> inception_4a/5x5_reduce
I0403 07:28:37.000324 14231 net.cpp:96] Setting up inception_4a/5x5_reduce
I0403 07:28:37.000820 14231 net.cpp:103] Top shape: 32 16 14 14 (100352)
I0403 07:28:37.000833 14231 net.cpp:113] Memory required for data: 1164485120
I0403 07:28:37.000844 14231 net.cpp:67] Creating Layer inception_4a/relu_5x5_reduce
I0403 07:28:37.000849 14231 net.cpp:394] inception_4a/relu_5x5_reduce <- inception_4a/5x5_reduce
I0403 07:28:37.000862 14231 net.cpp:345] inception_4a/relu_5x5_reduce -> inception_4a/5x5_reduce (in-place)
I0403 07:28:37.000870 14231 net.cpp:96] Setting up inception_4a/relu_5x5_reduce
I0403 07:28:37.000874 14231 net.cpp:103] Top shape: 32 16 14 14 (100352)
I0403 07:28:37.000877 14231 net.cpp:113] Memory required for data: 1164886528
I0403 07:28:37.000886 14231 net.cpp:67] Creating Layer inception_4a/5x5
I0403 07:28:37.000895 14231 net.cpp:394] inception_4a/5x5 <- inception_4a/5x5_reduce
I0403 07:28:37.000910 14231 net.cpp:356] inception_4a/5x5 -> inception_4a/5x5
I0403 07:28:37.000921 14231 net.cpp:96] Setting up inception_4a/5x5
I0403 07:28:37.002177 14231 net.cpp:103] Top shape: 32 48 14 14 (301056)
I0403 07:28:37.002192 14231 net.cpp:113] Memory required for data: 1166090752
I0403 07:28:37.002204 14231 net.cpp:67] Creating Layer inception_4a/relu_5x5
I0403 07:28:37.002210 14231 net.cpp:394] inception_4a/relu_5x5 <- inception_4a/5x5
I0403 07:28:37.002220 14231 net.cpp:345] inception_4a/relu_5x5 -> inception_4a/5x5 (in-place)
I0403 07:28:37.002228 14231 net.cpp:96] Setting up inception_4a/relu_5x5
I0403 07:28:37.002233 14231 net.cpp:103] Top shape: 32 48 14 14 (301056)
I0403 07:28:37.002235 14231 net.cpp:113] Memory required for data: 1167294976
I0403 07:28:37.002246 14231 net.cpp:67] Creating Layer inception_4a/pool
I0403 07:28:37.002251 14231 net.cpp:394] inception_4a/pool <- pool3/3x3_s2_pool3/3x3_s2_0_split_3
I0403 07:28:37.002261 14231 net.cpp:356] inception_4a/pool -> inception_4a/pool
I0403 07:28:37.002270 14231 net.cpp:96] Setting up inception_4a/pool
I0403 07:28:37.002277 14231 net.cpp:103] Top shape: 32 480 14 14 (3010560)
I0403 07:28:37.002281 14231 net.cpp:113] Memory required for data: 1179337216
I0403 07:28:37.002292 14231 net.cpp:67] Creating Layer inception_4a/pool_proj
I0403 07:28:37.002298 14231 net.cpp:394] inception_4a/pool_proj <- inception_4a/pool
I0403 07:28:37.002308 14231 net.cpp:356] inception_4a/pool_proj -> inception_4a/pool_proj
I0403 07:28:37.002317 14231 net.cpp:96] Setting up inception_4a/pool_proj
I0403 07:28:37.004992 14231 net.cpp:103] Top shape: 32 64 14 14 (401408)
I0403 07:28:37.005010 14231 net.cpp:113] Memory required for data: 1180942848
I0403 07:28:37.005028 14231 net.cpp:67] Creating Layer inception_4a/relu_pool_proj
I0403 07:28:37.005036 14231 net.cpp:394] inception_4a/relu_pool_proj <- inception_4a/pool_proj
I0403 07:28:37.005053 14231 net.cpp:345] inception_4a/relu_pool_proj -> inception_4a/pool_proj (in-place)
I0403 07:28:37.005065 14231 net.cpp:96] Setting up inception_4a/relu_pool_proj
I0403 07:28:37.005071 14231 net.cpp:103] Top shape: 32 64 14 14 (401408)
I0403 07:28:37.005076 14231 net.cpp:113] Memory required for data: 1182548480
I0403 07:28:37.005085 14231 net.cpp:67] Creating Layer inception_4a/output
I0403 07:28:37.005096 14231 net.cpp:394] inception_4a/output <- inception_4a/1x1
I0403 07:28:37.005107 14231 net.cpp:394] inception_4a/output <- inception_4a/3x3
I0403 07:28:37.005117 14231 net.cpp:394] inception_4a/output <- inception_4a/5x5
I0403 07:28:37.005127 14231 net.cpp:394] inception_4a/output <- inception_4a/pool_proj
I0403 07:28:37.005138 14231 net.cpp:356] inception_4a/output -> inception_4a/output
I0403 07:28:37.005151 14231 net.cpp:96] Setting up inception_4a/output
I0403 07:28:37.005158 14231 net.cpp:103] Top shape: 32 512 14 14 (3211264)
I0403 07:28:37.005163 14231 net.cpp:113] Memory required for data: 1195393536
I0403 07:28:37.005172 14231 net.cpp:67] Creating Layer inception_4a/output_inception_4a/output_0_split
I0403 07:28:37.005179 14231 net.cpp:394] inception_4a/output_inception_4a/output_0_split <- inception_4a/output
I0403 07:28:37.005201 14231 net.cpp:356] inception_4a/output_inception_4a/output_0_split -> inception_4a/output_inception_4a/output_0_split_0
I0403 07:28:37.005218 14231 net.cpp:356] inception_4a/output_inception_4a/output_0_split -> inception_4a/output_inception_4a/output_0_split_1
I0403 07:28:37.005231 14231 net.cpp:356] inception_4a/output_inception_4a/output_0_split -> inception_4a/output_inception_4a/output_0_split_2
I0403 07:28:37.005254 14231 net.cpp:356] inception_4a/output_inception_4a/output_0_split -> inception_4a/output_inception_4a/output_0_split_3
I0403 07:28:37.005267 14231 net.cpp:356] inception_4a/output_inception_4a/output_0_split -> inception_4a/output_inception_4a/output_0_split_4
I0403 07:28:37.005282 14231 net.cpp:96] Setting up inception_4a/output_inception_4a/output_0_split
I0403 07:28:37.005293 14231 net.cpp:103] Top shape: 32 512 14 14 (3211264)
I0403 07:28:37.005300 14231 net.cpp:103] Top shape: 32 512 14 14 (3211264)
I0403 07:28:37.005306 14231 net.cpp:103] Top shape: 32 512 14 14 (3211264)
I0403 07:28:37.005311 14231 net.cpp:103] Top shape: 32 512 14 14 (3211264)
I0403 07:28:37.005316 14231 net.cpp:103] Top shape: 32 512 14 14 (3211264)
I0403 07:28:37.005321 14231 net.cpp:113] Memory required for data: 1259618816
I0403 07:28:37.005331 14231 net.cpp:67] Creating Layer loss1/ave_pool
I0403 07:28:37.005338 14231 net.cpp:394] loss1/ave_pool <- inception_4a/output_inception_4a/output_0_split_0
I0403 07:28:37.005352 14231 net.cpp:356] loss1/ave_pool -> loss1/ave_pool
I0403 07:28:37.005363 14231 net.cpp:96] Setting up loss1/ave_pool
I0403 07:28:37.005373 14231 net.cpp:103] Top shape: 32 512 4 4 (262144)
I0403 07:28:37.005378 14231 net.cpp:113] Memory required for data: 1260667392
I0403 07:28:37.005394 14231 net.cpp:67] Creating Layer loss1/conv
I0403 07:28:37.005401 14231 net.cpp:394] loss1/conv <- loss1/ave_pool
I0403 07:28:37.005419 14231 net.cpp:356] loss1/conv -> loss1/conv
I0403 07:28:37.005442 14231 net.cpp:96] Setting up loss1/conv
I0403 07:28:37.010532 14231 net.cpp:103] Top shape: 32 128 4 4 (65536)
I0403 07:28:37.010548 14231 net.cpp:113] Memory required for data: 1260929536
I0403 07:28:37.010562 14231 net.cpp:67] Creating Layer loss1/relu_conv
I0403 07:28:37.010568 14231 net.cpp:394] loss1/relu_conv <- loss1/conv
I0403 07:28:37.010581 14231 net.cpp:345] loss1/relu_conv -> loss1/conv (in-place)
I0403 07:28:37.010591 14231 net.cpp:96] Setting up loss1/relu_conv
I0403 07:28:37.010594 14231 net.cpp:103] Top shape: 32 128 4 4 (65536)
I0403 07:28:37.010598 14231 net.cpp:113] Memory required for data: 1261191680
I0403 07:28:37.010608 14231 net.cpp:67] Creating Layer loss1/fc
I0403 07:28:37.010613 14231 net.cpp:394] loss1/fc <- loss1/conv
I0403 07:28:37.010627 14231 net.cpp:356] loss1/fc -> loss1/fc
I0403 07:28:37.010637 14231 net.cpp:96] Setting up loss1/fc
I0403 07:28:37.152580 14231 net.cpp:103] Top shape: 32 1024 1 1 (32768)
I0403 07:28:37.152611 14231 net.cpp:113] Memory required for data: 1261322752
I0403 07:28:37.152637 14231 net.cpp:67] Creating Layer loss1/relu_fc
I0403 07:28:37.152647 14231 net.cpp:394] loss1/relu_fc <- loss1/fc
I0403 07:28:37.152662 14231 net.cpp:345] loss1/relu_fc -> loss1/fc (in-place)
I0403 07:28:37.152672 14231 net.cpp:96] Setting up loss1/relu_fc
I0403 07:28:37.152676 14231 net.cpp:103] Top shape: 32 1024 1 1 (32768)
I0403 07:28:37.152680 14231 net.cpp:113] Memory required for data: 1261453824
I0403 07:28:37.152714 14231 net.cpp:67] Creating Layer loss1/drop_fc
I0403 07:28:37.152719 14231 net.cpp:394] loss1/drop_fc <- loss1/fc
I0403 07:28:37.152727 14231 net.cpp:345] loss1/drop_fc -> loss1/fc (in-place)
I0403 07:28:37.152736 14231 net.cpp:96] Setting up loss1/drop_fc
I0403 07:28:37.152741 14231 net.cpp:103] Top shape: 32 1024 1 1 (32768)
I0403 07:28:37.152745 14231 net.cpp:113] Memory required for data: 1261584896
I0403 07:28:37.152757 14231 net.cpp:67] Creating Layer fd_loss1/classifier
I0403 07:28:37.152761 14231 net.cpp:394] fd_loss1/classifier <- loss1/fc
I0403 07:28:37.152772 14231 net.cpp:356] fd_loss1/classifier -> fd_loss1/classifier
I0403 07:28:37.152783 14231 net.cpp:96] Setting up fd_loss1/classifier
I0403 07:28:37.152938 14231 net.cpp:103] Top shape: 32 2 1 1 (64)
I0403 07:28:37.152951 14231 net.cpp:113] Memory required for data: 1261585152
I0403 07:28:37.152967 14231 net.cpp:67] Creating Layer loss1/loss
I0403 07:28:37.152973 14231 net.cpp:394] loss1/loss <- fd_loss1/classifier
I0403 07:28:37.152982 14231 net.cpp:394] loss1/loss <- label_data_1_split_0
I0403 07:28:37.152992 14231 net.cpp:356] loss1/loss -> loss1/loss1
I0403 07:28:37.153000 14231 net.cpp:96] Setting up loss1/loss
I0403 07:28:37.153015 14231 net.cpp:103] Top shape: 1 1 1 1 (1)
I0403 07:28:37.153018 14231 net.cpp:109]     with loss weight 0.3
I0403 07:28:37.153061 14231 net.cpp:113] Memory required for data: 1261585156
I0403 07:28:37.153081 14231 net.cpp:67] Creating Layer inception_4b/1x1
I0403 07:28:37.153090 14231 net.cpp:394] inception_4b/1x1 <- inception_4a/output_inception_4a/output_0_split_1
I0403 07:28:37.153101 14231 net.cpp:356] inception_4b/1x1 -> inception_4b/1x1
I0403 07:28:37.153111 14231 net.cpp:96] Setting up inception_4b/1x1
I0403 07:28:37.158206 14231 net.cpp:103] Top shape: 32 160 14 14 (1003520)
I0403 07:28:37.158221 14231 net.cpp:113] Memory required for data: 1265599236
I0403 07:28:37.158234 14231 net.cpp:67] Creating Layer inception_4b/relu_1x1
I0403 07:28:37.158241 14231 net.cpp:394] inception_4b/relu_1x1 <- inception_4b/1x1
I0403 07:28:37.158251 14231 net.cpp:345] inception_4b/relu_1x1 -> inception_4b/1x1 (in-place)
I0403 07:28:37.158257 14231 net.cpp:96] Setting up inception_4b/relu_1x1
I0403 07:28:37.158262 14231 net.cpp:103] Top shape: 32 160 14 14 (1003520)
I0403 07:28:37.158265 14231 net.cpp:113] Memory required for data: 1269613316
I0403 07:28:37.158277 14231 net.cpp:67] Creating Layer inception_4b/3x3_reduce
I0403 07:28:37.158282 14231 net.cpp:394] inception_4b/3x3_reduce <- inception_4a/output_inception_4a/output_0_split_2
I0403 07:28:37.158293 14231 net.cpp:356] inception_4b/3x3_reduce -> inception_4b/3x3_reduce
I0403 07:28:37.158303 14231 net.cpp:96] Setting up inception_4b/3x3_reduce
I0403 07:28:37.161883 14231 net.cpp:103] Top shape: 32 112 14 14 (702464)
I0403 07:28:37.161898 14231 net.cpp:113] Memory required for data: 1272423172
I0403 07:28:37.161911 14231 net.cpp:67] Creating Layer inception_4b/relu_3x3_reduce
I0403 07:28:37.161916 14231 net.cpp:394] inception_4b/relu_3x3_reduce <- inception_4b/3x3_reduce
I0403 07:28:37.161928 14231 net.cpp:345] inception_4b/relu_3x3_reduce -> inception_4b/3x3_reduce (in-place)
I0403 07:28:37.161941 14231 net.cpp:96] Setting up inception_4b/relu_3x3_reduce
I0403 07:28:37.161944 14231 net.cpp:103] Top shape: 32 112 14 14 (702464)
I0403 07:28:37.161948 14231 net.cpp:113] Memory required for data: 1275233028
I0403 07:28:37.161957 14231 net.cpp:67] Creating Layer inception_4b/3x3
I0403 07:28:37.161962 14231 net.cpp:394] inception_4b/3x3 <- inception_4b/3x3_reduce
I0403 07:28:37.161975 14231 net.cpp:356] inception_4b/3x3 -> inception_4b/3x3
I0403 07:28:37.161984 14231 net.cpp:96] Setting up inception_4b/3x3
I0403 07:28:37.175969 14231 net.cpp:103] Top shape: 32 224 14 14 (1404928)
I0403 07:28:37.175984 14231 net.cpp:113] Memory required for data: 1280852740
I0403 07:28:37.175997 14231 net.cpp:67] Creating Layer inception_4b/relu_3x3
I0403 07:28:37.176003 14231 net.cpp:394] inception_4b/relu_3x3 <- inception_4b/3x3
I0403 07:28:37.176012 14231 net.cpp:345] inception_4b/relu_3x3 -> inception_4b/3x3 (in-place)
I0403 07:28:37.176024 14231 net.cpp:96] Setting up inception_4b/relu_3x3
I0403 07:28:37.176028 14231 net.cpp:103] Top shape: 32 224 14 14 (1404928)
I0403 07:28:37.176031 14231 net.cpp:113] Memory required for data: 1286472452
I0403 07:28:37.176040 14231 net.cpp:67] Creating Layer inception_4b/5x5_reduce
I0403 07:28:37.176045 14231 net.cpp:394] inception_4b/5x5_reduce <- inception_4a/output_inception_4a/output_0_split_3
I0403 07:28:37.176056 14231 net.cpp:356] inception_4b/5x5_reduce -> inception_4b/5x5_reduce
I0403 07:28:37.176065 14231 net.cpp:96] Setting up inception_4b/5x5_reduce
I0403 07:28:37.176848 14231 net.cpp:103] Top shape: 32 24 14 14 (150528)
I0403 07:28:37.176862 14231 net.cpp:113] Memory required for data: 1287074564
I0403 07:28:37.176873 14231 net.cpp:67] Creating Layer inception_4b/relu_5x5_reduce
I0403 07:28:37.176879 14231 net.cpp:394] inception_4b/relu_5x5_reduce <- inception_4b/5x5_reduce
I0403 07:28:37.176892 14231 net.cpp:345] inception_4b/relu_5x5_reduce -> inception_4b/5x5_reduce (in-place)
I0403 07:28:37.176899 14231 net.cpp:96] Setting up inception_4b/relu_5x5_reduce
I0403 07:28:37.176903 14231 net.cpp:103] Top shape: 32 24 14 14 (150528)
I0403 07:28:37.176908 14231 net.cpp:113] Memory required for data: 1287676676
I0403 07:28:37.176915 14231 net.cpp:67] Creating Layer inception_4b/5x5
I0403 07:28:37.176920 14231 net.cpp:394] inception_4b/5x5 <- inception_4b/5x5_reduce
I0403 07:28:37.176934 14231 net.cpp:356] inception_4b/5x5 -> inception_4b/5x5
I0403 07:28:37.176942 14231 net.cpp:96] Setting up inception_4b/5x5
I0403 07:28:37.179355 14231 net.cpp:103] Top shape: 32 64 14 14 (401408)
I0403 07:28:37.179368 14231 net.cpp:113] Memory required for data: 1289282308
I0403 07:28:37.179383 14231 net.cpp:67] Creating Layer inception_4b/relu_5x5
I0403 07:28:37.179389 14231 net.cpp:394] inception_4b/relu_5x5 <- inception_4b/5x5
I0403 07:28:37.179399 14231 net.cpp:345] inception_4b/relu_5x5 -> inception_4b/5x5 (in-place)
I0403 07:28:37.179407 14231 net.cpp:96] Setting up inception_4b/relu_5x5
I0403 07:28:37.179411 14231 net.cpp:103] Top shape: 32 64 14 14 (401408)
I0403 07:28:37.179415 14231 net.cpp:113] Memory required for data: 1290887940
I0403 07:28:37.179424 14231 net.cpp:67] Creating Layer inception_4b/pool
I0403 07:28:37.179431 14231 net.cpp:394] inception_4b/pool <- inception_4a/output_inception_4a/output_0_split_4
I0403 07:28:37.179441 14231 net.cpp:356] inception_4b/pool -> inception_4b/pool
I0403 07:28:37.179466 14231 net.cpp:96] Setting up inception_4b/pool
I0403 07:28:37.179478 14231 net.cpp:103] Top shape: 32 512 14 14 (3211264)
I0403 07:28:37.179481 14231 net.cpp:113] Memory required for data: 1303732996
I0403 07:28:37.179491 14231 net.cpp:67] Creating Layer inception_4b/pool_proj
I0403 07:28:37.179497 14231 net.cpp:394] inception_4b/pool_proj <- inception_4b/pool
I0403 07:28:37.179510 14231 net.cpp:356] inception_4b/pool_proj -> inception_4b/pool_proj
I0403 07:28:37.179520 14231 net.cpp:96] Setting up inception_4b/pool_proj
I0403 07:28:37.181571 14231 net.cpp:103] Top shape: 32 64 14 14 (401408)
I0403 07:28:37.181586 14231 net.cpp:113] Memory required for data: 1305338628
I0403 07:28:37.181601 14231 net.cpp:67] Creating Layer inception_4b/relu_pool_proj
I0403 07:28:37.181607 14231 net.cpp:394] inception_4b/relu_pool_proj <- inception_4b/pool_proj
I0403 07:28:37.181617 14231 net.cpp:345] inception_4b/relu_pool_proj -> inception_4b/pool_proj (in-place)
I0403 07:28:37.181624 14231 net.cpp:96] Setting up inception_4b/relu_pool_proj
I0403 07:28:37.181628 14231 net.cpp:103] Top shape: 32 64 14 14 (401408)
I0403 07:28:37.181632 14231 net.cpp:113] Memory required for data: 1306944260
I0403 07:28:37.181640 14231 net.cpp:67] Creating Layer inception_4b/output
I0403 07:28:37.181645 14231 net.cpp:394] inception_4b/output <- inception_4b/1x1
I0403 07:28:37.181653 14231 net.cpp:394] inception_4b/output <- inception_4b/3x3
I0403 07:28:37.181659 14231 net.cpp:394] inception_4b/output <- inception_4b/5x5
I0403 07:28:37.181665 14231 net.cpp:394] inception_4b/output <- inception_4b/pool_proj
I0403 07:28:37.181673 14231 net.cpp:356] inception_4b/output -> inception_4b/output
I0403 07:28:37.181682 14231 net.cpp:96] Setting up inception_4b/output
I0403 07:28:37.181689 14231 net.cpp:103] Top shape: 32 512 14 14 (3211264)
I0403 07:28:37.181692 14231 net.cpp:113] Memory required for data: 1319789316
I0403 07:28:37.181699 14231 net.cpp:67] Creating Layer inception_4b/output_inception_4b/output_0_split
I0403 07:28:37.181702 14231 net.cpp:394] inception_4b/output_inception_4b/output_0_split <- inception_4b/output
I0403 07:28:37.181712 14231 net.cpp:356] inception_4b/output_inception_4b/output_0_split -> inception_4b/output_inception_4b/output_0_split_0
I0403 07:28:37.181721 14231 net.cpp:356] inception_4b/output_inception_4b/output_0_split -> inception_4b/output_inception_4b/output_0_split_1
I0403 07:28:37.181735 14231 net.cpp:356] inception_4b/output_inception_4b/output_0_split -> inception_4b/output_inception_4b/output_0_split_2
I0403 07:28:37.181745 14231 net.cpp:356] inception_4b/output_inception_4b/output_0_split -> inception_4b/output_inception_4b/output_0_split_3
I0403 07:28:37.181751 14231 net.cpp:96] Setting up inception_4b/output_inception_4b/output_0_split
I0403 07:28:37.181759 14231 net.cpp:103] Top shape: 32 512 14 14 (3211264)
I0403 07:28:37.181762 14231 net.cpp:103] Top shape: 32 512 14 14 (3211264)
I0403 07:28:37.181766 14231 net.cpp:103] Top shape: 32 512 14 14 (3211264)
I0403 07:28:37.181769 14231 net.cpp:103] Top shape: 32 512 14 14 (3211264)
I0403 07:28:37.181772 14231 net.cpp:113] Memory required for data: 1371169540
I0403 07:28:37.181781 14231 net.cpp:67] Creating Layer inception_4c/1x1
I0403 07:28:37.181790 14231 net.cpp:394] inception_4c/1x1 <- inception_4b/output_inception_4b/output_0_split_0
I0403 07:28:37.181802 14231 net.cpp:356] inception_4c/1x1 -> inception_4c/1x1
I0403 07:28:37.181810 14231 net.cpp:96] Setting up inception_4c/1x1
I0403 07:28:37.185892 14231 net.cpp:103] Top shape: 32 128 14 14 (802816)
I0403 07:28:37.185907 14231 net.cpp:113] Memory required for data: 1374380804
I0403 07:28:37.185920 14231 net.cpp:67] Creating Layer inception_4c/relu_1x1
I0403 07:28:37.185925 14231 net.cpp:394] inception_4c/relu_1x1 <- inception_4c/1x1
I0403 07:28:37.185937 14231 net.cpp:345] inception_4c/relu_1x1 -> inception_4c/1x1 (in-place)
I0403 07:28:37.185945 14231 net.cpp:96] Setting up inception_4c/relu_1x1
I0403 07:28:37.185950 14231 net.cpp:103] Top shape: 32 128 14 14 (802816)
I0403 07:28:37.185953 14231 net.cpp:113] Memory required for data: 1377592068
I0403 07:28:37.185961 14231 net.cpp:67] Creating Layer inception_4c/3x3_reduce
I0403 07:28:37.185966 14231 net.cpp:394] inception_4c/3x3_reduce <- inception_4b/output_inception_4b/output_0_split_1
I0403 07:28:37.185977 14231 net.cpp:356] inception_4c/3x3_reduce -> inception_4c/3x3_reduce
I0403 07:28:37.185986 14231 net.cpp:96] Setting up inception_4c/3x3_reduce
I0403 07:28:37.190071 14231 net.cpp:103] Top shape: 32 128 14 14 (802816)
I0403 07:28:37.190088 14231 net.cpp:113] Memory required for data: 1380803332
I0403 07:28:37.190103 14231 net.cpp:67] Creating Layer inception_4c/relu_3x3_reduce
I0403 07:28:37.190109 14231 net.cpp:394] inception_4c/relu_3x3_reduce <- inception_4c/3x3_reduce
I0403 07:28:37.190119 14231 net.cpp:345] inception_4c/relu_3x3_reduce -> inception_4c/3x3_reduce (in-place)
I0403 07:28:37.190126 14231 net.cpp:96] Setting up inception_4c/relu_3x3_reduce
I0403 07:28:37.190131 14231 net.cpp:103] Top shape: 32 128 14 14 (802816)
I0403 07:28:37.190135 14231 net.cpp:113] Memory required for data: 1384014596
I0403 07:28:37.190143 14231 net.cpp:67] Creating Layer inception_4c/3x3
I0403 07:28:37.190148 14231 net.cpp:394] inception_4c/3x3 <- inception_4c/3x3_reduce
I0403 07:28:37.190161 14231 net.cpp:356] inception_4c/3x3 -> inception_4c/3x3
I0403 07:28:37.190171 14231 net.cpp:96] Setting up inception_4c/3x3
I0403 07:28:37.208417 14231 net.cpp:103] Top shape: 32 256 14 14 (1605632)
I0403 07:28:37.208432 14231 net.cpp:113] Memory required for data: 1390437124
I0403 07:28:37.208467 14231 net.cpp:67] Creating Layer inception_4c/relu_3x3
I0403 07:28:37.208473 14231 net.cpp:394] inception_4c/relu_3x3 <- inception_4c/3x3
I0403 07:28:37.208487 14231 net.cpp:345] inception_4c/relu_3x3 -> inception_4c/3x3 (in-place)
I0403 07:28:37.208495 14231 net.cpp:96] Setting up inception_4c/relu_3x3
I0403 07:28:37.208499 14231 net.cpp:103] Top shape: 32 256 14 14 (1605632)
I0403 07:28:37.208503 14231 net.cpp:113] Memory required for data: 1396859652
I0403 07:28:37.208511 14231 net.cpp:67] Creating Layer inception_4c/5x5_reduce
I0403 07:28:37.208516 14231 net.cpp:394] inception_4c/5x5_reduce <- inception_4b/output_inception_4b/output_0_split_2
I0403 07:28:37.208531 14231 net.cpp:356] inception_4c/5x5_reduce -> inception_4c/5x5_reduce
I0403 07:28:37.208542 14231 net.cpp:96] Setting up inception_4c/5x5_reduce
I0403 07:28:37.209326 14231 net.cpp:103] Top shape: 32 24 14 14 (150528)
I0403 07:28:37.209339 14231 net.cpp:113] Memory required for data: 1397461764
I0403 07:28:37.209352 14231 net.cpp:67] Creating Layer inception_4c/relu_5x5_reduce
I0403 07:28:37.209357 14231 net.cpp:394] inception_4c/relu_5x5_reduce <- inception_4c/5x5_reduce
I0403 07:28:37.209367 14231 net.cpp:345] inception_4c/relu_5x5_reduce -> inception_4c/5x5_reduce (in-place)
I0403 07:28:37.209375 14231 net.cpp:96] Setting up inception_4c/relu_5x5_reduce
I0403 07:28:37.209379 14231 net.cpp:103] Top shape: 32 24 14 14 (150528)
I0403 07:28:37.209383 14231 net.cpp:113] Memory required for data: 1398063876
I0403 07:28:37.209393 14231 net.cpp:67] Creating Layer inception_4c/5x5
I0403 07:28:37.209398 14231 net.cpp:394] inception_4c/5x5 <- inception_4c/5x5_reduce
I0403 07:28:37.209409 14231 net.cpp:356] inception_4c/5x5 -> inception_4c/5x5
I0403 07:28:37.209419 14231 net.cpp:96] Setting up inception_4c/5x5
I0403 07:28:37.211828 14231 net.cpp:103] Top shape: 32 64 14 14 (401408)
I0403 07:28:37.211841 14231 net.cpp:113] Memory required for data: 1399669508
I0403 07:28:37.211853 14231 net.cpp:67] Creating Layer inception_4c/relu_5x5
I0403 07:28:37.211859 14231 net.cpp:394] inception_4c/relu_5x5 <- inception_4c/5x5
I0403 07:28:37.211871 14231 net.cpp:345] inception_4c/relu_5x5 -> inception_4c/5x5 (in-place)
I0403 07:28:37.211879 14231 net.cpp:96] Setting up inception_4c/relu_5x5
I0403 07:28:37.211884 14231 net.cpp:103] Top shape: 32 64 14 14 (401408)
I0403 07:28:37.211886 14231 net.cpp:113] Memory required for data: 1401275140
I0403 07:28:37.211894 14231 net.cpp:67] Creating Layer inception_4c/pool
I0403 07:28:37.211899 14231 net.cpp:394] inception_4c/pool <- inception_4b/output_inception_4b/output_0_split_3
I0403 07:28:37.211908 14231 net.cpp:356] inception_4c/pool -> inception_4c/pool
I0403 07:28:37.211916 14231 net.cpp:96] Setting up inception_4c/pool
I0403 07:28:37.211925 14231 net.cpp:103] Top shape: 32 512 14 14 (3211264)
I0403 07:28:37.211927 14231 net.cpp:113] Memory required for data: 1414120196
I0403 07:28:37.211940 14231 net.cpp:67] Creating Layer inception_4c/pool_proj
I0403 07:28:37.211944 14231 net.cpp:394] inception_4c/pool_proj <- inception_4c/pool
I0403 07:28:37.211956 14231 net.cpp:356] inception_4c/pool_proj -> inception_4c/pool_proj
I0403 07:28:37.211964 14231 net.cpp:96] Setting up inception_4c/pool_proj
I0403 07:28:37.214011 14231 net.cpp:103] Top shape: 32 64 14 14 (401408)
I0403 07:28:37.214025 14231 net.cpp:113] Memory required for data: 1415725828
I0403 07:28:37.214037 14231 net.cpp:67] Creating Layer inception_4c/relu_pool_proj
I0403 07:28:37.214043 14231 net.cpp:394] inception_4c/relu_pool_proj <- inception_4c/pool_proj
I0403 07:28:37.214057 14231 net.cpp:345] inception_4c/relu_pool_proj -> inception_4c/pool_proj (in-place)
I0403 07:28:37.214066 14231 net.cpp:96] Setting up inception_4c/relu_pool_proj
I0403 07:28:37.214071 14231 net.cpp:103] Top shape: 32 64 14 14 (401408)
I0403 07:28:37.214074 14231 net.cpp:113] Memory required for data: 1417331460
I0403 07:28:37.214081 14231 net.cpp:67] Creating Layer inception_4c/output
I0403 07:28:37.214085 14231 net.cpp:394] inception_4c/output <- inception_4c/1x1
I0403 07:28:37.214092 14231 net.cpp:394] inception_4c/output <- inception_4c/3x3
I0403 07:28:37.214099 14231 net.cpp:394] inception_4c/output <- inception_4c/5x5
I0403 07:28:37.214105 14231 net.cpp:394] inception_4c/output <- inception_4c/pool_proj
I0403 07:28:37.214112 14231 net.cpp:356] inception_4c/output -> inception_4c/output
I0403 07:28:37.214120 14231 net.cpp:96] Setting up inception_4c/output
I0403 07:28:37.214125 14231 net.cpp:103] Top shape: 32 512 14 14 (3211264)
I0403 07:28:37.214129 14231 net.cpp:113] Memory required for data: 1430176516
I0403 07:28:37.214138 14231 net.cpp:67] Creating Layer inception_4c/output_inception_4c/output_0_split
I0403 07:28:37.214143 14231 net.cpp:394] inception_4c/output_inception_4c/output_0_split <- inception_4c/output
I0403 07:28:37.214151 14231 net.cpp:356] inception_4c/output_inception_4c/output_0_split -> inception_4c/output_inception_4c/output_0_split_0
I0403 07:28:37.214161 14231 net.cpp:356] inception_4c/output_inception_4c/output_0_split -> inception_4c/output_inception_4c/output_0_split_1
I0403 07:28:37.214171 14231 net.cpp:356] inception_4c/output_inception_4c/output_0_split -> inception_4c/output_inception_4c/output_0_split_2
I0403 07:28:37.214181 14231 net.cpp:356] inception_4c/output_inception_4c/output_0_split -> inception_4c/output_inception_4c/output_0_split_3
I0403 07:28:37.214189 14231 net.cpp:96] Setting up inception_4c/output_inception_4c/output_0_split
I0403 07:28:37.214195 14231 net.cpp:103] Top shape: 32 512 14 14 (3211264)
I0403 07:28:37.214198 14231 net.cpp:103] Top shape: 32 512 14 14 (3211264)
I0403 07:28:37.214201 14231 net.cpp:103] Top shape: 32 512 14 14 (3211264)
I0403 07:28:37.214205 14231 net.cpp:103] Top shape: 32 512 14 14 (3211264)
I0403 07:28:37.214208 14231 net.cpp:113] Memory required for data: 1481556740
I0403 07:28:37.214220 14231 net.cpp:67] Creating Layer inception_4d/1x1
I0403 07:28:37.214225 14231 net.cpp:394] inception_4d/1x1 <- inception_4c/output_inception_4c/output_0_split_0
I0403 07:28:37.214238 14231 net.cpp:356] inception_4d/1x1 -> inception_4d/1x1
I0403 07:28:37.214248 14231 net.cpp:96] Setting up inception_4d/1x1
I0403 07:28:37.217864 14231 net.cpp:103] Top shape: 32 112 14 14 (702464)
I0403 07:28:37.217880 14231 net.cpp:113] Memory required for data: 1484366596
I0403 07:28:37.217895 14231 net.cpp:67] Creating Layer inception_4d/relu_1x1
I0403 07:28:37.217902 14231 net.cpp:394] inception_4d/relu_1x1 <- inception_4d/1x1
I0403 07:28:37.217912 14231 net.cpp:345] inception_4d/relu_1x1 -> inception_4d/1x1 (in-place)
I0403 07:28:37.217921 14231 net.cpp:96] Setting up inception_4d/relu_1x1
I0403 07:28:37.217924 14231 net.cpp:103] Top shape: 32 112 14 14 (702464)
I0403 07:28:37.217927 14231 net.cpp:113] Memory required for data: 1487176452
I0403 07:28:37.217942 14231 net.cpp:67] Creating Layer inception_4d/3x3_reduce
I0403 07:28:37.217947 14231 net.cpp:394] inception_4d/3x3_reduce <- inception_4c/output_inception_4c/output_0_split_1
I0403 07:28:37.217959 14231 net.cpp:356] inception_4d/3x3_reduce -> inception_4d/3x3_reduce
I0403 07:28:37.217968 14231 net.cpp:96] Setting up inception_4d/3x3_reduce
I0403 07:28:37.222558 14231 net.cpp:103] Top shape: 32 144 14 14 (903168)
I0403 07:28:37.222573 14231 net.cpp:113] Memory required for data: 1490789124
I0403 07:28:37.222585 14231 net.cpp:67] Creating Layer inception_4d/relu_3x3_reduce
I0403 07:28:37.222592 14231 net.cpp:394] inception_4d/relu_3x3_reduce <- inception_4d/3x3_reduce
I0403 07:28:37.222605 14231 net.cpp:345] inception_4d/relu_3x3_reduce -> inception_4d/3x3_reduce (in-place)
I0403 07:28:37.222614 14231 net.cpp:96] Setting up inception_4d/relu_3x3_reduce
I0403 07:28:37.222618 14231 net.cpp:103] Top shape: 32 144 14 14 (903168)
I0403 07:28:37.222621 14231 net.cpp:113] Memory required for data: 1494401796
I0403 07:28:37.222630 14231 net.cpp:67] Creating Layer inception_4d/3x3
I0403 07:28:37.222635 14231 net.cpp:394] inception_4d/3x3 <- inception_4d/3x3_reduce
I0403 07:28:37.222645 14231 net.cpp:356] inception_4d/3x3 -> inception_4d/3x3
I0403 07:28:37.222654 14231 net.cpp:96] Setting up inception_4d/3x3
I0403 07:28:37.245751 14231 net.cpp:103] Top shape: 32 288 14 14 (1806336)
I0403 07:28:37.245767 14231 net.cpp:113] Memory required for data: 1501627140
I0403 07:28:37.245781 14231 net.cpp:67] Creating Layer inception_4d/relu_3x3
I0403 07:28:37.245789 14231 net.cpp:394] inception_4d/relu_3x3 <- inception_4d/3x3
I0403 07:28:37.245800 14231 net.cpp:345] inception_4d/relu_3x3 -> inception_4d/3x3 (in-place)
I0403 07:28:37.245807 14231 net.cpp:96] Setting up inception_4d/relu_3x3
I0403 07:28:37.245811 14231 net.cpp:103] Top shape: 32 288 14 14 (1806336)
I0403 07:28:37.245815 14231 net.cpp:113] Memory required for data: 1508852484
I0403 07:28:37.245826 14231 net.cpp:67] Creating Layer inception_4d/5x5_reduce
I0403 07:28:37.245831 14231 net.cpp:394] inception_4d/5x5_reduce <- inception_4c/output_inception_4c/output_0_split_2
I0403 07:28:37.245842 14231 net.cpp:356] inception_4d/5x5_reduce -> inception_4d/5x5_reduce
I0403 07:28:37.245852 14231 net.cpp:96] Setting up inception_4d/5x5_reduce
I0403 07:28:37.246891 14231 net.cpp:103] Top shape: 32 32 14 14 (200704)
I0403 07:28:37.246904 14231 net.cpp:113] Memory required for data: 1509655300
I0403 07:28:37.246917 14231 net.cpp:67] Creating Layer inception_4d/relu_5x5_reduce
I0403 07:28:37.246922 14231 net.cpp:394] inception_4d/relu_5x5_reduce <- inception_4d/5x5_reduce
I0403 07:28:37.246935 14231 net.cpp:345] inception_4d/relu_5x5_reduce -> inception_4d/5x5_reduce (in-place)
I0403 07:28:37.246943 14231 net.cpp:96] Setting up inception_4d/relu_5x5_reduce
I0403 07:28:37.246948 14231 net.cpp:103] Top shape: 32 32 14 14 (200704)
I0403 07:28:37.246950 14231 net.cpp:113] Memory required for data: 1510458116
I0403 07:28:37.246959 14231 net.cpp:67] Creating Layer inception_4d/5x5
I0403 07:28:37.246964 14231 net.cpp:394] inception_4d/5x5 <- inception_4d/5x5_reduce
I0403 07:28:37.246978 14231 net.cpp:356] inception_4d/5x5 -> inception_4d/5x5
I0403 07:28:37.246986 14231 net.cpp:96] Setting up inception_4d/5x5
I0403 07:28:37.250180 14231 net.cpp:103] Top shape: 32 64 14 14 (401408)
I0403 07:28:37.250193 14231 net.cpp:113] Memory required for data: 1512063748
I0403 07:28:37.250208 14231 net.cpp:67] Creating Layer inception_4d/relu_5x5
I0403 07:28:37.250215 14231 net.cpp:394] inception_4d/relu_5x5 <- inception_4d/5x5
I0403 07:28:37.250227 14231 net.cpp:345] inception_4d/relu_5x5 -> inception_4d/5x5 (in-place)
I0403 07:28:37.250236 14231 net.cpp:96] Setting up inception_4d/relu_5x5
I0403 07:28:37.250239 14231 net.cpp:103] Top shape: 32 64 14 14 (401408)
I0403 07:28:37.250243 14231 net.cpp:113] Memory required for data: 1513669380
I0403 07:28:37.250250 14231 net.cpp:67] Creating Layer inception_4d/pool
I0403 07:28:37.250255 14231 net.cpp:394] inception_4d/pool <- inception_4c/output_inception_4c/output_0_split_3
I0403 07:28:37.250268 14231 net.cpp:356] inception_4d/pool -> inception_4d/pool
I0403 07:28:37.250277 14231 net.cpp:96] Setting up inception_4d/pool
I0403 07:28:37.250285 14231 net.cpp:103] Top shape: 32 512 14 14 (3211264)
I0403 07:28:37.250288 14231 net.cpp:113] Memory required for data: 1526514436
I0403 07:28:37.250298 14231 net.cpp:67] Creating Layer inception_4d/pool_proj
I0403 07:28:37.250303 14231 net.cpp:394] inception_4d/pool_proj <- inception_4d/pool
I0403 07:28:37.250315 14231 net.cpp:356] inception_4d/pool_proj -> inception_4d/pool_proj
I0403 07:28:37.250325 14231 net.cpp:96] Setting up inception_4d/pool_proj
I0403 07:28:37.252384 14231 net.cpp:103] Top shape: 32 64 14 14 (401408)
I0403 07:28:37.252398 14231 net.cpp:113] Memory required for data: 1528120068
I0403 07:28:37.252409 14231 net.cpp:67] Creating Layer inception_4d/relu_pool_proj
I0403 07:28:37.252415 14231 net.cpp:394] inception_4d/relu_pool_proj <- inception_4d/pool_proj
I0403 07:28:37.252425 14231 net.cpp:345] inception_4d/relu_pool_proj -> inception_4d/pool_proj (in-place)
I0403 07:28:37.252434 14231 net.cpp:96] Setting up inception_4d/relu_pool_proj
I0403 07:28:37.252439 14231 net.cpp:103] Top shape: 32 64 14 14 (401408)
I0403 07:28:37.252441 14231 net.cpp:113] Memory required for data: 1529725700
I0403 07:28:37.252449 14231 net.cpp:67] Creating Layer inception_4d/output
I0403 07:28:37.252452 14231 net.cpp:394] inception_4d/output <- inception_4d/1x1
I0403 07:28:37.252460 14231 net.cpp:394] inception_4d/output <- inception_4d/3x3
I0403 07:28:37.252466 14231 net.cpp:394] inception_4d/output <- inception_4d/5x5
I0403 07:28:37.252472 14231 net.cpp:394] inception_4d/output <- inception_4d/pool_proj
I0403 07:28:37.252481 14231 net.cpp:356] inception_4d/output -> inception_4d/output
I0403 07:28:37.252490 14231 net.cpp:96] Setting up inception_4d/output
I0403 07:28:37.252496 14231 net.cpp:103] Top shape: 32 528 14 14 (3311616)
I0403 07:28:37.252499 14231 net.cpp:113] Memory required for data: 1542972164
I0403 07:28:37.252506 14231 net.cpp:67] Creating Layer inception_4d/output_inception_4d/output_0_split
I0403 07:28:37.252511 14231 net.cpp:394] inception_4d/output_inception_4d/output_0_split <- inception_4d/output
I0403 07:28:37.252527 14231 net.cpp:356] inception_4d/output_inception_4d/output_0_split -> inception_4d/output_inception_4d/output_0_split_0
I0403 07:28:37.252538 14231 net.cpp:356] inception_4d/output_inception_4d/output_0_split -> inception_4d/output_inception_4d/output_0_split_1
I0403 07:28:37.252548 14231 net.cpp:356] inception_4d/output_inception_4d/output_0_split -> inception_4d/output_inception_4d/output_0_split_2
I0403 07:28:37.252558 14231 net.cpp:356] inception_4d/output_inception_4d/output_0_split -> inception_4d/output_inception_4d/output_0_split_3
I0403 07:28:37.252567 14231 net.cpp:356] inception_4d/output_inception_4d/output_0_split -> inception_4d/output_inception_4d/output_0_split_4
I0403 07:28:37.252574 14231 net.cpp:96] Setting up inception_4d/output_inception_4d/output_0_split
I0403 07:28:37.252581 14231 net.cpp:103] Top shape: 32 528 14 14 (3311616)
I0403 07:28:37.252585 14231 net.cpp:103] Top shape: 32 528 14 14 (3311616)
I0403 07:28:37.252588 14231 net.cpp:103] Top shape: 32 528 14 14 (3311616)
I0403 07:28:37.252593 14231 net.cpp:103] Top shape: 32 528 14 14 (3311616)
I0403 07:28:37.252595 14231 net.cpp:103] Top shape: 32 528 14 14 (3311616)
I0403 07:28:37.252599 14231 net.cpp:113] Memory required for data: 1609204484
I0403 07:28:37.252605 14231 net.cpp:67] Creating Layer loss2/ave_pool
I0403 07:28:37.252614 14231 net.cpp:394] loss2/ave_pool <- inception_4d/output_inception_4d/output_0_split_0
I0403 07:28:37.252629 14231 net.cpp:356] loss2/ave_pool -> loss2/ave_pool
I0403 07:28:37.252637 14231 net.cpp:96] Setting up loss2/ave_pool
I0403 07:28:37.252645 14231 net.cpp:103] Top shape: 32 528 4 4 (270336)
I0403 07:28:37.252648 14231 net.cpp:113] Memory required for data: 1610285828
I0403 07:28:37.252660 14231 net.cpp:67] Creating Layer loss2/conv
I0403 07:28:37.252665 14231 net.cpp:394] loss2/conv <- loss2/ave_pool
I0403 07:28:37.252676 14231 net.cpp:356] loss2/conv -> loss2/conv
I0403 07:28:37.252684 14231 net.cpp:96] Setting up loss2/conv
I0403 07:28:37.256894 14231 net.cpp:103] Top shape: 32 128 4 4 (65536)
I0403 07:28:37.256908 14231 net.cpp:113] Memory required for data: 1610547972
I0403 07:28:37.256923 14231 net.cpp:67] Creating Layer loss2/relu_conv
I0403 07:28:37.256929 14231 net.cpp:394] loss2/relu_conv <- loss2/conv
I0403 07:28:37.256939 14231 net.cpp:345] loss2/relu_conv -> loss2/conv (in-place)
I0403 07:28:37.256947 14231 net.cpp:96] Setting up loss2/relu_conv
I0403 07:28:37.256952 14231 net.cpp:103] Top shape: 32 128 4 4 (65536)
I0403 07:28:37.256955 14231 net.cpp:113] Memory required for data: 1610810116
I0403 07:28:37.256965 14231 net.cpp:67] Creating Layer loss2/fc
I0403 07:28:37.256971 14231 net.cpp:394] loss2/fc <- loss2/conv
I0403 07:28:37.256981 14231 net.cpp:356] loss2/fc -> loss2/fc
I0403 07:28:37.256990 14231 net.cpp:96] Setting up loss2/fc
I0403 07:28:37.391621 14231 net.cpp:103] Top shape: 32 1024 1 1 (32768)
I0403 07:28:37.391657 14231 net.cpp:113] Memory required for data: 1610941188
I0403 07:28:37.391690 14231 net.cpp:67] Creating Layer loss2/relu_fc
I0403 07:28:37.391700 14231 net.cpp:394] loss2/relu_fc <- loss2/fc
I0403 07:28:37.391716 14231 net.cpp:345] loss2/relu_fc -> loss2/fc (in-place)
I0403 07:28:37.391727 14231 net.cpp:96] Setting up loss2/relu_fc
I0403 07:28:37.391732 14231 net.cpp:103] Top shape: 32 1024 1 1 (32768)
I0403 07:28:37.391736 14231 net.cpp:113] Memory required for data: 1611072260
I0403 07:28:37.391744 14231 net.cpp:67] Creating Layer loss2/drop_fc
I0403 07:28:37.391749 14231 net.cpp:394] loss2/drop_fc <- loss2/fc
I0403 07:28:37.391760 14231 net.cpp:345] loss2/drop_fc -> loss2/fc (in-place)
I0403 07:28:37.391768 14231 net.cpp:96] Setting up loss2/drop_fc
I0403 07:28:37.391774 14231 net.cpp:103] Top shape: 32 1024 1 1 (32768)
I0403 07:28:37.391777 14231 net.cpp:113] Memory required for data: 1611203332
I0403 07:28:37.391788 14231 net.cpp:67] Creating Layer fd_loss2/classifier
I0403 07:28:37.391793 14231 net.cpp:394] fd_loss2/classifier <- loss2/fc
I0403 07:28:37.391803 14231 net.cpp:356] fd_loss2/classifier -> fd_loss2/classifier
I0403 07:28:37.391813 14231 net.cpp:96] Setting up fd_loss2/classifier
I0403 07:28:37.391968 14231 net.cpp:103] Top shape: 32 2 1 1 (64)
I0403 07:28:37.391980 14231 net.cpp:113] Memory required for data: 1611203588
I0403 07:28:37.391998 14231 net.cpp:67] Creating Layer loss2/loss
I0403 07:28:37.392004 14231 net.cpp:394] loss2/loss <- fd_loss2/classifier
I0403 07:28:37.392012 14231 net.cpp:394] loss2/loss <- label_data_1_split_1
I0403 07:28:37.392022 14231 net.cpp:356] loss2/loss -> loss2/loss1
I0403 07:28:37.392031 14231 net.cpp:96] Setting up loss2/loss
I0403 07:28:37.392043 14231 net.cpp:103] Top shape: 1 1 1 1 (1)
I0403 07:28:37.392047 14231 net.cpp:109]     with loss weight 0.3
I0403 07:28:37.392062 14231 net.cpp:113] Memory required for data: 1611203592
I0403 07:28:37.392077 14231 net.cpp:67] Creating Layer inception_4e/1x1
I0403 07:28:37.392084 14231 net.cpp:394] inception_4e/1x1 <- inception_4d/output_inception_4d/output_0_split_1
I0403 07:28:37.392096 14231 net.cpp:356] inception_4e/1x1 -> inception_4e/1x1
I0403 07:28:37.392105 14231 net.cpp:96] Setting up inception_4e/1x1
I0403 07:28:37.400498 14231 net.cpp:103] Top shape: 32 256 14 14 (1605632)
I0403 07:28:37.400513 14231 net.cpp:113] Memory required for data: 1617626120
I0403 07:28:37.400527 14231 net.cpp:67] Creating Layer inception_4e/relu_1x1
I0403 07:28:37.400532 14231 net.cpp:394] inception_4e/relu_1x1 <- inception_4e/1x1
I0403 07:28:37.400542 14231 net.cpp:345] inception_4e/relu_1x1 -> inception_4e/1x1 (in-place)
I0403 07:28:37.400550 14231 net.cpp:96] Setting up inception_4e/relu_1x1
I0403 07:28:37.400558 14231 net.cpp:103] Top shape: 32 256 14 14 (1605632)
I0403 07:28:37.400562 14231 net.cpp:113] Memory required for data: 1624048648
I0403 07:28:37.400574 14231 net.cpp:67] Creating Layer inception_4e/3x3_reduce
I0403 07:28:37.400579 14231 net.cpp:394] inception_4e/3x3_reduce <- inception_4d/output_inception_4d/output_0_split_2
I0403 07:28:37.400591 14231 net.cpp:356] inception_4e/3x3_reduce -> inception_4e/3x3_reduce
I0403 07:28:37.400601 14231 net.cpp:96] Setting up inception_4e/3x3_reduce
I0403 07:28:37.405858 14231 net.cpp:103] Top shape: 32 160 14 14 (1003520)
I0403 07:28:37.405871 14231 net.cpp:113] Memory required for data: 1628062728
I0403 07:28:37.405884 14231 net.cpp:67] Creating Layer inception_4e/relu_3x3_reduce
I0403 07:28:37.405890 14231 net.cpp:394] inception_4e/relu_3x3_reduce <- inception_4e/3x3_reduce
I0403 07:28:37.405902 14231 net.cpp:345] inception_4e/relu_3x3_reduce -> inception_4e/3x3_reduce (in-place)
I0403 07:28:37.405911 14231 net.cpp:96] Setting up inception_4e/relu_3x3_reduce
I0403 07:28:37.405915 14231 net.cpp:103] Top shape: 32 160 14 14 (1003520)
I0403 07:28:37.405920 14231 net.cpp:113] Memory required for data: 1632076808
I0403 07:28:37.405928 14231 net.cpp:67] Creating Layer inception_4e/3x3
I0403 07:28:37.405936 14231 net.cpp:394] inception_4e/3x3 <- inception_4e/3x3_reduce
I0403 07:28:37.405949 14231 net.cpp:356] inception_4e/3x3 -> inception_4e/3x3
I0403 07:28:37.405961 14231 net.cpp:96] Setting up inception_4e/3x3
I0403 07:28:37.434538 14231 net.cpp:103] Top shape: 32 320 14 14 (2007040)
I0403 07:28:37.434555 14231 net.cpp:113] Memory required for data: 1640104968
I0403 07:28:37.434568 14231 net.cpp:67] Creating Layer inception_4e/relu_3x3
I0403 07:28:37.434576 14231 net.cpp:394] inception_4e/relu_3x3 <- inception_4e/3x3
I0403 07:28:37.434587 14231 net.cpp:345] inception_4e/relu_3x3 -> inception_4e/3x3 (in-place)
I0403 07:28:37.434597 14231 net.cpp:96] Setting up inception_4e/relu_3x3
I0403 07:28:37.434600 14231 net.cpp:103] Top shape: 32 320 14 14 (2007040)
I0403 07:28:37.434604 14231 net.cpp:113] Memory required for data: 1648133128
I0403 07:28:37.434613 14231 net.cpp:67] Creating Layer inception_4e/5x5_reduce
I0403 07:28:37.434618 14231 net.cpp:394] inception_4e/5x5_reduce <- inception_4d/output_inception_4d/output_0_split_3
I0403 07:28:37.434629 14231 net.cpp:356] inception_4e/5x5_reduce -> inception_4e/5x5_reduce
I0403 07:28:37.434638 14231 net.cpp:96] Setting up inception_4e/5x5_reduce
I0403 07:28:37.435715 14231 net.cpp:103] Top shape: 32 32 14 14 (200704)
I0403 07:28:37.435729 14231 net.cpp:113] Memory required for data: 1648935944
I0403 07:28:37.435744 14231 net.cpp:67] Creating Layer inception_4e/relu_5x5_reduce
I0403 07:28:37.435750 14231 net.cpp:394] inception_4e/relu_5x5_reduce <- inception_4e/5x5_reduce
I0403 07:28:37.435760 14231 net.cpp:345] inception_4e/relu_5x5_reduce -> inception_4e/5x5_reduce (in-place)
I0403 07:28:37.435767 14231 net.cpp:96] Setting up inception_4e/relu_5x5_reduce
I0403 07:28:37.435771 14231 net.cpp:103] Top shape: 32 32 14 14 (200704)
I0403 07:28:37.435775 14231 net.cpp:113] Memory required for data: 1649738760
I0403 07:28:37.435817 14231 net.cpp:67] Creating Layer inception_4e/5x5
I0403 07:28:37.435827 14231 net.cpp:394] inception_4e/5x5 <- inception_4e/5x5_reduce
I0403 07:28:37.435838 14231 net.cpp:356] inception_4e/5x5 -> inception_4e/5x5
I0403 07:28:37.435850 14231 net.cpp:96] Setting up inception_4e/5x5
I0403 07:28:37.442206 14231 net.cpp:103] Top shape: 32 128 14 14 (802816)
I0403 07:28:37.442221 14231 net.cpp:113] Memory required for data: 1652950024
I0403 07:28:37.442239 14231 net.cpp:67] Creating Layer inception_4e/relu_5x5
I0403 07:28:37.442245 14231 net.cpp:394] inception_4e/relu_5x5 <- inception_4e/5x5
I0403 07:28:37.442255 14231 net.cpp:345] inception_4e/relu_5x5 -> inception_4e/5x5 (in-place)
I0403 07:28:37.442262 14231 net.cpp:96] Setting up inception_4e/relu_5x5
I0403 07:28:37.442267 14231 net.cpp:103] Top shape: 32 128 14 14 (802816)
I0403 07:28:37.442270 14231 net.cpp:113] Memory required for data: 1656161288
I0403 07:28:37.442280 14231 net.cpp:67] Creating Layer inception_4e/pool
I0403 07:28:37.442284 14231 net.cpp:394] inception_4e/pool <- inception_4d/output_inception_4d/output_0_split_4
I0403 07:28:37.442301 14231 net.cpp:356] inception_4e/pool -> inception_4e/pool
I0403 07:28:37.442312 14231 net.cpp:96] Setting up inception_4e/pool
I0403 07:28:37.442322 14231 net.cpp:103] Top shape: 32 528 14 14 (3311616)
I0403 07:28:37.442324 14231 net.cpp:113] Memory required for data: 1669407752
I0403 07:28:37.442333 14231 net.cpp:67] Creating Layer inception_4e/pool_proj
I0403 07:28:37.442338 14231 net.cpp:394] inception_4e/pool_proj <- inception_4e/pool
I0403 07:28:37.442353 14231 net.cpp:356] inception_4e/pool_proj -> inception_4e/pool_proj
I0403 07:28:37.442361 14231 net.cpp:96] Setting up inception_4e/pool_proj
I0403 07:28:37.446568 14231 net.cpp:103] Top shape: 32 128 14 14 (802816)
I0403 07:28:37.446583 14231 net.cpp:113] Memory required for data: 1672619016
I0403 07:28:37.446595 14231 net.cpp:67] Creating Layer inception_4e/relu_pool_proj
I0403 07:28:37.446601 14231 net.cpp:394] inception_4e/relu_pool_proj <- inception_4e/pool_proj
I0403 07:28:37.446611 14231 net.cpp:345] inception_4e/relu_pool_proj -> inception_4e/pool_proj (in-place)
I0403 07:28:37.446619 14231 net.cpp:96] Setting up inception_4e/relu_pool_proj
I0403 07:28:37.446624 14231 net.cpp:103] Top shape: 32 128 14 14 (802816)
I0403 07:28:37.446627 14231 net.cpp:113] Memory required for data: 1675830280
I0403 07:28:37.446634 14231 net.cpp:67] Creating Layer inception_4e/output
I0403 07:28:37.446638 14231 net.cpp:394] inception_4e/output <- inception_4e/1x1
I0403 07:28:37.446645 14231 net.cpp:394] inception_4e/output <- inception_4e/3x3
I0403 07:28:37.446652 14231 net.cpp:394] inception_4e/output <- inception_4e/5x5
I0403 07:28:37.446658 14231 net.cpp:394] inception_4e/output <- inception_4e/pool_proj
I0403 07:28:37.446668 14231 net.cpp:356] inception_4e/output -> inception_4e/output
I0403 07:28:37.446677 14231 net.cpp:96] Setting up inception_4e/output
I0403 07:28:37.446683 14231 net.cpp:103] Top shape: 32 832 14 14 (5218304)
I0403 07:28:37.446686 14231 net.cpp:113] Memory required for data: 1696703496
I0403 07:28:37.446694 14231 net.cpp:67] Creating Layer pool4/3x3_s2
I0403 07:28:37.446699 14231 net.cpp:394] pool4/3x3_s2 <- inception_4e/output
I0403 07:28:37.446712 14231 net.cpp:356] pool4/3x3_s2 -> pool4/3x3_s2
I0403 07:28:37.446720 14231 net.cpp:96] Setting up pool4/3x3_s2
I0403 07:28:37.446727 14231 net.cpp:103] Top shape: 32 832 7 7 (1304576)
I0403 07:28:37.446730 14231 net.cpp:113] Memory required for data: 1701921800
I0403 07:28:37.446738 14231 net.cpp:67] Creating Layer pool4/3x3_s2_pool4/3x3_s2_0_split
I0403 07:28:37.446741 14231 net.cpp:394] pool4/3x3_s2_pool4/3x3_s2_0_split <- pool4/3x3_s2
I0403 07:28:37.446750 14231 net.cpp:356] pool4/3x3_s2_pool4/3x3_s2_0_split -> pool4/3x3_s2_pool4/3x3_s2_0_split_0
I0403 07:28:37.446764 14231 net.cpp:356] pool4/3x3_s2_pool4/3x3_s2_0_split -> pool4/3x3_s2_pool4/3x3_s2_0_split_1
I0403 07:28:37.446774 14231 net.cpp:356] pool4/3x3_s2_pool4/3x3_s2_0_split -> pool4/3x3_s2_pool4/3x3_s2_0_split_2
I0403 07:28:37.446786 14231 net.cpp:356] pool4/3x3_s2_pool4/3x3_s2_0_split -> pool4/3x3_s2_pool4/3x3_s2_0_split_3
I0403 07:28:37.446794 14231 net.cpp:96] Setting up pool4/3x3_s2_pool4/3x3_s2_0_split
I0403 07:28:37.446800 14231 net.cpp:103] Top shape: 32 832 7 7 (1304576)
I0403 07:28:37.446804 14231 net.cpp:103] Top shape: 32 832 7 7 (1304576)
I0403 07:28:37.446807 14231 net.cpp:103] Top shape: 32 832 7 7 (1304576)
I0403 07:28:37.446811 14231 net.cpp:103] Top shape: 32 832 7 7 (1304576)
I0403 07:28:37.446815 14231 net.cpp:113] Memory required for data: 1722795016
I0403 07:28:37.446822 14231 net.cpp:67] Creating Layer inception_5a/1x1
I0403 07:28:37.446827 14231 net.cpp:394] inception_5a/1x1 <- pool4/3x3_s2_pool4/3x3_s2_0_split_0
I0403 07:28:37.446843 14231 net.cpp:356] inception_5a/1x1 -> inception_5a/1x1
I0403 07:28:37.446853 14231 net.cpp:96] Setting up inception_5a/1x1
I0403 07:28:37.460048 14231 net.cpp:103] Top shape: 32 256 7 7 (401408)
I0403 07:28:37.460062 14231 net.cpp:113] Memory required for data: 1724400648
I0403 07:28:37.460075 14231 net.cpp:67] Creating Layer inception_5a/relu_1x1
I0403 07:28:37.460082 14231 net.cpp:394] inception_5a/relu_1x1 <- inception_5a/1x1
I0403 07:28:37.460094 14231 net.cpp:345] inception_5a/relu_1x1 -> inception_5a/1x1 (in-place)
I0403 07:28:37.460103 14231 net.cpp:96] Setting up inception_5a/relu_1x1
I0403 07:28:37.460108 14231 net.cpp:103] Top shape: 32 256 7 7 (401408)
I0403 07:28:37.460110 14231 net.cpp:113] Memory required for data: 1726006280
I0403 07:28:37.460119 14231 net.cpp:67] Creating Layer inception_5a/3x3_reduce
I0403 07:28:37.460124 14231 net.cpp:394] inception_5a/3x3_reduce <- pool4/3x3_s2_pool4/3x3_s2_0_split_1
I0403 07:28:37.460135 14231 net.cpp:356] inception_5a/3x3_reduce -> inception_5a/3x3_reduce
I0403 07:28:37.460145 14231 net.cpp:96] Setting up inception_5a/3x3_reduce
I0403 07:28:37.468410 14231 net.cpp:103] Top shape: 32 160 7 7 (250880)
I0403 07:28:37.468425 14231 net.cpp:113] Memory required for data: 1727009800
I0403 07:28:37.468436 14231 net.cpp:67] Creating Layer inception_5a/relu_3x3_reduce
I0403 07:28:37.468442 14231 net.cpp:394] inception_5a/relu_3x3_reduce <- inception_5a/3x3_reduce
I0403 07:28:37.468456 14231 net.cpp:345] inception_5a/relu_3x3_reduce -> inception_5a/3x3_reduce (in-place)
I0403 07:28:37.468464 14231 net.cpp:96] Setting up inception_5a/relu_3x3_reduce
I0403 07:28:37.468468 14231 net.cpp:103] Top shape: 32 160 7 7 (250880)
I0403 07:28:37.468472 14231 net.cpp:113] Memory required for data: 1728013320
I0403 07:28:37.468479 14231 net.cpp:67] Creating Layer inception_5a/3x3
I0403 07:28:37.468484 14231 net.cpp:394] inception_5a/3x3 <- inception_5a/3x3_reduce
I0403 07:28:37.468497 14231 net.cpp:356] inception_5a/3x3 -> inception_5a/3x3
I0403 07:28:37.468508 14231 net.cpp:96] Setting up inception_5a/3x3
I0403 07:28:37.496995 14231 net.cpp:103] Top shape: 32 320 7 7 (501760)
I0403 07:28:37.497010 14231 net.cpp:113] Memory required for data: 1730020360
I0403 07:28:37.497025 14231 net.cpp:67] Creating Layer inception_5a/relu_3x3
I0403 07:28:37.497030 14231 net.cpp:394] inception_5a/relu_3x3 <- inception_5a/3x3
I0403 07:28:37.497040 14231 net.cpp:345] inception_5a/relu_3x3 -> inception_5a/3x3 (in-place)
I0403 07:28:37.497048 14231 net.cpp:96] Setting up inception_5a/relu_3x3
I0403 07:28:37.497052 14231 net.cpp:103] Top shape: 32 320 7 7 (501760)
I0403 07:28:37.497056 14231 net.cpp:113] Memory required for data: 1732027400
I0403 07:28:37.497072 14231 net.cpp:67] Creating Layer inception_5a/5x5_reduce
I0403 07:28:37.497077 14231 net.cpp:394] inception_5a/5x5_reduce <- pool4/3x3_s2_pool4/3x3_s2_0_split_2
I0403 07:28:37.497089 14231 net.cpp:356] inception_5a/5x5_reduce -> inception_5a/5x5_reduce
I0403 07:28:37.497098 14231 net.cpp:96] Setting up inception_5a/5x5_reduce
I0403 07:28:37.498761 14231 net.cpp:103] Top shape: 32 32 7 7 (50176)
I0403 07:28:37.498775 14231 net.cpp:113] Memory required for data: 1732228104
I0403 07:28:37.498787 14231 net.cpp:67] Creating Layer inception_5a/relu_5x5_reduce
I0403 07:28:37.498793 14231 net.cpp:394] inception_5a/relu_5x5_reduce <- inception_5a/5x5_reduce
I0403 07:28:37.498803 14231 net.cpp:345] inception_5a/relu_5x5_reduce -> inception_5a/5x5_reduce (in-place)
I0403 07:28:37.498811 14231 net.cpp:96] Setting up inception_5a/relu_5x5_reduce
I0403 07:28:37.498816 14231 net.cpp:103] Top shape: 32 32 7 7 (50176)
I0403 07:28:37.498818 14231 net.cpp:113] Memory required for data: 1732428808
I0403 07:28:37.498831 14231 net.cpp:67] Creating Layer inception_5a/5x5
I0403 07:28:37.498836 14231 net.cpp:394] inception_5a/5x5 <- inception_5a/5x5_reduce
I0403 07:28:37.498847 14231 net.cpp:356] inception_5a/5x5 -> inception_5a/5x5
I0403 07:28:37.498855 14231 net.cpp:96] Setting up inception_5a/5x5
I0403 07:28:37.505223 14231 net.cpp:103] Top shape: 32 128 7 7 (200704)
I0403 07:28:37.505237 14231 net.cpp:113] Memory required for data: 1733231624
I0403 07:28:37.505249 14231 net.cpp:67] Creating Layer inception_5a/relu_5x5
I0403 07:28:37.505255 14231 net.cpp:394] inception_5a/relu_5x5 <- inception_5a/5x5
I0403 07:28:37.505265 14231 net.cpp:345] inception_5a/relu_5x5 -> inception_5a/5x5 (in-place)
I0403 07:28:37.505273 14231 net.cpp:96] Setting up inception_5a/relu_5x5
I0403 07:28:37.505277 14231 net.cpp:103] Top shape: 32 128 7 7 (200704)
I0403 07:28:37.505280 14231 net.cpp:113] Memory required for data: 1734034440
I0403 07:28:37.505291 14231 net.cpp:67] Creating Layer inception_5a/pool
I0403 07:28:37.505296 14231 net.cpp:394] inception_5a/pool <- pool4/3x3_s2_pool4/3x3_s2_0_split_3
I0403 07:28:37.505306 14231 net.cpp:356] inception_5a/pool -> inception_5a/pool
I0403 07:28:37.505314 14231 net.cpp:96] Setting up inception_5a/pool
I0403 07:28:37.505322 14231 net.cpp:103] Top shape: 32 832 7 7 (1304576)
I0403 07:28:37.505326 14231 net.cpp:113] Memory required for data: 1739252744
I0403 07:28:37.505336 14231 net.cpp:67] Creating Layer inception_5a/pool_proj
I0403 07:28:37.505343 14231 net.cpp:394] inception_5a/pool_proj <- inception_5a/pool
I0403 07:28:37.505357 14231 net.cpp:356] inception_5a/pool_proj -> inception_5a/pool_proj
I0403 07:28:37.505365 14231 net.cpp:96] Setting up inception_5a/pool_proj
I0403 07:28:37.512007 14231 net.cpp:103] Top shape: 32 128 7 7 (200704)
I0403 07:28:37.512022 14231 net.cpp:113] Memory required for data: 1740055560
I0403 07:28:37.512035 14231 net.cpp:67] Creating Layer inception_5a/relu_pool_proj
I0403 07:28:37.512042 14231 net.cpp:394] inception_5a/relu_pool_proj <- inception_5a/pool_proj
I0403 07:28:37.512054 14231 net.cpp:345] inception_5a/relu_pool_proj -> inception_5a/pool_proj (in-place)
I0403 07:28:37.512063 14231 net.cpp:96] Setting up inception_5a/relu_pool_proj
I0403 07:28:37.512068 14231 net.cpp:103] Top shape: 32 128 7 7 (200704)
I0403 07:28:37.512071 14231 net.cpp:113] Memory required for data: 1740858376
I0403 07:28:37.512078 14231 net.cpp:67] Creating Layer inception_5a/output
I0403 07:28:37.512083 14231 net.cpp:394] inception_5a/output <- inception_5a/1x1
I0403 07:28:37.512089 14231 net.cpp:394] inception_5a/output <- inception_5a/3x3
I0403 07:28:37.512096 14231 net.cpp:394] inception_5a/output <- inception_5a/5x5
I0403 07:28:37.512104 14231 net.cpp:394] inception_5a/output <- inception_5a/pool_proj
I0403 07:28:37.512110 14231 net.cpp:356] inception_5a/output -> inception_5a/output
I0403 07:28:37.512118 14231 net.cpp:96] Setting up inception_5a/output
I0403 07:28:37.512123 14231 net.cpp:103] Top shape: 32 832 7 7 (1304576)
I0403 07:28:37.512127 14231 net.cpp:113] Memory required for data: 1746076680
I0403 07:28:37.512133 14231 net.cpp:67] Creating Layer inception_5a/output_inception_5a/output_0_split
I0403 07:28:37.512137 14231 net.cpp:394] inception_5a/output_inception_5a/output_0_split <- inception_5a/output
I0403 07:28:37.512150 14231 net.cpp:356] inception_5a/output_inception_5a/output_0_split -> inception_5a/output_inception_5a/output_0_split_0
I0403 07:28:37.512161 14231 net.cpp:356] inception_5a/output_inception_5a/output_0_split -> inception_5a/output_inception_5a/output_0_split_1
I0403 07:28:37.512171 14231 net.cpp:356] inception_5a/output_inception_5a/output_0_split -> inception_5a/output_inception_5a/output_0_split_2
I0403 07:28:37.512181 14231 net.cpp:356] inception_5a/output_inception_5a/output_0_split -> inception_5a/output_inception_5a/output_0_split_3
I0403 07:28:37.512187 14231 net.cpp:96] Setting up inception_5a/output_inception_5a/output_0_split
I0403 07:28:37.512193 14231 net.cpp:103] Top shape: 32 832 7 7 (1304576)
I0403 07:28:37.512197 14231 net.cpp:103] Top shape: 32 832 7 7 (1304576)
I0403 07:28:37.512202 14231 net.cpp:103] Top shape: 32 832 7 7 (1304576)
I0403 07:28:37.512204 14231 net.cpp:103] Top shape: 32 832 7 7 (1304576)
I0403 07:28:37.512207 14231 net.cpp:113] Memory required for data: 1766949896
I0403 07:28:37.512218 14231 net.cpp:67] Creating Layer inception_5b/1x1
I0403 07:28:37.512223 14231 net.cpp:394] inception_5b/1x1 <- inception_5a/output_inception_5a/output_0_split_0
I0403 07:28:37.512234 14231 net.cpp:356] inception_5b/1x1 -> inception_5b/1x1
I0403 07:28:37.512243 14231 net.cpp:96] Setting up inception_5b/1x1
I0403 07:28:37.532022 14231 net.cpp:103] Top shape: 32 384 7 7 (602112)
I0403 07:28:37.532038 14231 net.cpp:113] Memory required for data: 1769358344
I0403 07:28:37.532052 14231 net.cpp:67] Creating Layer inception_5b/relu_1x1
I0403 07:28:37.532058 14231 net.cpp:394] inception_5b/relu_1x1 <- inception_5b/1x1
I0403 07:28:37.532068 14231 net.cpp:345] inception_5b/relu_1x1 -> inception_5b/1x1 (in-place)
I0403 07:28:37.532075 14231 net.cpp:96] Setting up inception_5b/relu_1x1
I0403 07:28:37.532080 14231 net.cpp:103] Top shape: 32 384 7 7 (602112)
I0403 07:28:37.532084 14231 net.cpp:113] Memory required for data: 1771766792
I0403 07:28:37.532093 14231 net.cpp:67] Creating Layer inception_5b/3x3_reduce
I0403 07:28:37.532097 14231 net.cpp:394] inception_5b/3x3_reduce <- inception_5a/output_inception_5a/output_0_split_1
I0403 07:28:37.532111 14231 net.cpp:356] inception_5b/3x3_reduce -> inception_5b/3x3_reduce
I0403 07:28:37.532121 14231 net.cpp:96] Setting up inception_5b/3x3_reduce
I0403 07:28:37.542009 14231 net.cpp:103] Top shape: 32 192 7 7 (301056)
I0403 07:28:37.542024 14231 net.cpp:113] Memory required for data: 1772971016
I0403 07:28:37.542037 14231 net.cpp:67] Creating Layer inception_5b/relu_3x3_reduce
I0403 07:28:37.542043 14231 net.cpp:394] inception_5b/relu_3x3_reduce <- inception_5b/3x3_reduce
I0403 07:28:37.542053 14231 net.cpp:345] inception_5b/relu_3x3_reduce -> inception_5b/3x3_reduce (in-place)
I0403 07:28:37.542062 14231 net.cpp:96] Setting up inception_5b/relu_3x3_reduce
I0403 07:28:37.542067 14231 net.cpp:103] Top shape: 32 192 7 7 (301056)
I0403 07:28:37.542069 14231 net.cpp:113] Memory required for data: 1774175240
I0403 07:28:37.542080 14231 net.cpp:67] Creating Layer inception_5b/3x3
I0403 07:28:37.542086 14231 net.cpp:394] inception_5b/3x3 <- inception_5b/3x3_reduce
I0403 07:28:37.542096 14231 net.cpp:356] inception_5b/3x3 -> inception_5b/3x3
I0403 07:28:37.542140 14231 net.cpp:96] Setting up inception_5b/3x3
I0403 07:28:37.583145 14231 net.cpp:103] Top shape: 32 384 7 7 (602112)
I0403 07:28:37.583163 14231 net.cpp:113] Memory required for data: 1776583688
I0403 07:28:37.583179 14231 net.cpp:67] Creating Layer inception_5b/relu_3x3
I0403 07:28:37.583186 14231 net.cpp:394] inception_5b/relu_3x3 <- inception_5b/3x3
I0403 07:28:37.583197 14231 net.cpp:345] inception_5b/relu_3x3 -> inception_5b/3x3 (in-place)
I0403 07:28:37.583205 14231 net.cpp:96] Setting up inception_5b/relu_3x3
I0403 07:28:37.583210 14231 net.cpp:103] Top shape: 32 384 7 7 (602112)
I0403 07:28:37.583214 14231 net.cpp:113] Memory required for data: 1778992136
I0403 07:28:37.583232 14231 net.cpp:67] Creating Layer inception_5b/5x5_reduce
I0403 07:28:37.583240 14231 net.cpp:394] inception_5b/5x5_reduce <- inception_5a/output_inception_5a/output_0_split_2
I0403 07:28:37.583256 14231 net.cpp:356] inception_5b/5x5_reduce -> inception_5b/5x5_reduce
I0403 07:28:37.583266 14231 net.cpp:96] Setting up inception_5b/5x5_reduce
I0403 07:28:37.585747 14231 net.cpp:103] Top shape: 32 48 7 7 (75264)
I0403 07:28:37.585760 14231 net.cpp:113] Memory required for data: 1779293192
I0403 07:28:37.585772 14231 net.cpp:67] Creating Layer inception_5b/relu_5x5_reduce
I0403 07:28:37.585778 14231 net.cpp:394] inception_5b/relu_5x5_reduce <- inception_5b/5x5_reduce
I0403 07:28:37.585791 14231 net.cpp:345] inception_5b/relu_5x5_reduce -> inception_5b/5x5_reduce (in-place)
I0403 07:28:37.585799 14231 net.cpp:96] Setting up inception_5b/relu_5x5_reduce
I0403 07:28:37.585804 14231 net.cpp:103] Top shape: 32 48 7 7 (75264)
I0403 07:28:37.585808 14231 net.cpp:113] Memory required for data: 1779594248
I0403 07:28:37.585816 14231 net.cpp:67] Creating Layer inception_5b/5x5
I0403 07:28:37.585822 14231 net.cpp:394] inception_5b/5x5 <- inception_5b/5x5_reduce
I0403 07:28:37.585835 14231 net.cpp:356] inception_5b/5x5 -> inception_5b/5x5
I0403 07:28:37.585845 14231 net.cpp:96] Setting up inception_5b/5x5
I0403 07:28:37.595372 14231 net.cpp:103] Top shape: 32 128 7 7 (200704)
I0403 07:28:37.595386 14231 net.cpp:113] Memory required for data: 1780397064
I0403 07:28:37.595402 14231 net.cpp:67] Creating Layer inception_5b/relu_5x5
I0403 07:28:37.595408 14231 net.cpp:394] inception_5b/relu_5x5 <- inception_5b/5x5
I0403 07:28:37.595418 14231 net.cpp:345] inception_5b/relu_5x5 -> inception_5b/5x5 (in-place)
I0403 07:28:37.595427 14231 net.cpp:96] Setting up inception_5b/relu_5x5
I0403 07:28:37.595430 14231 net.cpp:103] Top shape: 32 128 7 7 (200704)
I0403 07:28:37.595433 14231 net.cpp:113] Memory required for data: 1781199880
I0403 07:28:37.595443 14231 net.cpp:67] Creating Layer inception_5b/pool
I0403 07:28:37.595449 14231 net.cpp:394] inception_5b/pool <- inception_5a/output_inception_5a/output_0_split_3
I0403 07:28:37.595459 14231 net.cpp:356] inception_5b/pool -> inception_5b/pool
I0403 07:28:37.595468 14231 net.cpp:96] Setting up inception_5b/pool
I0403 07:28:37.595475 14231 net.cpp:103] Top shape: 32 832 7 7 (1304576)
I0403 07:28:37.595479 14231 net.cpp:113] Memory required for data: 1786418184
I0403 07:28:37.595487 14231 net.cpp:67] Creating Layer inception_5b/pool_proj
I0403 07:28:37.595492 14231 net.cpp:394] inception_5b/pool_proj <- inception_5b/pool
I0403 07:28:37.595510 14231 net.cpp:356] inception_5b/pool_proj -> inception_5b/pool_proj
I0403 07:28:37.595520 14231 net.cpp:96] Setting up inception_5b/pool_proj
I0403 07:28:37.602118 14231 net.cpp:103] Top shape: 32 128 7 7 (200704)
I0403 07:28:37.602131 14231 net.cpp:113] Memory required for data: 1787221000
I0403 07:28:37.602144 14231 net.cpp:67] Creating Layer inception_5b/relu_pool_proj
I0403 07:28:37.602150 14231 net.cpp:394] inception_5b/relu_pool_proj <- inception_5b/pool_proj
I0403 07:28:37.602160 14231 net.cpp:345] inception_5b/relu_pool_proj -> inception_5b/pool_proj (in-place)
I0403 07:28:37.602169 14231 net.cpp:96] Setting up inception_5b/relu_pool_proj
I0403 07:28:37.602174 14231 net.cpp:103] Top shape: 32 128 7 7 (200704)
I0403 07:28:37.602176 14231 net.cpp:113] Memory required for data: 1788023816
I0403 07:28:37.602183 14231 net.cpp:67] Creating Layer inception_5b/output
I0403 07:28:37.602187 14231 net.cpp:394] inception_5b/output <- inception_5b/1x1
I0403 07:28:37.602195 14231 net.cpp:394] inception_5b/output <- inception_5b/3x3
I0403 07:28:37.602201 14231 net.cpp:394] inception_5b/output <- inception_5b/5x5
I0403 07:28:37.602207 14231 net.cpp:394] inception_5b/output <- inception_5b/pool_proj
I0403 07:28:37.602217 14231 net.cpp:356] inception_5b/output -> inception_5b/output
I0403 07:28:37.602226 14231 net.cpp:96] Setting up inception_5b/output
I0403 07:28:37.602231 14231 net.cpp:103] Top shape: 32 1024 7 7 (1605632)
I0403 07:28:37.602236 14231 net.cpp:113] Memory required for data: 1794446344
I0403 07:28:37.602242 14231 net.cpp:67] Creating Layer pool5/7x7_s1
I0403 07:28:37.602247 14231 net.cpp:394] pool5/7x7_s1 <- inception_5b/output
I0403 07:28:37.602259 14231 net.cpp:356] pool5/7x7_s1 -> pool5/7x7_s1
I0403 07:28:37.602268 14231 net.cpp:96] Setting up pool5/7x7_s1
I0403 07:28:37.602274 14231 net.cpp:103] Top shape: 32 1024 1 1 (32768)
I0403 07:28:37.602278 14231 net.cpp:113] Memory required for data: 1794577416
I0403 07:28:37.602285 14231 net.cpp:67] Creating Layer pool5/drop_7x7_s1
I0403 07:28:37.602289 14231 net.cpp:394] pool5/drop_7x7_s1 <- pool5/7x7_s1
I0403 07:28:37.602298 14231 net.cpp:345] pool5/drop_7x7_s1 -> pool5/7x7_s1 (in-place)
I0403 07:28:37.602306 14231 net.cpp:96] Setting up pool5/drop_7x7_s1
I0403 07:28:37.602311 14231 net.cpp:103] Top shape: 32 1024 1 1 (32768)
I0403 07:28:37.602314 14231 net.cpp:113] Memory required for data: 1794708488
I0403 07:28:37.602322 14231 net.cpp:67] Creating Layer fd_loss3/classifier
I0403 07:28:37.602327 14231 net.cpp:394] fd_loss3/classifier <- pool5/7x7_s1
I0403 07:28:37.602340 14231 net.cpp:356] fd_loss3/classifier -> fd_loss3/classifier
I0403 07:28:37.602350 14231 net.cpp:96] Setting up fd_loss3/classifier
I0403 07:28:37.602501 14231 net.cpp:103] Top shape: 32 2 1 1 (64)
I0403 07:28:37.602514 14231 net.cpp:113] Memory required for data: 1794708744
I0403 07:28:37.602530 14231 net.cpp:67] Creating Layer loss3/loss3
I0403 07:28:37.602535 14231 net.cpp:394] loss3/loss3 <- fd_loss3/classifier
I0403 07:28:37.602545 14231 net.cpp:394] loss3/loss3 <- label_data_1_split_2
I0403 07:28:37.602552 14231 net.cpp:356] loss3/loss3 -> loss3/loss3
I0403 07:28:37.602561 14231 net.cpp:96] Setting up loss3/loss3
I0403 07:28:37.602576 14231 net.cpp:103] Top shape: 1 1 1 1 (1)
I0403 07:28:37.602579 14231 net.cpp:109]     with loss weight 1
I0403 07:28:37.602591 14231 net.cpp:113] Memory required for data: 1794708748
I0403 07:28:37.602596 14231 net.cpp:170] loss3/loss3 needs backward computation.
I0403 07:28:37.602599 14231 net.cpp:170] fd_loss3/classifier needs backward computation.
I0403 07:28:37.602603 14231 net.cpp:170] pool5/drop_7x7_s1 needs backward computation.
…
I0403 07:28:37.606778 14231 solver.cpp:151] Creating test net (#0) specified by net file: examples/food_detection/googleNet/train_val.prototxt
I0403 07:28:37.607069 14231 net.cpp:275] The NetState phase (1) differed from the phase (0) specified by a rule in layer data
I0403 07:28:37.608140 14231 net.cpp:39] Initializing net from parameters: 
name: "fd_GoogleNet"
layers {
  top: "data"
  top: "label"
  name: "data"
  type: DATA
  data_param {
    source: "/mnt_data/yilin_guo/data/food_detection/val_images/"
    batch_size: 32
    backend: LMDB
  }
  include {
    phase: TEST
  }
  transform_param {
    mirror: false
    crop_size: 224
    mean_file: "data/ilsvrc12/imagenet_mean.binaryproto"
  }
}
layers {
  bottom: "data"
  top: "conv1/7x7_s2"
  name: "conv1/7x7_s2"
  type: CONVOLUTION
  blobs_lr: 1
  blobs_lr: 2
  weight_decay: 1
  weight_decay: 0
  convolution_param {
    num_output: 64
    pad: 3
    kernel_size: 7
    stride: 2
    weight_filler {
      type: "xavier"
      std: 0.1
    }
    bias_filler {
      type: "constant"
      value: 0.2
    }
  }
}
layers {
  bottom: "conv1/7x7_s2"
  top: "conv1/7x7_s2"
  name: "conv1/relu_7x7"
  type: RELU
}
layers {
  bottom: "conv1/7x7_s2"
  top: "pool1/3x3_s2"
  name: "pool1/3x3_s2"
  type: POOLING
  pooling_param {
    pool: MAX
    kernel_size: 3
    stride: 2
  }
}
layers {
  bottom: "pool1/3x3_s2"
  top: "pool1/norm1"
  name: "pool1/norm1"
  type: LRN
  lrn_param {
    local_size: 5
    alpha: 0.0001
    beta: 0.75
  }
}
layers {
  bottom: "pool1/norm1"
  top: "conv2/3x3_reduce"
  name: "conv2/3x3_reduce"
  type: CONVOLUTION
  blobs_lr: 1
  blobs_lr: 2
  weight_decay: 1
  weight_decay: 0
  convolution_param {
    num_output: 64
    kernel_size: 1
    weight_filler {
      type: "xavier"
      std: 0.1
    }
    bias_filler {
      type: "constant"
      value: 0.2
    }
  }
}
layers {
  bottom: "conv2/3x3_reduce"
  top: "conv2/3x3_reduce"
  name: "conv2/relu_3x3_reduce"
  type: RELU
}
layers {
  bottom: "conv2/3x3_reduce"
  top: "conv2/3x3"
  name: "conv2/3x3"
  type: CONVOLUTION
  blobs_lr: 1
  blobs_lr: 2
  weight_decay: 1
  weight_decay: 0
  convolution_param {
    num_output: 192
    pad: 1
    kernel_size: 3
    weight_filler {
      type: "xavier"
      std: 0.03
    }
    bias_filler {
      type: "constant"
      value: 0.2
    }
  }
}
layers {
  bottom: "conv2/3x3"
  top: "conv2/3x3"
  name: "conv2/relu_3x3"
  type: RELU
}
layers {
  bottom: "conv2/3x3"
  top: "conv2/norm2"
  name: "conv2/norm2"
  type: LRN
  lrn_param {
    local_size: 5
    alpha: 0.0001
    beta: 0.75
  }
}
layers {
  bottom: "conv2/norm2"
  top: "pool2/3x3_s2"
  name: "pool2/3x3_s2"
  type: POOLING
  pooling_param {
    pool: MAX
    kernel_size: 3
    stride: 2
  }
}
layers {
  bottom: "pool2/3x3_s2"
  top: "inception_3a/1x1"
  name: "inception_3a/1x1"
  type: CONVOLUTION
  blobs_lr: 1
  blobs_lr: 2
  weight_decay: 1
  weight_decay: 0
  convolution_param {
    num_output: 64
    kernel_size: 1
    weight_filler {
      type: "xavier"
      std: 0.03
    }
    bias_filler {
      type: "constant"
      value: 0.2
    }
  }
}
layers {
  bottom: "inception_3a/1x1"
  top: "inception_3a/1x1"
  name: "inception_3a/relu_1x1"
  type: RELU
}
layers {
  bottom: "pool2/3x3_s2"
  top: "inception_3a/3x3_reduce"
  name: "inception_3a/3x3_reduce"
  type: CONVOLUTION
  blobs_lr: 1
  blobs_lr: 2
  weight_decay: 1
  weight_decay: 0
  convolution_param {
    num_output: 96
    kernel_size: 1
    weight_filler {
      type: "xavier"
      std: 0.09
    }
    bias_filler {
      type: "constant"
      value: 0.2
    }
  }
}
layers {
  bottom: "inception_3a/3x3_reduce"
  top: "inception_3a/3x3_reduce"
  name: "inception_3a/relu_3x3_reduce"
  type: RELU
}
layers {
  bottom: "inception_3a/3x3_reduce"
  top: "inception_3a/3x3"
  name: "inception_3a/3x3"
  type: CONVOLUTION
  blobs_lr: 1
  blobs_lr: 2
  weight_decay: 1
  weight_decay: 0
  convolution_param {
    num_output: 128
    pad: 1
    kernel_size: 3
    weight_filler {
      type: "xavier"
      std: 0.03
    }
    bias_filler {
      type: "constant"
      value: 0.2
    }
  }
}
layers {
  bottom: "inception_3a/3x3"
  top: "inception_3a/3x3"
  name: "inception_3a/relu_3x3"
  type: RELU
}
layers {
  bottom: "pool2/3x3_s2"
  top: "inception_3a/5x5_reduce"
  name: "inception_3a/5x5_reduce"
  type: CONVOLUTION
  blobs_lr: 1
  blobs_lr: 2
  weight_decay: 1
  weight_decay: 0
  convolution_param {
    num_output: 16
    kernel_size: 1
    weight_filler {
      type: "xavier"
      std: 0.2
    }
    bias_filler {
      type: "constant"
      value: 0.2
    }
  }
}
layers {
  bottom: "inception_3a/5x5_reduce"
  top: "inception_3a/5x5_reduce"
  name: "inception_3a/relu_5x5_reduce"
  type: RELU
}
layers {
  bottom: "inception_3a/5x5_reduce"
  top: "inception_3a/5x5"
  name: "inception_3a/5x5"
  type: CONVOLUTION
  blobs_lr: 1
  blobs_lr: 2
  weight_decay: 1
  weight_decay: 0
  convolution_param {
    num_output: 32
    pad: 2
    kernel_size: 5
    weight_filler {
      type: "xavier"
      std: 0.03
    }
    bias_filler {
      type: "constant"
      value: 0.2
    }
  }
}
layers {
  bottom: "inception_3a/5x5"
  top: "inception_3a/5x5"
  name: "inception_3a/relu_5x5"
  type: RELU
}
layers {
  bottom: "pool2/3x3_s2"
  top: "inception_3a/pool"
  name: "inception_3a/pool"
  type: POOLING
  pooling_param {
    pool: MAX
    kernel_size: 3
    stride: 1
    pad: 1
  }
}
layers {
  bottom: "inception_3a/pool"
  top: "inception_3a/pool_proj"
  name: "inception_3a/pool_proj"
  type: CONVOLUTION
  blobs_lr: 1
  blobs_lr: 2
  weight_decay: 1
  weight_decay: 0
  convolution_param {
    num_output: 32
    kernel_size: 1
    weight_filler {
      type: "xavier"
      std: 0.1
    }
    bias_filler {
      type: "constant"
      value: 0.2
    }
  }
}
layers {
  bottom: "inception_3a/pool_proj"
  top: "inception_3a/pool_proj"
  name: "inception_3a/relu_pool_proj"
  type: RELU
}
layers {
  bottom: "inception_3a/1x1"
  bottom: "inception_3a/3x3"
  bottom: "inception_3a/5x5"
  bottom: "inception_3a/pool_proj"
  top: "inception_3a/output"
  name: "inception_3a/output"
  type: CONCAT
}
layers {
  bottom: "inception_3a/output"
  top: "inception_3b/1x1"
  name: "inception_3b/1x1"
  type: CONVOLUTION
  blobs_lr: 1
  blobs_lr: 2
  weight_decay: 1
  weight_decay: 0
  convolution_param {
    num_output: 128
    kernel_size: 1
    weight_filler {
      type: "xavier"
      std: 0.03
    }
    bias_filler {
      type: "constant"
      value: 0.2
    }
  }
}
layers {
  bottom: "inception_3b/1x1"
  top: "inception_3b/1x1"
  name: "inception_3b/relu_1x1"
  type: RELU
}
layers {
  bottom: "inception_3a/output"
  top: "inception_3b/3x3_reduce"
  name: "inception_3b/3x3_reduce"
  type: CONVOLUTION
  blobs_lr: 1
  blobs_lr: 2
  weight_decay: 1
  weight_decay: 0
  convolution_param {
    num_output: 128
    kernel_size: 1
    weight_filler {
      type: "xavier"
      std: 0.09
    }
    bias_filler {
      type: "constant"
      value: 0.2
    }
  }
}
layers {
  bottom: "inception_3b/3x3_reduce"
  top: "inception_3b/3x3_reduce"
  name: "inception_3b/relu_3x3_reduce"
  type: RELU
}
layers {
  bottom: "inception_3b/3x3_reduce"
  top: "inception_3b/3x3"
  name: "inception_3b/3x3"
  type: CONVOLUTION
  blobs_lr: 1
  blobs_lr: 2
  weight_decay: 1
  weight_decay: 0
  convolution_param {
    num_output: 192
    pad: 1
    kernel_size: 3
    weight_filler {
      type: "xavier"
      std: 0.03
    }
    bias_filler {
      type: "constant"
      value: 0.2
    }
  }
}
layers {
  bottom: "inception_3b/3x3"
  top: "inception_3b/3x3"
  name: "inception_3b/relu_3x3"
  type: RELU
}
layers {
  bottom: "inception_3a/output"
  top: "inception_3b/5x5_reduce"
  name: "inception_3b/5x5_reduce"
  type: CONVOLUTION
  blobs_lr: 1
  blobs_lr: 2
  weight_decay: 1
  weight_decay: 0
  convolution_param {
    num_output: 32
    kernel_size: 1
    weight_filler {
      type: "xavier"
      std: 0.2
    }
    bias_filler {
      type: "constant"
      value: 0.2
    }
  }
}
layers {
  bottom: "inception_3b/5x5_reduce"
  top: "inception_3b/5x5_reduce"
  name: "inception_3b/relu_5x5_reduce"
  type: RELU
}
layers {
  bottom: "inception_3b/5x5_reduce"
  top: "inception_3b/5x5"
  name: "inception_3b/5x5"
  type: CONVOLUTION
  blobs_lr: 1
  blobs_lr: 2
  weight_decay: 1
  weight_decay: 0
  convolution_param {
    num_output: 96
    pad: 2
    kernel_size: 5
    weight_filler {
      type: "xavier"
      std: 0.03
    }
    bias_filler {
      type: "constant"
      value: 0.2
    }
  }
}
layers {
  bottom: "inception_3b/5x5"
  top: "inception_3b/5x5"
  name: "inception_3b/relu_5x5"
  type: RELU
}
layers {
  bottom: "inception_3a/output"
  top: "inception_3b/pool"
  name: "inception_3b/pool"
  type: POOLING
  pooling_param {
    pool: MAX
    kernel_size: 3
    stride: 1
    pad: 1
  }
}
layers {
  bottom: "inception_3b/pool"
  top: "inception_3b/pool_proj"
  name: "inception_3b/pool_proj"
  type: CONVOLUTION
  blobs_lr: 1
  blobs_lr: 2
  weight_decay: 1
  weight_decay: 0
  convolution_param {
    num_output: 64
    kernel_size: 1
    weight_filler {
      type: "xavier"
      std: 0.1
    }
    bias_filler {
      type: "constant"
      value: 0.2
    }
  }
}
layers {
  bottom: "inception_3b/pool_proj"
  top: "inception_3b/pool_proj"
  name: "inception_3b/relu_pool_proj"
  type: RELU
}
layers {
  bottom: "inception_3b/1x1"
  bottom: "inception_3b/3x3"
  bottom: "inception_3b/5x5"
  bottom: "inception_3b/pool_proj"
  top: "inception_3b/output"
  name: "inception_3b/output"
  type: CONCAT
}
layers {
  bottom: "inception_3b/output"
  top: "pool3/3x3_s2"
  name: "pool3/3x3_s2"
  type: POOLING
  pooling_param {
    pool: MAX
    kernel_size: 3
    stride: 2
  }
}
layers {
  bottom: "pool3/3x3_s2"
  top: "inception_4a/1x1"
  name: "inception_4a/1x1"
  type: CONVOLUTION
  blobs_lr: 1
  blobs_lr: 2
  weight_decay: 1
  weight_decay: 0
  convolution_param {
    num_output: 192
    kernel_size: 1
    weight_filler {
      type: "xavier"
      std: 0.03
    }
    bias_filler {
      type: "constant"
      value: 0.2
    }
  }
}
layers {
  bottom: "inception_4a/1x1"
  top: "inception_4a/1x1"
  name: "inception_4a/relu_1x1"
  type: RELU
}
layers {
  bottom: "pool3/3x3_s2"
  top: "inception_4a/3x3_reduce"
  name: "inception_4a/3x3_reduce"
  type: CONVOLUTION
  blobs_lr: 1
  blobs_lr: 2
  weight_decay: 1
  weight_decay: 0
  convolution_param {
    num_output: 96
    kernel_size: 1
    weight_filler {
      type: "xavier"
      std: 0.09
    }
    bias_filler {
      type: "constant"
      value: 0.2
    }
  }
}
layers {
  bottom: "inception_4a/3x3_reduce"
  top: "inception_4a/3x3_reduce"
  name: "inception_4a/relu_3x3_reduce"
  type: RELU
}
layers {
  bottom: "inception_4a/3x3_reduce"
  top: "inception_4a/3x3"
  name: "inception_4a/3x3"
  type: CONVOLUTION
  blobs_lr: 1
  blobs_lr: 2
  weight_decay: 1
  weight_decay: 0
  convolution_param {
    num_output: 208
    pad: 1
    kernel_size: 3
    weight_filler {
      type: "xavier"
      std: 0.03
    }
    bias_filler {
      type: "constant"
      value: 0.2
    }
  }
}
layers {
  bottom: "inception_4a/3x3"
  top: "inception_4a/3x3"
  name: "inception_4a/relu_3x3"
  type: RELU
}
layers {
  bottom: "pool3/3x3_s2"
  top: "inception_4a/5x5_reduce"
  name: "inception_4a/5x5_reduce"
  type: CONVOLUTION
  blobs_lr: 1
  blobs_lr: 2
  weight_decay: 1
  weight_decay: 0
  convolution_param {
    num_output: 16
    kernel_size: 1
    weight_filler {
      type: "xavier"
      std: 0.2
    }
    bias_filler {
      type: "constant"
      value: 0.2
    }
  }
}
layers {
  bottom: "inception_4a/5x5_reduce"
  top: "inception_4a/5x5_reduce"
  name: "inception_4a/relu_5x5_reduce"
  type: RELU
}
layers {
  bottom: "inception_4a/5x5_reduce"
  top: "inception_4a/5x5"
  name: "inception_4a/5x5"
  type: CONVOLUTION
  blobs_lr: 1
  blobs_lr: 2
  weight_decay: 1
  weight_decay: 0
  convolution_param {
    num_output: 48
    pad: 2
    kernel_size: 5
    weight_filler {
      type: "xavier"
      std: 0.03
    }
    bias_filler {
      type: "constant"
      value: 0.2
    }
  }
}
layers {
  bottom: "inception_4a/5x5"
  top: "inception_4a/5x5"
  name: "inception_4a/relu_5x5"
  type: RELU
}
layers {
  bottom: "pool3/3x3_s2"
  top: "inception_4a/pool"
  name: "inception_4a/pool"
  type: POOLING
  pooling_param {
    pool: MAX
    kernel_size: 3
    stride: 1
    pad: 1
  }
}
layers {
  bottom: "inception_4a/pool"
  top: "inception_4a/pool_proj"
  name: "inception_4a/pool_proj"
  type: CONVOLUTION
  blobs_lr: 1
  blobs_lr: 2
  weight_decay: 1
  weight_decay: 0
  convolution_param {
    num_output: 64
    kernel_size: 1
    weight_filler {
      type: "xavier"
      std: 0.1
    }
    bias_filler {
      type: "constant"
      value: 0.2
    }
  }
}
layers {
  bottom: "inception_4a/pool_proj"
  top: "inception_4a/pool_proj"
  name: "inception_4a/relu_pool_proj"
  type: RELU
}
layers {
  bottom: "inception_4a/1x1"
  bottom: "inception_4a/3x3"
  bottom: "inception_4a/5x5"
  bottom: "inception_4a/pool_proj"
  top: "inception_4a/output"
  name: "inception_4a/output"
  type: CONCAT
}
layers {
  bottom: "inception_4a/output"
  top: "loss1/ave_pool"
  name: "loss1/ave_pool"
  type: POOLING
  pooling_param {
    pool: AVE
    kernel_size: 5
    stride: 3
  }
}
layers {
  bottom: "loss1/ave_pool"
  top: "loss1/conv"
  name: "loss1/conv"
  type: CONVOLUTION
  blobs_lr: 1
  blobs_lr: 2
  weight_decay: 1
  weight_decay: 0
  convolution_param {
    num_output: 128
    kernel_size: 1
    weight_filler {
      type: "xavier"
      std: 0.08
    }
    bias_filler {
      type: "constant"
      value: 0.2
    }
  }
}
layers {
  bottom: "loss1/conv"
  top: "loss1/conv"
  name: "loss1/relu_conv"
  type: RELU
}
layers {
  bottom: "loss1/conv"
  top: "loss1/fc"
  name: "loss1/fc"
  type: INNER_PRODUCT
  blobs_lr: 1
  blobs_lr: 2
  weight_decay: 1
  weight_decay: 0
  inner_product_param {
    num_output: 1024
    weight_filler {
      type: "xavier"
      std: 0.02
    }
    bias_filler {
      type: "constant"
      value: 0.2
    }
  }
}
layers {
  bottom: "loss1/fc"
  top: "loss1/fc"
  name: "loss1/relu_fc"
  type: RELU
}
layers {
  bottom: "loss1/fc"
  top: "loss1/fc"
  name: "loss1/drop_fc"
  type: DROPOUT
  dropout_param {
    dropout_ratio: 0.7
  }
}
layers {
  bottom: "loss1/fc"
  top: "fd_loss1/classifier"
  name: "fd_loss1/classifier"
  type: INNER_PRODUCT
  blobs_lr: 10
  blobs_lr: 20
  weight_decay: 1
  weight_decay: 0
  inner_product_param {
    num_output: 2
    weight_filler {
      type: "xavier"
      std: 0.0009765625
    }
    bias_filler {
      type: "constant"
      value: 0
    }
  }
}
layers {
  bottom: "fd_loss1/classifier"
  bottom: "label"
  top: "loss1/loss1"
  name: "loss1/loss"
  type: SOFTMAX_LOSS
  loss_weight: 0.3
}
layers {
  bottom: "fd_loss1/classifier"
  bottom: "label"
  top: "loss1/top-1"
  name: "loss1/top-1"
  type: ACCURACY
  include {
    phase: TEST
  }
}
layers {
  bottom: "inception_4a/output"
  top: "inception_4b/1x1"
  name: "inception_4b/1x1"
  type: CONVOLUTION
  blobs_lr: 1
  blobs_lr: 2
  weight_decay: 1
  weight_decay: 0
  convolution_param {
    num_output: 160
    kernel_size: 1
    weight_filler {
      type: "xavier"
      std: 0.03
    }
    bias_filler {
      type: "constant"
      value: 0.2
    }
  }
}
layers {
  bottom: "inception_4b/1x1"
  top: "inception_4b/1x1"
  name: "inception_4b/relu_1x1"
  type: RELU
}
layers {
  bottom: "inception_4a/output"
  top: "inception_4b/3x3_reduce"
  name: "inception_4b/3x3_reduce"
  type: CONVOLUTION
  blobs_lr: 1
  blobs_lr: 2
  weight_decay: 1
  weight_decay: 0
  convolution_param {
    num_output: 112
    kernel_size: 1
    weight_filler {
      type: "xavier"
      std: 0.09
    }
    bias_filler {
      type: "constant"
      value: 0.2
    }
  }
}
layers {
  bottom: "inception_4b/3x3_reduce"
  top: "inception_4b/3x3_reduce"
  name: "inception_4b/relu_3x3_reduce"
  type: RELU
}
layers {
  bottom: "inception_4b/3x3_reduce"
  top: "inception_4b/3x3"
  name: "inception_4b/3x3"
  type: CONVOLUTION
  blobs_lr: 1
  blobs_lr: 2
  weight_decay: 1
  weight_decay: 0
  convolution_param {
    num_output: 224
    pad: 1
    kernel_size: 3
    weight_filler {
      type: "xavier"
      std: 0.03
    }
    bias_filler {
      type: "constant"
      value: 0.2
    }
  }
}
layers {
  bottom: "inception_4b/3x3"
  top: "inception_4b/3x3"
  name: "inception_4b/relu_3x3"
  type: RELU
}
layers {
  bottom: "inception_4a/output"
  top: "inception_4b/5x5_reduce"
  name: "inception_4b/5x5_reduce"
  type: CONVOLUTION
  blobs_lr: 1
  blobs_lr: 2
  weight_decay: 1
  weight_decay: 0
  convolution_param {
    num_output: 24
    kernel_size: 1
    weight_filler {
      type: "xavier"
      std: 0.2
    }
    bias_filler {
      type: "constant"
      value: 0.2
    }
  }
}
layers {
  bottom: "inception_4b/5x5_reduce"
  top: "inception_4b/5x5_reduce"
  name: "inception_4b/relu_5x5_reduce"
  type: RELU
}
layers {
  bottom: "inception_4b/5x5_reduce"
  top: "inception_4b/5x5"
  name: "inception_4b/5x5"
  type: CONVOLUTION
  blobs_lr: 1
  blobs_lr: 2
  weight_decay: 1
  weight_decay: 0
  convolution_param {
    num_output: 64
    pad: 2
    kernel_size: 5
    weight_filler {
      type: "xavier"
      std: 0.03
    }
    bias_filler {
      type: "constant"
      value: 0.2
    }
  }
}
layers {
  bottom: "inception_4b/5x5"
  top: "inception_4b/5x5"
  name: "inception_4b/relu_5x5"
  type: RELU
}
layers {
  bottom: "inception_4a/output"
  top: "inception_4b/pool"
  name: "inception_4b/pool"
  type: POOLING
  pooling_param {
    pool: MAX
    kernel_size: 3
    stride: 1
    pad: 1
  }
}
layers {
  bottom: "inception_4b/pool"
  top: "inception_4b/pool_proj"
  name: "inception_4b/pool_proj"
  type: CONVOLUTION
  blobs_lr: 1
  blobs_lr: 2
  weight_decay: 1
  weight_decay: 0
  convolution_param {
    num_output: 64
    kernel_size: 1
    weight_filler {
      type: "xavier"
      std: 0.1
    }
    bias_filler {
      type: "constant"
      value: 0.2
    }
  }
}
layers {
  bottom: "inception_4b/pool_proj"
  top: "inception_4b/pool_proj"
  name: "inception_4b/relu_pool_proj"
  type: RELU
}
layers {
  bottom: "inception_4b/1x1"
  bottom: "inception_4b/3x3"
  bottom: "inception_4b/5x5"
  bottom: "inception_4b/pool_proj"
  top: "inception_4b/output"
  name: "inception_4b/output"
  type: CONCAT
}
layers {
  bottom: "inception_4b/output"
  top: "inception_4c/1x1"
  name: "inception_4c/1x1"
  type: CONVOLUTION
  blobs_lr: 1
  blobs_lr: 2
  weight_decay: 1
  weight_decay: 0
  convolution_param {
    num_output: 128
    kernel_size: 1
    weight_filler {
      type: "xavier"
      std: 0.03
    }
    bias_filler {
      type: "constant"
      value: 0.2
    }
  }
}
layers {
  bottom: "inception_4c/1x1"
  top: "inception_4c/1x1"
  name: "inception_4c/relu_1x1"
  type: RELU
}
layers {
  bottom: "inception_4b/output"
  top: "inception_4c/3x3_reduce"
  name: "inception_4c/3x3_reduce"
  type: CONVOLUTION
  blobs_lr: 1
  blobs_lr: 2
  weight_decay: 1
  weight_decay: 0
  convolution_param {
    num_output: 128
    kernel_size: 1
    weight_filler {
      type: "xavier"
      std: 0.09
    }
    bias_filler {
      type: "constant"
      value: 0.2
    }
  }
}
layers {
  bottom: "inception_4c/3x3_reduce"
  top: "inception_4c/3x3_reduce"
  name: "inception_4c/relu_3x3_reduce"
  type: RELU
}
layers {
  bottom: "inception_4c/3x3_reduce"
  top: "inception_4c/3x3"
  name: "inception_4c/3x3"
  type: CONVOLUTION
  blobs_lr: 1
  blobs_lr: 2
  weight_decay: 1
  weight_decay: 0
  convolution_param {
    num_output: 256
    pad: 1
    kernel_size: 3
    weight_filler {
      type: "xavier"
      std: 0.03
    }
    bias_filler {
      type: "constant"
      value: 0.2
    }
  }
}
layers {
  bottom: "inception_4c/3x3"
  top: "inception_4c/3x3"
  name: "inception_4c/relu_3x3"
  type: RELU
}
layers {
  bottom: "inception_4b/output"
  top: "inception_4c/5x5_reduce"
  name: "inception_4c/5x5_reduce"
  type: CONVOLUTION
  blobs_lr: 1
  blobs_lr: 2
  weight_decay: 1
  weight_decay: 0
  convolution_param {
    num_output: 24
    kernel_size: 1
    weight_filler {
      type: "xavier"
      std: 0.2
    }
    bias_filler {
      type: "constant"
      value: 0.2
    }
  }
}
layers {
  bottom: "inception_4c/5x5_reduce"
  top: "inception_4c/5x5_reduce"
  name: "inception_4c/relu_5x5_reduce"
  type: RELU
}
layers {
  bottom: "inception_4c/5x5_reduce"
  top: "inception_4c/5x5"
  name: "inception_4c/5x5"
  type: CONVOLUTION
  blobs_lr: 1
  blobs_lr: 2
  weight_decay: 1
  weight_decay: 0
  convolution_param {
    num_output: 64
    pad: 2
    kernel_size: 5
    weight_filler {
      type: "xavier"
      std: 0.03
    }
    bias_filler {
      type: "constant"
      value: 0.2
    }
  }
}
layers {
  bottom: "inception_4c/5x5"
  top: "inception_4c/5x5"
  name: "inception_4c/relu_5x5"
  type: RELU
}
layers {
  bottom: "inception_4b/output"
  top: "inception_4c/pool"
  name: "inception_4c/pool"
  type: POOLING
  pooling_param {
    pool: MAX
    kernel_size: 3
    stride: 1
    pad: 1
  }
}
layers {
  bottom: "inception_4c/pool"
  top: "inception_4c/pool_proj"
  name: "inception_4c/pool_proj"
  type: CONVOLUTION
  blobs_lr: 1
  blobs_lr: 2
  weight_decay: 1
  weight_decay: 0
  convolution_param {
    num_output: 64
    kernel_size: 1
    weight_filler {
      type: "xavier"
      std: 0.1
    }
    bias_filler {
      type: "constant"
      value: 0.2
    }
  }
}
layers {
  bottom: "inception_4c/pool_proj"
  top: "inception_4c/pool_proj"
  name: "inception_4c/relu_pool_proj"
  type: RELU
}
layers {
  bottom: "inception_4c/1x1"
  bottom: "inception_4c/3x3"
  bottom: "inception_4c/5x5"
  bottom: "inception_4c/pool_proj"
  top: "inception_4c/output"
  name: "inception_4c/output"
  type: CONCAT
}
layers {
  bottom: "inception_4c/output"
  top: "inception_4d/1x1"
  name: "inception_4d/1x1"
  type: CONVOLUTION
  blobs_lr: 1
  blobs_lr: 2
  weight_decay: 1
  weight_decay: 0
  convolution_param {
    num_output: 112
    kernel_size: 1
    weight_filler {
      type: "xavier"
      std: 0.03
    }
    bias_filler {
      type: "constant"
      value: 0.2
    }
  }
}
layers {
  bottom: "inception_4d/1x1"
  top: "inception_4d/1x1"
  name: "inception_4d/relu_1x1"
  type: RELU
}
layers {
  bottom: "inception_4c/output"
  top: "inception_4d/3x3_reduce"
  name: "inception_4d/3x3_reduce"
  type: CONVOLUTION
  blobs_lr: 1
  blobs_lr: 2
  weight_decay: 1
  weight_decay: 0
  convolution_param {
    num_output: 144
    kernel_size: 1
    weight_filler {
      type: "xavier"
      std: 0.09
    }
    bias_filler {
      type: "constant"
      value: 0.2
    }
  }
}
layers {
  bottom: "inception_4d/3x3_reduce"
  top: "inception_4d/3x3_reduce"
  name: "inception_4d/relu_3x3_reduce"
  type: RELU
}
layers {
  bottom: "inception_4d/3x3_reduce"
  top: "inception_4d/3x3"
  name: "inception_4d/3x3"
  type: CONVOLUTION
  blobs_lr: 1
  blobs_lr: 2
  weight_decay: 1
  weight_decay: 0
  convolution_param {
    num_output: 288
    pad: 1
    kernel_size: 3
    weight_filler {
      type: "xavier"
      std: 0.03
    }
    bias_filler {
      type: "constant"
      value: 0.2
    }
  }
}
layers {
  bottom: "inception_4d/3x3"
  top: "inception_4d/3x3"
  name: "inception_4d/relu_3x3"
  type: RELU
}
layers {
  bottom: "inception_4c/output"
  top: "inception_4d/5x5_reduce"
  name: "inception_4d/5x5_reduce"
  type: CONVOLUTION
  blobs_lr: 1
  blobs_lr: 2
  weight_decay: 1
  weight_decay: 0
  convolution_param {
    num_output: 32
    kernel_size: 1
    weight_filler {
      type: "xavier"
      std: 0.2
    }
    bias_filler {
      type: "constant"
      value: 0.2
    }
  }
}
layers {
  bottom: "inception_4d/5x5_reduce"
  top: "inception_4d/5x5_reduce"
  name: "inception_4d/relu_5x5_reduce"
  type: RELU
}
layers {
  bottom: "inception_4d/5x5_reduce"
  top: "inception_4d/5x5"
  name: "inception_4d/5x5"
  type: CONVOLUTION
  blobs_lr: 1
  blobs_lr: 2
  weight_decay: 1
  weight_decay: 0
  convolution_param {
    num_output: 64
    pad: 2
    kernel_size: 5
    weight_filler {
      type: "xavier"
      std: 0.03
    }
    bias_filler {
      type: "constant"
      value: 0.2
    }
  }
}
layers {
  bottom: "inception_4d/5x5"
  top: "inception_4d/5x5"
  name: "inception_4d/relu_5x5"
  type: RELU
}
layers {
  bottom: "inception_4c/output"
  top: "inception_4d/pool"
  name: "inception_4d/pool"
  type: POOLING
  pooling_param {
    pool: MAX
    kernel_size: 3
    stride: 1
    pad: 1
  }
}
layers {
  bottom: "inception_4d/pool"
  top: "inception_4d/pool_proj"
  name: "inception_4d/pool_proj"
  type: CONVOLUTION
  blobs_lr: 1
  blobs_lr: 2
  weight_decay: 1
  weight_decay: 0
  convolution_param {
    num_output: 64
    kernel_size: 1
    weight_filler {
      type: "xavier"
      std: 0.1
    }
    bias_filler {
      type: "constant"
      value: 0.2
    }
  }
}
layers {
  bottom: "inception_4d/pool_proj"
  top: "inception_4d/pool_proj"
  name: "inception_4d/relu_pool_proj"
  type: RELU
}
layers {
  bottom: "inception_4d/1x1"
  bottom: "inception_4d/3x3"
  bottom: "inception_4d/5x5"
  bottom: "inception_4d/pool_proj"
  top: "inception_4d/output"
  name: "inception_4d/output"
  type: CONCAT
}
layers {
  bottom: "inception_4d/output"
  top: "loss2/ave_pool"
  name: "loss2/ave_pool"
  type: POOLING
  pooling_param {
    pool: AVE
    kernel_size: 5
    stride: 3
  }
}
layers {
  bottom: "loss2/ave_pool"
  top: "loss2/conv"
  name: "loss2/conv"
  type: CONVOLUTION
  blobs_lr: 1
  blobs_lr: 2
  weight_decay: 1
  weight_decay: 0
  convolution_param {
    num_output: 128
    kernel_size: 1
    weight_filler {
      type: "xavier"
      std: 0.08
    }
    bias_filler {
      type: "constant"
      value: 0.2
    }
  }
}
layers {
  bottom: "loss2/conv"
  top: "loss2/conv"
  name: "loss2/relu_conv"
  type: RELU
}
layers {
  bottom: "loss2/conv"
  top: "loss2/fc"
  name: "loss2/fc"
  type: INNER_PRODUCT
  blobs_lr: 1
  blobs_lr: 2
  weight_decay: 1
  weight_decay: 0
  inner_product_param {
    num_output: 1024
    weight_filler {
      type: "xavier"
      std: 0.02
    }
    bias_filler {
      type: "constant"
      value: 0.2
    }
  }
}
layers {
  bottom: "loss2/fc"
  top: "loss2/fc"
  name: "loss2/relu_fc"
  type: RELU
}
layers {
  bottom: "loss2/fc"
  top: "loss2/fc"
  name: "loss2/drop_fc"
  type: DROPOUT
  dropout_param {
    dropout_ratio: 0.7
  }
}
layers {
  bottom: "loss2/fc"
  top: "fd_loss2/classifier"
  name: "fd_loss2/classifier"
  type: INNER_PRODUCT
  blobs_lr: 10
  blobs_lr: 20
  weight_decay: 1
  weight_decay: 0
  inner_product_param {
    num_output: 2
    weight_filler {
      type: "xavier"
      std: 0.0009765625
    }
    bias_filler {
      type: "constant"
      value: 0
    }
  }
}
layers {
  bottom: "fd_loss2/classifier"
  bottom: "label"
  top: "loss2/loss1"
  name: "loss2/loss"
  type: SOFTMAX_LOSS
  loss_weight: 0.3
}
layers {
  bottom: "fd_loss2/classifier"
  bottom: "label"
  top: "loss2/top-1"
  name: "loss2/top-1"
  type: ACCURACY
  include {
    phase: TEST
  }
}
layers {
  bottom: "inception_4d/output"
  top: "inception_4e/1x1"
  name: "inception_4e/1x1"
  type: CONVOLUTION
  blobs_lr: 1
  blobs_lr: 2
  weight_decay: 1
  weight_decay: 0
  convolution_param {
    num_output: 256
    kernel_size: 1
    weight_filler {
      type: "xavier"
      std: 0.03
    }
    bias_filler {
      type: "constant"
      value: 0.2
    }
  }
}
layers {
  bottom: "inception_4e/1x1"
  top: "inception_4e/1x1"
  name: "inception_4e/relu_1x1"
  type: RELU
}
layers {
  bottom: "inception_4d/output"
  top: "inception_4e/3x3_reduce"
  name: "inception_4e/3x3_reduce"
  type: CONVOLUTION
  blobs_lr: 1
  blobs_lr: 2
  weight_decay: 1
  weight_decay: 0
  convolution_param {
    num_output: 160
    kernel_size: 1
    weight_filler {
      type: "xavier"
      std: 0.09
    }
    bias_filler {
      type: "constant"
      value: 0.2
    }
  }
}
layers {
  bottom: "inception_4e/3x3_reduce"
  top: "inception_4e/3x3_reduce"
  name: "inception_4e/relu_3x3_reduce"
  type: RELU
}
layers {
  bottom: "inception_4e/3x3_reduce"
  top: "inception_4e/3x3"
  name: "inception_4e/3x3"
  type: CONVOLUTION
  blobs_lr: 1
  blobs_lr: 2
  weight_decay: 1
  weight_decay: 0
  convolution_param {
    num_output: 320
    pad: 1
    kernel_size: 3
    weight_filler {
      type: "xavier"
      std: 0.03
    }
    bias_filler {
      type: "constant"
      value: 0.2
    }
  }
}
layers {
  bottom: "inception_4e/3x3"
  top: "inception_4e/3x3"
  name: "inception_4e/relu_3x3"
  type: RELU
}
layers {
  bottom: "inception_4d/output"
  top: "inception_4e/5x5_reduce"
…
I0403 07:28:37.936000 14231 net.cpp:356] inception_4b/output_inception_4b/output_0_split -> inception_4b/output_inception_4b/output_0_split_3
I0403 07:28:37.936007 14231 net.cpp:96] Setting up inception_4b/output_inception_4b/output_0_split
I0403 07:28:37.936018 14231 net.cpp:103] Top shape: 32 512 14 14 (3211264)
I0403 07:28:37.936023 14231 net.cpp:103] Top shape: 32 512 14 14 (3211264)
I0403 07:28:37.936027 14231 net.cpp:103] Top shape: 32 512 14 14 (3211264)
I0403 07:28:37.936029 14231 net.cpp:103] Top shape: 32 512 14 14 (3211264)
I0403 07:28:37.936035 14231 net.cpp:113] Memory required for data: 1371170440
I0403 07:28:37.936048 14231 net.cpp:67] Creating Layer inception_4c/1x1
I0403 07:28:37.936054 14231 net.cpp:394] inception_4c/1x1 <- inception_4b/output_inception_4b/output_0_split_0
I0403 07:28:37.936070 14231 net.cpp:356] inception_4c/1x1 -> inception_4c/1x1
I0403 07:28:37.936084 14231 net.cpp:96] Setting up inception_4c/1x1
I0403 07:28:37.940173 14231 net.cpp:103] Top shape: 32 128 14 14 (802816)
I0403 07:28:37.940188 14231 net.cpp:113] Memory required for data: 1374381704
I0403 07:28:37.940201 14231 net.cpp:67] Creating Layer inception_4c/relu_1x1
I0403 07:28:37.940207 14231 net.cpp:394] inception_4c/relu_1x1 <- inception_4c/1x1
I0403 07:28:37.940219 14231 net.cpp:345] inception_4c/relu_1x1 -> inception_4c/1x1 (in-place)
I0403 07:28:37.940228 14231 net.cpp:96] Setting up inception_4c/relu_1x1
I0403 07:28:37.940232 14231 net.cpp:103] Top shape: 32 128 14 14 (802816)
I0403 07:28:37.940235 14231 net.cpp:113] Memory required for data: 1377592968
I0403 07:28:37.940244 14231 net.cpp:67] Creating Layer inception_4c/3x3_reduce
I0403 07:28:37.940249 14231 net.cpp:394] inception_4c/3x3_reduce <- inception_4b/output_inception_4b/output_0_split_1
I0403 07:28:37.940263 14231 net.cpp:356] inception_4c/3x3_reduce -> inception_4c/3x3_reduce
I0403 07:28:37.940273 14231 net.cpp:96] Setting up inception_4c/3x3_reduce
I0403 07:28:37.944355 14231 net.cpp:103] Top shape: 32 128 14 14 (802816)
I0403 07:28:37.944370 14231 net.cpp:113] Memory required for data: 1380804232
I0403 07:28:37.944385 14231 net.cpp:67] Creating Layer inception_4c/relu_3x3_reduce
I0403 07:28:37.944391 14231 net.cpp:394] inception_4c/relu_3x3_reduce <- inception_4c/3x3_reduce
I0403 07:28:37.944401 14231 net.cpp:345] inception_4c/relu_3x3_reduce -> inception_4c/3x3_reduce (in-place)
I0403 07:28:37.944408 14231 net.cpp:96] Setting up inception_4c/relu_3x3_reduce
I0403 07:28:37.944413 14231 net.cpp:103] Top shape: 32 128 14 14 (802816)
I0403 07:28:37.944416 14231 net.cpp:113] Memory required for data: 1384015496
I0403 07:28:37.944428 14231 net.cpp:67] Creating Layer inception_4c/3x3
I0403 07:28:37.944434 14231 net.cpp:394] inception_4c/3x3 <- inception_4c/3x3_reduce
I0403 07:28:37.944444 14231 net.cpp:356] inception_4c/3x3 -> inception_4c/3x3
I0403 07:28:37.944453 14231 net.cpp:96] Setting up inception_4c/3x3
I0403 07:28:37.962692 14231 net.cpp:103] Top shape: 32 256 14 14 (1605632)
I0403 07:28:37.962708 14231 net.cpp:113] Memory required for data: 1390438024
I0403 07:28:37.962743 14231 net.cpp:67] Creating Layer inception_4c/relu_3x3
I0403 07:28:37.962752 14231 net.cpp:394] inception_4c/relu_3x3 <- inception_4c/3x3
I0403 07:28:37.962762 14231 net.cpp:345] inception_4c/relu_3x3 -> inception_4c/3x3 (in-place)
I0403 07:28:37.962770 14231 net.cpp:96] Setting up inception_4c/relu_3x3
I0403 07:28:37.962775 14231 net.cpp:103] Top shape: 32 256 14 14 (1605632)
I0403 07:28:37.962779 14231 net.cpp:113] Memory required for data: 1396860552
I0403 07:28:37.962793 14231 net.cpp:67] Creating Layer inception_4c/5x5_reduce
I0403 07:28:37.962798 14231 net.cpp:394] inception_4c/5x5_reduce <- inception_4b/output_inception_4b/output_0_split_2
I0403 07:28:37.962810 14231 net.cpp:356] inception_4c/5x5_reduce -> inception_4c/5x5_reduce
I0403 07:28:37.962820 14231 net.cpp:96] Setting up inception_4c/5x5_reduce
I0403 07:28:37.963624 14231 net.cpp:103] Top shape: 32 24 14 14 (150528)
I0403 07:28:37.963639 14231 net.cpp:113] Memory required for data: 1397462664
I0403 07:28:37.963651 14231 net.cpp:67] Creating Layer inception_4c/relu_5x5_reduce
I0403 07:28:37.963657 14231 net.cpp:394] inception_4c/relu_5x5_reduce <- inception_4c/5x5_reduce
I0403 07:28:37.963666 14231 net.cpp:345] inception_4c/relu_5x5_reduce -> inception_4c/5x5_reduce (in-place)
I0403 07:28:37.963675 14231 net.cpp:96] Setting up inception_4c/relu_5x5_reduce
I0403 07:28:37.963680 14231 net.cpp:103] Top shape: 32 24 14 14 (150528)
I0403 07:28:37.963682 14231 net.cpp:113] Memory required for data: 1398064776
I0403 07:28:37.963693 14231 net.cpp:67] Creating Layer inception_4c/5x5
I0403 07:28:37.963699 14231 net.cpp:394] inception_4c/5x5 <- inception_4c/5x5_reduce
I0403 07:28:37.963709 14231 net.cpp:356] inception_4c/5x5 -> inception_4c/5x5
I0403 07:28:37.963726 14231 net.cpp:96] Setting up inception_4c/5x5
I0403 07:28:37.966135 14231 net.cpp:103] Top shape: 32 64 14 14 (401408)
I0403 07:28:37.966150 14231 net.cpp:113] Memory required for data: 1399670408
I0403 07:28:37.966162 14231 net.cpp:67] Creating Layer inception_4c/relu_5x5
I0403 07:28:37.966168 14231 net.cpp:394] inception_4c/relu_5x5 <- inception_4c/5x5
I0403 07:28:37.966181 14231 net.cpp:345] inception_4c/relu_5x5 -> inception_4c/5x5 (in-place)
I0403 07:28:37.966189 14231 net.cpp:96] Setting up inception_4c/relu_5x5
I0403 07:28:37.966193 14231 net.cpp:103] Top shape: 32 64 14 14 (401408)
I0403 07:28:37.966197 14231 net.cpp:113] Memory required for data: 1401276040
I0403 07:28:37.966204 14231 net.cpp:67] Creating Layer inception_4c/pool
I0403 07:28:37.966209 14231 net.cpp:394] inception_4c/pool <- inception_4b/output_inception_4b/output_0_split_3
I0403 07:28:37.966219 14231 net.cpp:356] inception_4c/pool -> inception_4c/pool
I0403 07:28:37.966228 14231 net.cpp:96] Setting up inception_4c/pool
I0403 07:28:37.966235 14231 net.cpp:103] Top shape: 32 512 14 14 (3211264)
I0403 07:28:37.966239 14231 net.cpp:113] Memory required for data: 1414121096
I0403 07:28:37.966249 14231 net.cpp:67] Creating Layer inception_4c/pool_proj
I0403 07:28:37.966255 14231 net.cpp:394] inception_4c/pool_proj <- inception_4c/pool
I0403 07:28:37.966265 14231 net.cpp:356] inception_4c/pool_proj -> inception_4c/pool_proj
I0403 07:28:37.966276 14231 net.cpp:96] Setting up inception_4c/pool_proj
I0403 07:28:37.968344 14231 net.cpp:103] Top shape: 32 64 14 14 (401408)
I0403 07:28:37.968359 14231 net.cpp:113] Memory required for data: 1415726728
I0403 07:28:37.968374 14231 net.cpp:67] Creating Layer inception_4c/relu_pool_proj
I0403 07:28:37.968380 14231 net.cpp:394] inception_4c/relu_pool_proj <- inception_4c/pool_proj
I0403 07:28:37.968390 14231 net.cpp:345] inception_4c/relu_pool_proj -> inception_4c/pool_proj (in-place)
I0403 07:28:37.968399 14231 net.cpp:96] Setting up inception_4c/relu_pool_proj
I0403 07:28:37.968403 14231 net.cpp:103] Top shape: 32 64 14 14 (401408)
I0403 07:28:37.968406 14231 net.cpp:113] Memory required for data: 1417332360
I0403 07:28:37.968412 14231 net.cpp:67] Creating Layer inception_4c/output
I0403 07:28:37.968417 14231 net.cpp:394] inception_4c/output <- inception_4c/1x1
I0403 07:28:37.968425 14231 net.cpp:394] inception_4c/output <- inception_4c/3x3
I0403 07:28:37.968430 14231 net.cpp:394] inception_4c/output <- inception_4c/5x5
I0403 07:28:37.968436 14231 net.cpp:394] inception_4c/output <- inception_4c/pool_proj
I0403 07:28:37.968446 14231 net.cpp:356] inception_4c/output -> inception_4c/output
I0403 07:28:37.968454 14231 net.cpp:96] Setting up inception_4c/output
I0403 07:28:37.968461 14231 net.cpp:103] Top shape: 32 512 14 14 (3211264)
I0403 07:28:37.968463 14231 net.cpp:113] Memory required for data: 1430177416
I0403 07:28:37.968473 14231 net.cpp:67] Creating Layer inception_4c/output_inception_4c/output_0_split
I0403 07:28:37.968478 14231 net.cpp:394] inception_4c/output_inception_4c/output_0_split <- inception_4c/output
I0403 07:28:37.968490 14231 net.cpp:356] inception_4c/output_inception_4c/output_0_split -> inception_4c/output_inception_4c/output_0_split_0
I0403 07:28:37.968507 14231 net.cpp:356] inception_4c/output_inception_4c/output_0_split -> inception_4c/output_inception_4c/output_0_split_1
I0403 07:28:37.968516 14231 net.cpp:356] inception_4c/output_inception_4c/output_0_split -> inception_4c/output_inception_4c/output_0_split_2
I0403 07:28:37.968528 14231 net.cpp:356] inception_4c/output_inception_4c/output_0_split -> inception_4c/output_inception_4c/output_0_split_3
I0403 07:28:37.968544 14231 net.cpp:96] Setting up inception_4c/output_inception_4c/output_0_split
I0403 07:28:37.968551 14231 net.cpp:103] Top shape: 32 512 14 14 (3211264)
I0403 07:28:37.968554 14231 net.cpp:103] Top shape: 32 512 14 14 (3211264)
I0403 07:28:37.968559 14231 net.cpp:103] Top shape: 32 512 14 14 (3211264)
I0403 07:28:37.968561 14231 net.cpp:103] Top shape: 32 512 14 14 (3211264)
I0403 07:28:37.968564 14231 net.cpp:113] Memory required for data: 1481557640
I0403 07:28:37.968575 14231 net.cpp:67] Creating Layer inception_4d/1x1
I0403 07:28:37.968580 14231 net.cpp:394] inception_4d/1x1 <- inception_4c/output_inception_4c/output_0_split_0
I0403 07:28:37.968601 14231 net.cpp:356] inception_4d/1x1 -> inception_4d/1x1
I0403 07:28:37.968616 14231 net.cpp:96] Setting up inception_4d/1x1
I0403 07:28:37.972214 14231 net.cpp:103] Top shape: 32 112 14 14 (702464)
I0403 07:28:37.972229 14231 net.cpp:113] Memory required for data: 1484367496
I0403 07:28:37.972242 14231 net.cpp:67] Creating Layer inception_4d/relu_1x1
I0403 07:28:37.972249 14231 net.cpp:394] inception_4d/relu_1x1 <- inception_4d/1x1
I0403 07:28:37.972259 14231 net.cpp:345] inception_4d/relu_1x1 -> inception_4d/1x1 (in-place)
I0403 07:28:37.972266 14231 net.cpp:96] Setting up inception_4d/relu_1x1
I0403 07:28:37.972270 14231 net.cpp:103] Top shape: 32 112 14 14 (702464)
I0403 07:28:37.972275 14231 net.cpp:113] Memory required for data: 1487177352
I0403 07:28:37.972285 14231 net.cpp:67] Creating Layer inception_4d/3x3_reduce
I0403 07:28:37.972291 14231 net.cpp:394] inception_4d/3x3_reduce <- inception_4c/output_inception_4c/output_0_split_1
I0403 07:28:37.972301 14231 net.cpp:356] inception_4d/3x3_reduce -> inception_4d/3x3_reduce
I0403 07:28:37.972311 14231 net.cpp:96] Setting up inception_4d/3x3_reduce
I0403 07:28:37.976922 14231 net.cpp:103] Top shape: 32 144 14 14 (903168)
I0403 07:28:37.976938 14231 net.cpp:113] Memory required for data: 1490790024
I0403 07:28:37.976953 14231 net.cpp:67] Creating Layer inception_4d/relu_3x3_reduce
I0403 07:28:37.976959 14231 net.cpp:394] inception_4d/relu_3x3_reduce <- inception_4d/3x3_reduce
I0403 07:28:37.976971 14231 net.cpp:345] inception_4d/relu_3x3_reduce -> inception_4d/3x3_reduce (in-place)
I0403 07:28:37.976986 14231 net.cpp:96] Setting up inception_4d/relu_3x3_reduce
I0403 07:28:37.976991 14231 net.cpp:103] Top shape: 32 144 14 14 (903168)
I0403 07:28:37.976994 14231 net.cpp:113] Memory required for data: 1494402696
I0403 07:28:37.977005 14231 net.cpp:67] Creating Layer inception_4d/3x3
I0403 07:28:37.977008 14231 net.cpp:394] inception_4d/3x3 <- inception_4d/3x3_reduce
I0403 07:28:37.977022 14231 net.cpp:356] inception_4d/3x3 -> inception_4d/3x3
I0403 07:28:37.977032 14231 net.cpp:96] Setting up inception_4d/3x3
I0403 07:28:38.000159 14231 net.cpp:103] Top shape: 32 288 14 14 (1806336)
I0403 07:28:38.000174 14231 net.cpp:113] Memory required for data: 1501628040
I0403 07:28:38.000188 14231 net.cpp:67] Creating Layer inception_4d/relu_3x3
I0403 07:28:38.000195 14231 net.cpp:394] inception_4d/relu_3x3 <- inception_4d/3x3
I0403 07:28:38.000206 14231 net.cpp:345] inception_4d/relu_3x3 -> inception_4d/3x3 (in-place)
I0403 07:28:38.000215 14231 net.cpp:96] Setting up inception_4d/relu_3x3
I0403 07:28:38.000219 14231 net.cpp:103] Top shape: 32 288 14 14 (1806336)
I0403 07:28:38.000223 14231 net.cpp:113] Memory required for data: 1508853384
I0403 07:28:38.000232 14231 net.cpp:67] Creating Layer inception_4d/5x5_reduce
I0403 07:28:38.000237 14231 net.cpp:394] inception_4d/5x5_reduce <- inception_4c/output_inception_4c/output_0_split_2
I0403 07:28:38.000248 14231 net.cpp:356] inception_4d/5x5_reduce -> inception_4d/5x5_reduce
I0403 07:28:38.000257 14231 net.cpp:96] Setting up inception_4d/5x5_reduce
I0403 07:28:38.001301 14231 net.cpp:103] Top shape: 32 32 14 14 (200704)
I0403 07:28:38.001315 14231 net.cpp:113] Memory required for data: 1509656200
I0403 07:28:38.001330 14231 net.cpp:67] Creating Layer inception_4d/relu_5x5_reduce
I0403 07:28:38.001337 14231 net.cpp:394] inception_4d/relu_5x5_reduce <- inception_4d/5x5_reduce
I0403 07:28:38.001346 14231 net.cpp:345] inception_4d/relu_5x5_reduce -> inception_4d/5x5_reduce (in-place)
I0403 07:28:38.001354 14231 net.cpp:96] Setting up inception_4d/relu_5x5_reduce
I0403 07:28:38.001358 14231 net.cpp:103] Top shape: 32 32 14 14 (200704)
I0403 07:28:38.001363 14231 net.cpp:113] Memory required for data: 1510459016
I0403 07:28:38.001370 14231 net.cpp:67] Creating Layer inception_4d/5x5
I0403 07:28:38.001375 14231 net.cpp:394] inception_4d/5x5 <- inception_4d/5x5_reduce
I0403 07:28:38.001389 14231 net.cpp:356] inception_4d/5x5 -> inception_4d/5x5
I0403 07:28:38.001400 14231 net.cpp:96] Setting up inception_4d/5x5
I0403 07:28:38.004606 14231 net.cpp:103] Top shape: 32 64 14 14 (401408)
I0403 07:28:38.004621 14231 net.cpp:113] Memory required for data: 1512064648
I0403 07:28:38.004634 14231 net.cpp:67] Creating Layer inception_4d/relu_5x5
I0403 07:28:38.004640 14231 net.cpp:394] inception_4d/relu_5x5 <- inception_4d/5x5
I0403 07:28:38.004649 14231 net.cpp:345] inception_4d/relu_5x5 -> inception_4d/5x5 (in-place)
I0403 07:28:38.004657 14231 net.cpp:96] Setting up inception_4d/relu_5x5
I0403 07:28:38.004662 14231 net.cpp:103] Top shape: 32 64 14 14 (401408)
I0403 07:28:38.004665 14231 net.cpp:113] Memory required for data: 1513670280
I0403 07:28:38.004673 14231 net.cpp:67] Creating Layer inception_4d/pool
I0403 07:28:38.004678 14231 net.cpp:394] inception_4d/pool <- inception_4c/output_inception_4c/output_0_split_3
I0403 07:28:38.004689 14231 net.cpp:356] inception_4d/pool -> inception_4d/pool
I0403 07:28:38.004698 14231 net.cpp:96] Setting up inception_4d/pool
I0403 07:28:38.004706 14231 net.cpp:103] Top shape: 32 512 14 14 (3211264)
I0403 07:28:38.004709 14231 net.cpp:113] Memory required for data: 1526515336
I0403 07:28:38.004719 14231 net.cpp:67] Creating Layer inception_4d/pool_proj
I0403 07:28:38.004724 14231 net.cpp:394] inception_4d/pool_proj <- inception_4d/pool
I0403 07:28:38.004737 14231 net.cpp:356] inception_4d/pool_proj -> inception_4d/pool_proj
I0403 07:28:38.004747 14231 net.cpp:96] Setting up inception_4d/pool_proj
I0403 07:28:38.006803 14231 net.cpp:103] Top shape: 32 64 14 14 (401408)
I0403 07:28:38.006817 14231 net.cpp:113] Memory required for data: 1528120968
I0403 07:28:38.006830 14231 net.cpp:67] Creating Layer inception_4d/relu_pool_proj
I0403 07:28:38.006836 14231 net.cpp:394] inception_4d/relu_pool_proj <- inception_4d/pool_proj
I0403 07:28:38.006845 14231 net.cpp:345] inception_4d/relu_pool_proj -> inception_4d/pool_proj (in-place)
I0403 07:28:38.006853 14231 net.cpp:96] Setting up inception_4d/relu_pool_proj
I0403 07:28:38.006857 14231 net.cpp:103] Top shape: 32 64 14 14 (401408)
I0403 07:28:38.006860 14231 net.cpp:113] Memory required for data: 1529726600
I0403 07:28:38.006870 14231 net.cpp:67] Creating Layer inception_4d/output
I0403 07:28:38.006875 14231 net.cpp:394] inception_4d/output <- inception_4d/1x1
I0403 07:28:38.006882 14231 net.cpp:394] inception_4d/output <- inception_4d/3x3
I0403 07:28:38.006888 14231 net.cpp:394] inception_4d/output <- inception_4d/5x5
I0403 07:28:38.006894 14231 net.cpp:394] inception_4d/output <- inception_4d/pool_proj
I0403 07:28:38.006901 14231 net.cpp:356] inception_4d/output -> inception_4d/output
I0403 07:28:38.006909 14231 net.cpp:96] Setting up inception_4d/output
I0403 07:28:38.006916 14231 net.cpp:103] Top shape: 32 528 14 14 (3311616)
I0403 07:28:38.006921 14231 net.cpp:113] Memory required for data: 1542973064
I0403 07:28:38.006928 14231 net.cpp:67] Creating Layer inception_4d/output_inception_4d/output_0_split
I0403 07:28:38.006933 14231 net.cpp:394] inception_4d/output_inception_4d/output_0_split <- inception_4d/output
I0403 07:28:38.006949 14231 net.cpp:356] inception_4d/output_inception_4d/output_0_split -> inception_4d/output_inception_4d/output_0_split_0
I0403 07:28:38.006960 14231 net.cpp:356] inception_4d/output_inception_4d/output_0_split -> inception_4d/output_inception_4d/output_0_split_1
I0403 07:28:38.006970 14231 net.cpp:356] inception_4d/output_inception_4d/output_0_split -> inception_4d/output_inception_4d/output_0_split_2
I0403 07:28:38.006980 14231 net.cpp:356] inception_4d/output_inception_4d/output_0_split -> inception_4d/output_inception_4d/output_0_split_3
I0403 07:28:38.006989 14231 net.cpp:356] inception_4d/output_inception_4d/output_0_split -> inception_4d/output_inception_4d/output_0_split_4
I0403 07:28:38.006996 14231 net.cpp:96] Setting up inception_4d/output_inception_4d/output_0_split
I0403 07:28:38.007004 14231 net.cpp:103] Top shape: 32 528 14 14 (3311616)
I0403 07:28:38.007006 14231 net.cpp:103] Top shape: 32 528 14 14 (3311616)
I0403 07:28:38.007010 14231 net.cpp:103] Top shape: 32 528 14 14 (3311616)
I0403 07:28:38.007014 14231 net.cpp:103] Top shape: 32 528 14 14 (3311616)
I0403 07:28:38.007017 14231 net.cpp:103] Top shape: 32 528 14 14 (3311616)
I0403 07:28:38.007020 14231 net.cpp:113] Memory required for data: 1609205384
I0403 07:28:38.007031 14231 net.cpp:67] Creating Layer loss2/ave_pool
I0403 07:28:38.007036 14231 net.cpp:394] loss2/ave_pool <- inception_4d/output_inception_4d/output_0_split_0
I0403 07:28:38.007045 14231 net.cpp:356] loss2/ave_pool -> loss2/ave_pool
I0403 07:28:38.007055 14231 net.cpp:96] Setting up loss2/ave_pool
I0403 07:28:38.007061 14231 net.cpp:103] Top shape: 32 528 4 4 (270336)
I0403 07:28:38.007064 14231 net.cpp:113] Memory required for data: 1610286728
I0403 07:28:38.007072 14231 net.cpp:67] Creating Layer loss2/conv
I0403 07:28:38.007077 14231 net.cpp:394] loss2/conv <- loss2/ave_pool
I0403 07:28:38.007091 14231 net.cpp:356] loss2/conv -> loss2/conv
I0403 07:28:38.007100 14231 net.cpp:96] Setting up loss2/conv
I0403 07:28:38.011318 14231 net.cpp:103] Top shape: 32 128 4 4 (65536)
I0403 07:28:38.011332 14231 net.cpp:113] Memory required for data: 1610548872
I0403 07:28:38.011345 14231 net.cpp:67] Creating Layer loss2/relu_conv
I0403 07:28:38.011351 14231 net.cpp:394] loss2/relu_conv <- loss2/conv
I0403 07:28:38.011361 14231 net.cpp:345] loss2/relu_conv -> loss2/conv (in-place)
I0403 07:28:38.011368 14231 net.cpp:96] Setting up loss2/relu_conv
I0403 07:28:38.011373 14231 net.cpp:103] Top shape: 32 128 4 4 (65536)
I0403 07:28:38.011376 14231 net.cpp:113] Memory required for data: 1610811016
I0403 07:28:38.011389 14231 net.cpp:67] Creating Layer loss2/fc
I0403 07:28:38.011394 14231 net.cpp:394] loss2/fc <- loss2/conv
I0403 07:28:38.011404 14231 net.cpp:356] loss2/fc -> loss2/fc
I0403 07:28:38.011414 14231 net.cpp:96] Setting up loss2/fc
I0403 07:28:38.141739 14231 net.cpp:103] Top shape: 32 1024 1 1 (32768)
I0403 07:28:38.141767 14231 net.cpp:113] Memory required for data: 1610942088
I0403 07:28:38.141791 14231 net.cpp:67] Creating Layer loss2/relu_fc
I0403 07:28:38.141800 14231 net.cpp:394] loss2/relu_fc <- loss2/fc
I0403 07:28:38.141815 14231 net.cpp:345] loss2/relu_fc -> loss2/fc (in-place)
I0403 07:28:38.141832 14231 net.cpp:96] Setting up loss2/relu_fc
I0403 07:28:38.141837 14231 net.cpp:103] Top shape: 32 1024 1 1 (32768)
I0403 07:28:38.141840 14231 net.cpp:113] Memory required for data: 1611073160
I0403 07:28:38.141849 14231 net.cpp:67] Creating Layer loss2/drop_fc
I0403 07:28:38.141854 14231 net.cpp:394] loss2/drop_fc <- loss2/fc
I0403 07:28:38.141866 14231 net.cpp:345] loss2/drop_fc -> loss2/fc (in-place)
I0403 07:28:38.141875 14231 net.cpp:96] Setting up loss2/drop_fc
I0403 07:28:38.141881 14231 net.cpp:103] Top shape: 32 1024 1 1 (32768)
I0403 07:28:38.141885 14231 net.cpp:113] Memory required for data: 1611204232
I0403 07:28:38.141894 14231 net.cpp:67] Creating Layer fd_loss2/classifier
I0403 07:28:38.141898 14231 net.cpp:394] fd_loss2/classifier <- loss2/fc
I0403 07:28:38.141912 14231 net.cpp:356] fd_loss2/classifier -> fd_loss2/classifier
I0403 07:28:38.141923 14231 net.cpp:96] Setting up fd_loss2/classifier
I0403 07:28:38.142079 14231 net.cpp:103] Top shape: 32 2 1 1 (64)
I0403 07:28:38.142093 14231 net.cpp:113] Memory required for data: 1611204488
I0403 07:28:38.142107 14231 net.cpp:67] Creating Layer fd_loss2/classifier_fd_loss2/classifier_0_split
I0403 07:28:38.142112 14231 net.cpp:394] fd_loss2/classifier_fd_loss2/classifier_0_split <- fd_loss2/classifier
I0403 07:28:38.142122 14231 net.cpp:356] fd_loss2/classifier_fd_loss2/classifier_0_split -> fd_loss2/classifier_fd_loss2/classifier_0_split_0
I0403 07:28:38.142137 14231 net.cpp:356] fd_loss2/classifier_fd_loss2/classifier_0_split -> fd_loss2/classifier_fd_loss2/classifier_0_split_1
I0403 07:28:38.142148 14231 net.cpp:96] Setting up fd_loss2/classifier_fd_loss2/classifier_0_split
I0403 07:28:38.142154 14231 net.cpp:103] Top shape: 32 2 1 1 (64)
I0403 07:28:38.142158 14231 net.cpp:103] Top shape: 32 2 1 1 (64)
I0403 07:28:38.142161 14231 net.cpp:113] Memory required for data: 1611205000
I0403 07:28:38.142174 14231 net.cpp:67] Creating Layer loss2/loss
I0403 07:28:38.142179 14231 net.cpp:394] loss2/loss <- fd_loss2/classifier_fd_loss2/classifier_0_split_0
I0403 07:28:38.142186 14231 net.cpp:394] loss2/loss <- label_data_1_split_2
I0403 07:28:38.142195 14231 net.cpp:356] loss2/loss -> loss2/loss1
I0403 07:28:38.142204 14231 net.cpp:96] Setting up loss2/loss
I0403 07:28:38.142216 14231 net.cpp:103] Top shape: 1 1 1 1 (1)
I0403 07:28:38.142223 14231 net.cpp:109]     with loss weight 0.3
I0403 07:28:38.142242 14231 net.cpp:113] Memory required for data: 1611205004
I0403 07:28:38.142256 14231 net.cpp:67] Creating Layer loss2/top-1
I0403 07:28:38.142263 14231 net.cpp:394] loss2/top-1 <- fd_loss2/classifier_fd_loss2/classifier_0_split_1
I0403 07:28:38.142274 14231 net.cpp:394] loss2/top-1 <- label_data_1_split_3
I0403 07:28:38.142287 14231 net.cpp:356] loss2/top-1 -> loss2/top-1
I0403 07:28:38.142299 14231 net.cpp:96] Setting up loss2/top-1
I0403 07:28:38.142309 14231 net.cpp:103] Top shape: 1 1 1 1 (1)
I0403 07:28:38.142313 14231 net.cpp:113] Memory required for data: 1611205008
I0403 07:28:38.142328 14231 net.cpp:67] Creating Layer inception_4e/1x1
I0403 07:28:38.142335 14231 net.cpp:394] inception_4e/1x1 <- inception_4d/output_inception_4d/output_0_split_1
I0403 07:28:38.142348 14231 net.cpp:356] inception_4e/1x1 -> inception_4e/1x1
I0403 07:28:38.142360 14231 net.cpp:96] Setting up inception_4e/1x1
I0403 07:28:38.150756 14231 net.cpp:103] Top shape: 32 256 14 14 (1605632)
I0403 07:28:38.150774 14231 net.cpp:113] Memory required for data: 1617627536
I0403 07:28:38.150791 14231 net.cpp:67] Creating Layer inception_4e/relu_1x1
I0403 07:28:38.150797 14231 net.cpp:394] inception_4e/relu_1x1 <- inception_4e/1x1
I0403 07:28:38.150807 14231 net.cpp:345] inception_4e/relu_1x1 -> inception_4e/1x1 (in-place)
I0403 07:28:38.150815 14231 net.cpp:96] Setting up inception_4e/relu_1x1
I0403 07:28:38.150820 14231 net.cpp:103] Top shape: 32 256 14 14 (1605632)
I0403 07:28:38.150823 14231 net.cpp:113] Memory required for data: 1624050064
I0403 07:28:38.150832 14231 net.cpp:67] Creating Layer inception_4e/3x3_reduce
I0403 07:28:38.150836 14231 net.cpp:394] inception_4e/3x3_reduce <- inception_4d/output_inception_4d/output_0_split_2
I0403 07:28:38.150851 14231 net.cpp:356] inception_4e/3x3_reduce -> inception_4e/3x3_reduce
I0403 07:28:38.150864 14231 net.cpp:96] Setting up inception_4e/3x3_reduce
I0403 07:28:38.156136 14231 net.cpp:103] Top shape: 32 160 14 14 (1003520)
I0403 07:28:38.156152 14231 net.cpp:113] Memory required for data: 1628064144
I0403 07:28:38.156164 14231 net.cpp:67] Creating Layer inception_4e/relu_3x3_reduce
I0403 07:28:38.156172 14231 net.cpp:394] inception_4e/relu_3x3_reduce <- inception_4e/3x3_reduce
I0403 07:28:38.156183 14231 net.cpp:345] inception_4e/relu_3x3_reduce -> inception_4e/3x3_reduce (in-place)
I0403 07:28:38.156193 14231 net.cpp:96] Setting up inception_4e/relu_3x3_reduce
I0403 07:28:38.156196 14231 net.cpp:103] Top shape: 32 160 14 14 (1003520)
I0403 07:28:38.156200 14231 net.cpp:113] Memory required for data: 1632078224
I0403 07:28:38.156244 14231 net.cpp:67] Creating Layer inception_4e/3x3
I0403 07:28:38.156257 14231 net.cpp:394] inception_4e/3x3 <- inception_4e/3x3_reduce
I0403 07:28:38.156270 14231 net.cpp:356] inception_4e/3x3 -> inception_4e/3x3
I0403 07:28:38.156287 14231 net.cpp:96] Setting up inception_4e/3x3
I0403 07:28:38.184800 14231 net.cpp:103] Top shape: 32 320 14 14 (2007040)
I0403 07:28:38.184815 14231 net.cpp:113] Memory required for data: 1640106384
I0403 07:28:38.184834 14231 net.cpp:67] Creating Layer inception_4e/relu_3x3
I0403 07:28:38.184840 14231 net.cpp:394] inception_4e/relu_3x3 <- inception_4e/3x3
I0403 07:28:38.184852 14231 net.cpp:345] inception_4e/relu_3x3 -> inception_4e/3x3 (in-place)
I0403 07:28:38.184864 14231 net.cpp:96] Setting up inception_4e/relu_3x3
I0403 07:28:38.184869 14231 net.cpp:103] Top shape: 32 320 14 14 (2007040)
I0403 07:28:38.184871 14231 net.cpp:113] Memory required for data: 1648134544
I0403 07:28:38.184881 14231 net.cpp:67] Creating Layer inception_4e/5x5_reduce
I0403 07:28:38.184886 14231 net.cpp:394] inception_4e/5x5_reduce <- inception_4d/output_inception_4d/output_0_split_3
I0403 07:28:38.184900 14231 net.cpp:356] inception_4e/5x5_reduce -> inception_4e/5x5_reduce
I0403 07:28:38.184911 14231 net.cpp:96] Setting up inception_4e/5x5_reduce
I0403 07:28:38.185984 14231 net.cpp:103] Top shape: 32 32 14 14 (200704)
I0403 07:28:38.185998 14231 net.cpp:113] Memory required for data: 1648937360
I0403 07:28:38.186013 14231 net.cpp:67] Creating Layer inception_4e/relu_5x5_reduce
I0403 07:28:38.186020 14231 net.cpp:394] inception_4e/relu_5x5_reduce <- inception_4e/5x5_reduce
I0403 07:28:38.186029 14231 net.cpp:345] inception_4e/relu_5x5_reduce -> inception_4e/5x5_reduce (in-place)
I0403 07:28:38.186045 14231 net.cpp:96] Setting up inception_4e/relu_5x5_reduce
I0403 07:28:38.186050 14231 net.cpp:103] Top shape: 32 32 14 14 (200704)
I0403 07:28:38.186053 14231 net.cpp:113] Memory required for data: 1649740176
I0403 07:28:38.186065 14231 net.cpp:67] Creating Layer inception_4e/5x5
I0403 07:28:38.186070 14231 net.cpp:394] inception_4e/5x5 <- inception_4e/5x5_reduce
I0403 07:28:38.186081 14231 net.cpp:356] inception_4e/5x5 -> inception_4e/5x5
I0403 07:28:38.186090 14231 net.cpp:96] Setting up inception_4e/5x5
I0403 07:28:38.192461 14231 net.cpp:103] Top shape: 32 128 14 14 (802816)
I0403 07:28:38.192477 14231 net.cpp:113] Memory required for data: 1652951440
I0403 07:28:38.192489 14231 net.cpp:67] Creating Layer inception_4e/relu_5x5
I0403 07:28:38.192497 14231 net.cpp:394] inception_4e/relu_5x5 <- inception_4e/5x5
I0403 07:28:38.192508 14231 net.cpp:345] inception_4e/relu_5x5 -> inception_4e/5x5 (in-place)
I0403 07:28:38.192517 14231 net.cpp:96] Setting up inception_4e/relu_5x5
I0403 07:28:38.192528 14231 net.cpp:103] Top shape: 32 128 14 14 (802816)
I0403 07:28:38.192531 14231 net.cpp:113] Memory required for data: 1656162704
I0403 07:28:38.192540 14231 net.cpp:67] Creating Layer inception_4e/pool
I0403 07:28:38.192545 14231 net.cpp:394] inception_4e/pool <- inception_4d/output_inception_4d/output_0_split_4
I0403 07:28:38.192555 14231 net.cpp:356] inception_4e/pool -> inception_4e/pool
I0403 07:28:38.192564 14231 net.cpp:96] Setting up inception_4e/pool
I0403 07:28:38.192574 14231 net.cpp:103] Top shape: 32 528 14 14 (3311616)
I0403 07:28:38.192577 14231 net.cpp:113] Memory required for data: 1669409168
I0403 07:28:38.192594 14231 net.cpp:67] Creating Layer inception_4e/pool_proj
I0403 07:28:38.192602 14231 net.cpp:394] inception_4e/pool_proj <- inception_4e/pool
I0403 07:28:38.192618 14231 net.cpp:356] inception_4e/pool_proj -> inception_4e/pool_proj
I0403 07:28:38.192630 14231 net.cpp:96] Setting up inception_4e/pool_proj
I0403 07:28:38.196878 14231 net.cpp:103] Top shape: 32 128 14 14 (802816)
I0403 07:28:38.196893 14231 net.cpp:113] Memory required for data: 1672620432
I0403 07:28:38.196909 14231 net.cpp:67] Creating Layer inception_4e/relu_pool_proj
I0403 07:28:38.196915 14231 net.cpp:394] inception_4e/relu_pool_proj <- inception_4e/pool_proj
I0403 07:28:38.196925 14231 net.cpp:345] inception_4e/relu_pool_proj -> inception_4e/pool_proj (in-place)
I0403 07:28:38.196933 14231 net.cpp:96] Setting up inception_4e/relu_pool_proj
I0403 07:28:38.196938 14231 net.cpp:103] Top shape: 32 128 14 14 (802816)
I0403 07:28:38.196941 14231 net.cpp:113] Memory required for data: 1675831696
I0403 07:28:38.196948 14231 net.cpp:67] Creating Layer inception_4e/output
I0403 07:28:38.196952 14231 net.cpp:394] inception_4e/output <- inception_4e/1x1
I0403 07:28:38.196960 14231 net.cpp:394] inception_4e/output <- inception_4e/3x3
I0403 07:28:38.196966 14231 net.cpp:394] inception_4e/output <- inception_4e/5x5
I0403 07:28:38.196974 14231 net.cpp:394] inception_4e/output <- inception_4e/pool_proj
I0403 07:28:38.196982 14231 net.cpp:356] inception_4e/output -> inception_4e/output
I0403 07:28:38.196991 14231 net.cpp:96] Setting up inception_4e/output
I0403 07:28:38.196997 14231 net.cpp:103] Top shape: 32 832 14 14 (5218304)
I0403 07:28:38.197001 14231 net.cpp:113] Memory required for data: 1696704912
I0403 07:28:38.197008 14231 net.cpp:67] Creating Layer pool4/3x3_s2
I0403 07:28:38.197013 14231 net.cpp:394] pool4/3x3_s2 <- inception_4e/output
I0403 07:28:38.197026 14231 net.cpp:356] pool4/3x3_s2 -> pool4/3x3_s2
I0403 07:28:38.197041 14231 net.cpp:96] Setting up pool4/3x3_s2
I0403 07:28:38.197052 14231 net.cpp:103] Top shape: 32 832 7 7 (1304576)
I0403 07:28:38.197057 14231 net.cpp:113] Memory required for data: 1701923216
I0403 07:28:38.197067 14231 net.cpp:67] Creating Layer pool4/3x3_s2_pool4/3x3_s2_0_split
I0403 07:28:38.197077 14231 net.cpp:394] pool4/3x3_s2_pool4/3x3_s2_0_split <- pool4/3x3_s2
I0403 07:28:38.197088 14231 net.cpp:356] pool4/3x3_s2_pool4/3x3_s2_0_split -> pool4/3x3_s2_pool4/3x3_s2_0_split_0
I0403 07:28:38.197098 14231 net.cpp:356] pool4/3x3_s2_pool4/3x3_s2_0_split -> pool4/3x3_s2_pool4/3x3_s2_0_split_1
I0403 07:28:38.197108 14231 net.cpp:356] pool4/3x3_s2_pool4/3x3_s2_0_split -> pool4/3x3_s2_pool4/3x3_s2_0_split_2
I0403 07:28:38.197118 14231 net.cpp:356] pool4/3x3_s2_pool4/3x3_s2_0_split -> pool4/3x3_s2_pool4/3x3_s2_0_split_3
I0403 07:28:38.197127 14231 net.cpp:96] Setting up pool4/3x3_s2_pool4/3x3_s2_0_split
I0403 07:28:38.197139 14231 net.cpp:103] Top shape: 32 832 7 7 (1304576)
I0403 07:28:38.197142 14231 net.cpp:103] Top shape: 32 832 7 7 (1304576)
I0403 07:28:38.197147 14231 net.cpp:103] Top shape: 32 832 7 7 (1304576)
I0403 07:28:38.197154 14231 net.cpp:103] Top shape: 32 832 7 7 (1304576)
I0403 07:28:38.197157 14231 net.cpp:113] Memory required for data: 1722796432
I0403 07:28:38.197172 14231 net.cpp:67] Creating Layer inception_5a/1x1
I0403 07:28:38.197182 14231 net.cpp:394] inception_5a/1x1 <- pool4/3x3_s2_pool4/3x3_s2_0_split_0
I0403 07:28:38.197198 14231 net.cpp:356] inception_5a/1x1 -> inception_5a/1x1
I0403 07:28:38.197209 14231 net.cpp:96] Setting up inception_5a/1x1
I0403 07:28:38.210418 14231 net.cpp:103] Top shape: 32 256 7 7 (401408)
I0403 07:28:38.210433 14231 net.cpp:113] Memory required for data: 1724402064
I0403 07:28:38.210446 14231 net.cpp:67] Creating Layer inception_5a/relu_1x1
I0403 07:28:38.210453 14231 net.cpp:394] inception_5a/relu_1x1 <- inception_5a/1x1
I0403 07:28:38.210463 14231 net.cpp:345] inception_5a/relu_1x1 -> inception_5a/1x1 (in-place)
I0403 07:28:38.210470 14231 net.cpp:96] Setting up inception_5a/relu_1x1
I0403 07:28:38.210474 14231 net.cpp:103] Top shape: 32 256 7 7 (401408)
I0403 07:28:38.210479 14231 net.cpp:113] Memory required for data: 1726007696
I0403 07:28:38.210487 14231 net.cpp:67] Creating Layer inception_5a/3x3_reduce
I0403 07:28:38.210492 14231 net.cpp:394] inception_5a/3x3_reduce <- pool4/3x3_s2_pool4/3x3_s2_0_split_1
I0403 07:28:38.210508 14231 net.cpp:356] inception_5a/3x3_reduce -> inception_5a/3x3_reduce
I0403 07:28:38.210522 14231 net.cpp:96] Setting up inception_5a/3x3_reduce
I0403 07:28:38.218866 14231 net.cpp:103] Top shape: 32 160 7 7 (250880)
I0403 07:28:38.218883 14231 net.cpp:113] Memory required for data: 1727011216
I0403 07:28:38.218896 14231 net.cpp:67] Creating Layer inception_5a/relu_3x3_reduce
I0403 07:28:38.218902 14231 net.cpp:394] inception_5a/relu_3x3_reduce <- inception_5a/3x3_reduce
I0403 07:28:38.218915 14231 net.cpp:345] inception_5a/relu_3x3_reduce -> inception_5a/3x3_reduce (in-place)
I0403 07:28:38.218924 14231 net.cpp:96] Setting up inception_5a/relu_3x3_reduce
I0403 07:28:38.218935 14231 net.cpp:103] Top shape: 32 160 7 7 (250880)
I0403 07:28:38.218938 14231 net.cpp:113] Memory required for data: 1728014736
I0403 07:28:38.218950 14231 net.cpp:67] Creating Layer inception_5a/3x3
I0403 07:28:38.218956 14231 net.cpp:394] inception_5a/3x3 <- inception_5a/3x3_reduce
I0403 07:28:38.218967 14231 net.cpp:356] inception_5a/3x3 -> inception_5a/3x3
I0403 07:28:38.218977 14231 net.cpp:96] Setting up inception_5a/3x3
I0403 07:28:38.247488 14231 net.cpp:103] Top shape: 32 320 7 7 (501760)
I0403 07:28:38.247504 14231 net.cpp:113] Memory required for data: 1730021776
I0403 07:28:38.247519 14231 net.cpp:67] Creating Layer inception_5a/relu_3x3
I0403 07:28:38.247524 14231 net.cpp:394] inception_5a/relu_3x3 <- inception_5a/3x3
I0403 07:28:38.247536 14231 net.cpp:345] inception_5a/relu_3x3 -> inception_5a/3x3 (in-place)
I0403 07:28:38.247545 14231 net.cpp:96] Setting up inception_5a/relu_3x3
I0403 07:28:38.247550 14231 net.cpp:103] Top shape: 32 320 7 7 (501760)
I0403 07:28:38.247553 14231 net.cpp:113] Memory required for data: 1732028816
I0403 07:28:38.247563 14231 net.cpp:67] Creating Layer inception_5a/5x5_reduce
I0403 07:28:38.247576 14231 net.cpp:394] inception_5a/5x5_reduce <- pool4/3x3_s2_pool4/3x3_s2_0_split_2
I0403 07:28:38.247591 14231 net.cpp:356] inception_5a/5x5_reduce -> inception_5a/5x5_reduce
I0403 07:28:38.247602 14231 net.cpp:96] Setting up inception_5a/5x5_reduce
I0403 07:28:38.249280 14231 net.cpp:103] Top shape: 32 32 7 7 (50176)
I0403 07:28:38.249295 14231 net.cpp:113] Memory required for data: 1732229520
I0403 07:28:38.249312 14231 net.cpp:67] Creating Layer inception_5a/relu_5x5_reduce
I0403 07:28:38.249320 14231 net.cpp:394] inception_5a/relu_5x5_reduce <- inception_5a/5x5_reduce
I0403 07:28:38.249328 14231 net.cpp:345] inception_5a/relu_5x5_reduce -> inception_5a/5x5_reduce (in-place)
I0403 07:28:38.249346 14231 net.cpp:96] Setting up inception_5a/relu_5x5_reduce
I0403 07:28:38.249351 14231 net.cpp:103] Top shape: 32 32 7 7 (50176)
I0403 07:28:38.249354 14231 net.cpp:113] Memory required for data: 1732430224
I0403 07:28:38.249363 14231 net.cpp:67] Creating Layer inception_5a/5x5
I0403 07:28:38.249368 14231 net.cpp:394] inception_5a/5x5 <- inception_5a/5x5_reduce
I0403 07:28:38.249382 14231 net.cpp:356] inception_5a/5x5 -> inception_5a/5x5
I0403 07:28:38.249392 14231 net.cpp:96] Setting up inception_5a/5x5
I0403 07:28:38.255763 14231 net.cpp:103] Top shape: 32 128 7 7 (200704)
I0403 07:28:38.255777 14231 net.cpp:113] Memory required for data: 1733233040
I0403 07:28:38.255792 14231 net.cpp:67] Creating Layer inception_5a/relu_5x5
I0403 07:28:38.255798 14231 net.cpp:394] inception_5a/relu_5x5 <- inception_5a/5x5
I0403 07:28:38.255808 14231 net.cpp:345] inception_5a/relu_5x5 -> inception_5a/5x5 (in-place)
I0403 07:28:38.255816 14231 net.cpp:96] Setting up inception_5a/relu_5x5
I0403 07:28:38.255821 14231 net.cpp:103] Top shape: 32 128 7 7 (200704)
I0403 07:28:38.255825 14231 net.cpp:113] Memory required for data: 1734035856
I0403 07:28:38.255834 14231 net.cpp:67] Creating Layer inception_5a/pool
I0403 07:28:38.255841 14231 net.cpp:394] inception_5a/pool <- pool4/3x3_s2_pool4/3x3_s2_0_split_3
I0403 07:28:38.255851 14231 net.cpp:356] inception_5a/pool -> inception_5a/pool
I0403 07:28:38.255897 14231 net.cpp:96] Setting up inception_5a/pool
I0403 07:28:38.255920 14231 net.cpp:103] Top shape: 32 832 7 7 (1304576)
I0403 07:28:38.255926 14231 net.cpp:113] Memory required for data: 1739254160
I0403 07:28:38.255939 14231 net.cpp:67] Creating Layer inception_5a/pool_proj
I0403 07:28:38.255944 14231 net.cpp:394] inception_5a/pool_proj <- inception_5a/pool
I0403 07:28:38.255959 14231 net.cpp:356] inception_5a/pool_proj -> inception_5a/pool_proj
I0403 07:28:38.255975 14231 net.cpp:96] Setting up inception_5a/pool_proj
I0403 07:28:38.262583 14231 net.cpp:103] Top shape: 32 128 7 7 (200704)
I0403 07:28:38.262598 14231 net.cpp:113] Memory required for data: 1740056976
I0403 07:28:38.262614 14231 net.cpp:67] Creating Layer inception_5a/relu_pool_proj
I0403 07:28:38.262619 14231 net.cpp:394] inception_5a/relu_pool_proj <- inception_5a/pool_proj
I0403 07:28:38.262629 14231 net.cpp:345] inception_5a/relu_pool_proj -> inception_5a/pool_proj (in-place)
I0403 07:28:38.262637 14231 net.cpp:96] Setting up inception_5a/relu_pool_proj
I0403 07:28:38.262642 14231 net.cpp:103] Top shape: 32 128 7 7 (200704)
I0403 07:28:38.262645 14231 net.cpp:113] Memory required for data: 1740859792
I0403 07:28:38.262651 14231 net.cpp:67] Creating Layer inception_5a/output
I0403 07:28:38.262656 14231 net.cpp:394] inception_5a/output <- inception_5a/1x1
I0403 07:28:38.262665 14231 net.cpp:394] inception_5a/output <- inception_5a/3x3
I0403 07:28:38.262670 14231 net.cpp:394] inception_5a/output <- inception_5a/5x5
I0403 07:28:38.262676 14231 net.cpp:394] inception_5a/output <- inception_5a/pool_proj
I0403 07:28:38.262683 14231 net.cpp:356] inception_5a/output -> inception_5a/output
I0403 07:28:38.262691 14231 net.cpp:96] Setting up inception_5a/output
I0403 07:28:38.262697 14231 net.cpp:103] Top shape: 32 832 7 7 (1304576)
I0403 07:28:38.262701 14231 net.cpp:113] Memory required for data: 1746078096
I0403 07:28:38.262711 14231 net.cpp:67] Creating Layer inception_5a/output_inception_5a/output_0_split
I0403 07:28:38.262715 14231 net.cpp:394] inception_5a/output_inception_5a/output_0_split <- inception_5a/output
I0403 07:28:38.262727 14231 net.cpp:356] inception_5a/output_inception_5a/output_0_split -> inception_5a/output_inception_5a/output_0_split_0
I0403 07:28:38.262744 14231 net.cpp:356] inception_5a/output_inception_5a/output_0_split -> inception_5a/output_inception_5a/output_0_split_1
I0403 07:28:38.262759 14231 net.cpp:356] inception_5a/output_inception_5a/output_0_split -> inception_5a/output_inception_5a/output_0_split_2
I0403 07:28:38.262776 14231 net.cpp:356] inception_5a/output_inception_5a/output_0_split -> inception_5a/output_inception_5a/output_0_split_3
I0403 07:28:38.262786 14231 net.cpp:96] Setting up inception_5a/output_inception_5a/output_0_split
I0403 07:28:38.262796 14231 net.cpp:103] Top shape: 32 832 7 7 (1304576)
I0403 07:28:38.262801 14231 net.cpp:103] Top shape: 32 832 7 7 (1304576)
I0403 07:28:38.262804 14231 net.cpp:103] Top shape: 32 832 7 7 (1304576)
I0403 07:28:38.262811 14231 net.cpp:103] Top shape: 32 832 7 7 (1304576)
I0403 07:28:38.262816 14231 net.cpp:113] Memory required for data: 1766951312
I0403 07:28:38.262830 14231 net.cpp:67] Creating Layer inception_5b/1x1
I0403 07:28:38.262837 14231 net.cpp:394] inception_5b/1x1 <- inception_5a/output_inception_5a/output_0_split_0
I0403 07:28:38.262857 14231 net.cpp:356] inception_5b/1x1 -> inception_5b/1x1
I0403 07:28:38.262873 14231 net.cpp:96] Setting up inception_5b/1x1
I0403 07:28:38.282665 14231 net.cpp:103] Top shape: 32 384 7 7 (602112)
I0403 07:28:38.282681 14231 net.cpp:113] Memory required for data: 1769359760
I0403 07:28:38.282696 14231 net.cpp:67] Creating Layer inception_5b/relu_1x1
I0403 07:28:38.282701 14231 net.cpp:394] inception_5b/relu_1x1 <- inception_5b/1x1
I0403 07:28:38.282711 14231 net.cpp:345] inception_5b/relu_1x1 -> inception_5b/1x1 (in-place)
I0403 07:28:38.282719 14231 net.cpp:96] Setting up inception_5b/relu_1x1
I0403 07:28:38.282724 14231 net.cpp:103] Top shape: 32 384 7 7 (602112)
I0403 07:28:38.282727 14231 net.cpp:113] Memory required for data: 1771768208
I0403 07:28:38.282739 14231 net.cpp:67] Creating Layer inception_5b/3x3_reduce
I0403 07:28:38.282744 14231 net.cpp:394] inception_5b/3x3_reduce <- inception_5a/output_inception_5a/output_0_split_1
I0403 07:28:38.282758 14231 net.cpp:356] inception_5b/3x3_reduce -> inception_5b/3x3_reduce
I0403 07:28:38.282768 14231 net.cpp:96] Setting up inception_5b/3x3_reduce
I0403 07:28:38.292671 14231 net.cpp:103] Top shape: 32 192 7 7 (301056)
I0403 07:28:38.292686 14231 net.cpp:113] Memory required for data: 1772972432
I0403 07:28:38.292701 14231 net.cpp:67] Creating Layer inception_5b/relu_3x3_reduce
I0403 07:28:38.292706 14231 net.cpp:394] inception_5b/relu_3x3_reduce <- inception_5b/3x3_reduce
I0403 07:28:38.292719 14231 net.cpp:345] inception_5b/relu_3x3_reduce -> inception_5b/3x3_reduce (in-place)
I0403 07:28:38.292727 14231 net.cpp:96] Setting up inception_5b/relu_3x3_reduce
I0403 07:28:38.292732 14231 net.cpp:103] Top shape: 32 192 7 7 (301056)
I0403 07:28:38.292736 14231 net.cpp:113] Memory required for data: 1774176656
I0403 07:28:38.292744 14231 net.cpp:67] Creating Layer inception_5b/3x3
I0403 07:28:38.292752 14231 net.cpp:394] inception_5b/3x3 <- inception_5b/3x3_reduce
I0403 07:28:38.292765 14231 net.cpp:356] inception_5b/3x3 -> inception_5b/3x3
I0403 07:28:38.292778 14231 net.cpp:96] Setting up inception_5b/3x3
I0403 07:28:38.335414 14231 net.cpp:103] Top shape: 32 384 7 7 (602112)
I0403 07:28:38.335433 14231 net.cpp:113] Memory required for data: 1776585104
I0403 07:28:38.335449 14231 net.cpp:67] Creating Layer inception_5b/relu_3x3
I0403 07:28:38.335458 14231 net.cpp:394] inception_5b/relu_3x3 <- inception_5b/3x3
I0403 07:28:38.335471 14231 net.cpp:345] inception_5b/relu_3x3 -> inception_5b/3x3 (in-place)
I0403 07:28:38.335481 14231 net.cpp:96] Setting up inception_5b/relu_3x3
I0403 07:28:38.335492 14231 net.cpp:103] Top shape: 32 384 7 7 (602112)
I0403 07:28:38.335496 14231 net.cpp:113] Memory required for data: 1778993552
I0403 07:28:38.335507 14231 net.cpp:67] Creating Layer inception_5b/5x5_reduce
I0403 07:28:38.335513 14231 net.cpp:394] inception_5b/5x5_reduce <- inception_5a/output_inception_5a/output_0_split_2
I0403 07:28:38.335525 14231 net.cpp:356] inception_5b/5x5_reduce -> inception_5b/5x5_reduce
I0403 07:28:38.335535 14231 net.cpp:96] Setting up inception_5b/5x5_reduce
I0403 07:28:38.338027 14231 net.cpp:103] Top shape: 32 48 7 7 (75264)
I0403 07:28:38.338043 14231 net.cpp:113] Memory required for data: 1779294608
I0403 07:28:38.338057 14231 net.cpp:67] Creating Layer inception_5b/relu_5x5_reduce
I0403 07:28:38.338063 14231 net.cpp:394] inception_5b/relu_5x5_reduce <- inception_5b/5x5_reduce
I0403 07:28:38.338075 14231 net.cpp:345] inception_5b/relu_5x5_reduce -> inception_5b/5x5_reduce (in-place)
I0403 07:28:38.338083 14231 net.cpp:96] Setting up inception_5b/relu_5x5_reduce
I0403 07:28:38.338088 14231 net.cpp:103] Top shape: 32 48 7 7 (75264)
I0403 07:28:38.338091 14231 net.cpp:113] Memory required for data: 1779595664
I0403 07:28:38.338101 14231 net.cpp:67] Creating Layer inception_5b/5x5
I0403 07:28:38.338105 14231 net.cpp:394] inception_5b/5x5 <- inception_5b/5x5_reduce
I0403 07:28:38.338116 14231 net.cpp:356] inception_5b/5x5 -> inception_5b/5x5
I0403 07:28:38.338134 14231 net.cpp:96] Setting up inception_5b/5x5
I0403 07:28:38.347669 14231 net.cpp:103] Top shape: 32 128 7 7 (200704)
I0403 07:28:38.347684 14231 net.cpp:113] Memory required for data: 1780398480
I0403 07:28:38.347700 14231 net.cpp:67] Creating Layer inception_5b/relu_5x5
I0403 07:28:38.347709 14231 net.cpp:394] inception_5b/relu_5x5 <- inception_5b/5x5
I0403 07:28:38.347719 14231 net.cpp:345] inception_5b/relu_5x5 -> inception_5b/5x5 (in-place)
I0403 07:28:38.347728 14231 net.cpp:96] Setting up inception_5b/relu_5x5
I0403 07:28:38.347738 14231 net.cpp:103] Top shape: 32 128 7 7 (200704)
I0403 07:28:38.347743 14231 net.cpp:113] Memory required for data: 1781201296
I0403 07:28:38.347751 14231 net.cpp:67] Creating Layer inception_5b/pool
I0403 07:28:38.347756 14231 net.cpp:394] inception_5b/pool <- inception_5a/output_inception_5a/output_0_split_3
I0403 07:28:38.347766 14231 net.cpp:356] inception_5b/pool -> inception_5b/pool
I0403 07:28:38.347775 14231 net.cpp:96] Setting up inception_5b/pool
I0403 07:28:38.347784 14231 net.cpp:103] Top shape: 32 832 7 7 (1304576)
I0403 07:28:38.347790 14231 net.cpp:113] Memory required for data: 1786419600
I0403 07:28:38.347808 14231 net.cpp:67] Creating Layer inception_5b/pool_proj
I0403 07:28:38.347827 14231 net.cpp:394] inception_5b/pool_proj <- inception_5b/pool
I0403 07:28:38.347853 14231 net.cpp:356] inception_5b/pool_proj -> inception_5b/pool_proj
I0403 07:28:38.347875 14231 net.cpp:96] Setting up inception_5b/pool_proj
I0403 07:28:38.354503 14231 net.cpp:103] Top shape: 32 128 7 7 (200704)
I0403 07:28:38.354519 14231 net.cpp:113] Memory required for data: 1787222416
I0403 07:28:38.354533 14231 net.cpp:67] Creating Layer inception_5b/relu_pool_proj
I0403 07:28:38.354539 14231 net.cpp:394] inception_5b/relu_pool_proj <- inception_5b/pool_proj
I0403 07:28:38.354552 14231 net.cpp:345] inception_5b/relu_pool_proj -> inception_5b/pool_proj (in-place)
I0403 07:28:38.354569 14231 net.cpp:96] Setting up inception_5b/relu_pool_proj
I0403 07:28:38.354574 14231 net.cpp:103] Top shape: 32 128 7 7 (200704)
I0403 07:28:38.354578 14231 net.cpp:113] Memory required for data: 1788025232
I0403 07:28:38.354585 14231 net.cpp:67] Creating Layer inception_5b/output
I0403 07:28:38.354590 14231 net.cpp:394] inception_5b/output <- inception_5b/1x1
I0403 07:28:38.354598 14231 net.cpp:394] inception_5b/output <- inception_5b/3x3
I0403 07:28:38.354604 14231 net.cpp:394] inception_5b/output <- inception_5b/5x5
I0403 07:28:38.354610 14231 net.cpp:394] inception_5b/output <- inception_5b/pool_proj
I0403 07:28:38.354620 14231 net.cpp:356] inception_5b/output -> inception_5b/output
I0403 07:28:38.354629 14231 net.cpp:96] Setting up inception_5b/output
I0403 07:28:38.354635 14231 net.cpp:103] Top shape: 32 1024 7 7 (1605632)
I0403 07:28:38.354640 14231 net.cpp:113] Memory required for data: 1794447760
I0403 07:28:38.354648 14231 net.cpp:67] Creating Layer pool5/7x7_s1
I0403 07:28:38.354657 14231 net.cpp:394] pool5/7x7_s1 <- inception_5b/output
I0403 07:28:38.354673 14231 net.cpp:356] pool5/7x7_s1 -> pool5/7x7_s1
I0403 07:28:38.354684 14231 net.cpp:96] Setting up pool5/7x7_s1
I0403 07:28:38.354691 14231 net.cpp:103] Top shape: 32 1024 1 1 (32768)
I0403 07:28:38.354697 14231 net.cpp:113] Memory required for data: 1794578832
I0403 07:28:38.354708 14231 net.cpp:67] Creating Layer pool5/drop_7x7_s1
I0403 07:28:38.354713 14231 net.cpp:394] pool5/drop_7x7_s1 <- pool5/7x7_s1
I0403 07:28:38.354725 14231 net.cpp:345] pool5/drop_7x7_s1 -> pool5/7x7_s1 (in-place)
I0403 07:28:38.354734 14231 net.cpp:96] Setting up pool5/drop_7x7_s1
I0403 07:28:38.354739 14231 net.cpp:103] Top shape: 32 1024 1 1 (32768)
I0403 07:28:38.354743 14231 net.cpp:113] Memory required for data: 1794709904
I0403 07:28:38.354755 14231 net.cpp:67] Creating Layer fd_loss3/classifier
I0403 07:28:38.354761 14231 net.cpp:394] fd_loss3/classifier <- pool5/7x7_s1
I0403 07:28:38.354781 14231 net.cpp:356] fd_loss3/classifier -> fd_loss3/classifier
I0403 07:28:38.354797 14231 net.cpp:96] Setting up fd_loss3/classifier
I0403 07:28:38.354956 14231 net.cpp:103] Top shape: 32 2 1 1 (64)
I0403 07:28:38.354970 14231 net.cpp:113] Memory required for data: 1794710160
I0403 07:28:38.354984 14231 net.cpp:67] Creating Layer fd_loss3/classifier_fd_loss3/classifier_0_split
I0403 07:28:38.354989 14231 net.cpp:394] fd_loss3/classifier_fd_loss3/classifier_0_split <- fd_loss3/classifier
I0403 07:28:38.355002 14231 net.cpp:356] fd_loss3/classifier_fd_loss3/classifier_0_split -> fd_loss3/classifier_fd_loss3/classifier_0_split_0
I0403 07:28:38.355020 14231 net.cpp:356] fd_loss3/classifier_fd_loss3/classifier_0_split -> fd_loss3/classifier_fd_loss3/classifier_0_split_1
I0403 07:28:38.355029 14231 net.cpp:96] Setting up fd_loss3/classifier_fd_loss3/classifier_0_split
I0403 07:28:38.355036 14231 net.cpp:103] Top shape: 32 2 1 1 (64)
I0403 07:28:38.355039 14231 net.cpp:103] Top shape: 32 2 1 1 (64)
I0403 07:28:38.355043 14231 net.cpp:113] Memory required for data: 1794710672
I0403 07:28:38.355059 14231 net.cpp:67] Creating Layer loss3/loss3
I0403 07:28:38.355067 14231 net.cpp:394] loss3/loss3 <- fd_loss3/classifier_fd_loss3/classifier_0_split_0
I0403 07:28:38.355075 14231 net.cpp:394] loss3/loss3 <- label_data_1_split_4
I0403 07:28:38.355084 14231 net.cpp:356] loss3/loss3 -> loss3/loss3
I0403 07:28:38.355093 14231 net.cpp:96] Setting up loss3/loss3
I0403 07:28:38.355104 14231 net.cpp:103] Top shape: 1 1 1 1 (1)
I0403 07:28:38.355108 14231 net.cpp:109]     with loss weight 1
I0403 07:28:38.355123 14231 net.cpp:113] Memory required for data: 1794710676
I0403 07:28:38.355139 14231 net.cpp:67] Creating Layer loss3/top-1
I0403 07:28:38.355156 14231 net.cpp:394] loss3/top-1 <- fd_loss3/classifier_fd_loss3/classifier_0_split_1
I0403 07:28:38.355167 14231 net.cpp:394] loss3/top-1 <- label_data_1_split_5
I0403 07:28:38.355181 14231 net.cpp:356] loss3/top-1 -> loss3/top-1
I0403 07:28:38.355197 14231 net.cpp:96] Setting up loss3/top-1
I0403 07:28:38.355206 14231 net.cpp:103] Top shape: 1 1 1 1 (1)
I0403 07:28:38.355211 14231 net.cpp:113] Memory required for data: 1794710680
I0403 07:28:38.355214 14231 net.cpp:172] loss3/top-1 does not need backward computation.
I0403 07:28:38.355218 14231 net.cpp:170] loss3/loss3 needs backward computation.
I0403 07:28:38.355238 14231 net.cpp:170] fd_loss3/classifier_fd_loss3/classifier_0_split needs backward computation.
I0403 07:28:38.355247 14231 net.cpp:170] fd_loss3/classifier needs backward computation.
…
