…
I0414 08:08:58.814934   669 net.cpp:275] The NetState phase (0) differed from the phase (1) specified by a rule in layer loss3/top-1
I0414 08:08:58.816001   669 net.cpp:39] Initializing net from parameters: 
name: "fd_GoogleNet"
layers {
  top: "data"
  top: "label"
  name: "data"
  type: DATA
  data_param {
    source: "/mnt_data/yilin_guo/data/food_detection/train_data/"
    batch_size: 32
    backend: LMDB
  }
  include {
    phase: TRAIN
  }
  transform_param {
    mirror: true
    crop_size: 160
    mean_file: "/mnt_data/yilin_guo/caffe/examples/food_detection/googleNet/imagenet_mean.binaryproto"
  }
}
layers {
  bottom: "data"
  top: "conv1/7x7_s2"
  name: "conv1/7x7_s2"
  type: CONVOLUTION
  blobs_lr: 1
  blobs_lr: 2
  weight_decay: 1
  weight_decay: 0
  convolution_param {
    num_output: 64
    pad: 3
    kernel_size: 7
    stride: 2
    weight_filler {
      type: "xavier"
      std: 0.1
    }
    bias_filler {
      type: "constant"
      value: 0.2
    }
  }
}
layers {
  bottom: "conv1/7x7_s2"
  top: "conv1/7x7_s2"
  name: "conv1/relu_7x7"
  type: RELU
}
layers {
  bottom: "conv1/7x7_s2"
  top: "pool1/3x3_s2"
  name: "pool1/3x3_s2"
  type: POOLING
  pooling_param {
    pool: MAX
    kernel_size: 3
    stride: 2
  }
}
layers {
  bottom: "pool1/3x3_s2"
  top: "pool1/norm1"
  name: "pool1/norm1"
  type: LRN
  lrn_param {
    local_size: 5
    alpha: 0.0001
    beta: 0.75
  }
}
layers {
  bottom: "pool1/norm1"
  top: "conv2/3x3_reduce"
  name: "conv2/3x3_reduce"
  type: CONVOLUTION
  blobs_lr: 1
  blobs_lr: 2
  weight_decay: 1
  weight_decay: 0
  convolution_param {
    num_output: 64
    kernel_size: 1
    weight_filler {
      type: "xavier"
      std: 0.1
    }
    bias_filler {
      type: "constant"
      value: 0.2
    }
  }
}
layers {
  bottom: "conv2/3x3_reduce"
  top: "conv2/3x3_reduce"
  name: "conv2/relu_3x3_reduce"
  type: RELU
}
layers {
  bottom: "conv2/3x3_reduce"
  top: "conv2/3x3"
  name: "conv2/3x3"
  type: CONVOLUTION
  blobs_lr: 1
  blobs_lr: 2
  weight_decay: 1
  weight_decay: 0
  convolution_param {
    num_output: 192
    pad: 1
    kernel_size: 3
    weight_filler {
      type: "xavier"
      std: 0.03
    }
    bias_filler {
      type: "constant"
      value: 0.2
    }
  }
}
layers {
  bottom: "conv2/3x3"
  top: "conv2/3x3"
  name: "conv2/relu_3x3"
  type: RELU
}
layers {
  bottom: "conv2/3x3"
  top: "conv2/norm2"
  name: "conv2/norm2"
  type: LRN
  lrn_param {
    local_size: 5
    alpha: 0.0001
    beta: 0.75
  }
}
layers {
  bottom: "conv2/norm2"
  top: "pool2/3x3_s2"
  name: "pool2/3x3_s2"
  type: POOLING
  pooling_param {
    pool: MAX
    kernel_size: 3
    stride: 2
  }
}
layers {
  bottom: "pool2/3x3_s2"
  top: "inception_3a/1x1"
  name: "inception_3a/1x1"
  type: CONVOLUTION
  blobs_lr: 1
  blobs_lr: 2
  weight_decay: 1
  weight_decay: 0
  convolution_param {
    num_output: 64
    kernel_size: 1
    weight_filler {
      type: "xavier"
      std: 0.03
    }
    bias_filler {
      type: "constant"
      value: 0.2
    }
  }
}
layers {
  bottom: "inception_3a/1x1"
  top: "inception_3a/1x1"
  name: "inception_3a/relu_1x1"
  type: RELU
}
layers {
  bottom: "pool2/3x3_s2"
  top: "inception_3a/3x3_reduce"
  name: "inception_3a/3x3_reduce"
  type: CONVOLUTION
  blobs_lr: 1
  blobs_lr: 2
  weight_decay: 1
  weight_decay: 0
  convolution_param {
    num_output: 96
    kernel_size: 1
    weight_filler {
      type: "xavier"
      std: 0.09
    }
    bias_filler {
      type: "constant"
      value: 0.2
    }
  }
}
layers {
  bottom: "inception_3a/3x3_reduce"
  top: "inception_3a/3x3_reduce"
  name: "inception_3a/relu_3x3_reduce"
  type: RELU
}
layers {
  bottom: "inception_3a/3x3_reduce"
  top: "inception_3a/3x3"
  name: "inception_3a/3x3"
  type: CONVOLUTION
  blobs_lr: 1
  blobs_lr: 2
  weight_decay: 1
  weight_decay: 0
  convolution_param {
    num_output: 128
    pad: 1
    kernel_size: 3
    weight_filler {
      type: "xavier"
      std: 0.03
    }
    bias_filler {
      type: "constant"
      value: 0.2
    }
  }
}
layers {
  bottom: "inception_3a/3x3"
  top: "inception_3a/3x3"
  name: "inception_3a/relu_3x3"
  type: RELU
}
layers {
  bottom: "pool2/3x3_s2"
  top: "inception_3a/5x5_reduce"
  name: "inception_3a/5x5_reduce"
  type: CONVOLUTION
  blobs_lr: 1
  blobs_lr: 2
  weight_decay: 1
  weight_decay: 0
  convolution_param {
    num_output: 16
    kernel_size: 1
    weight_filler {
      type: "xavier"
      std: 0.2
    }
    bias_filler {
      type: "constant"
      value: 0.2
    }
  }
}
layers {
  bottom: "inception_3a/5x5_reduce"
  top: "inception_3a/5x5_reduce"
  name: "inception_3a/relu_5x5_reduce"
  type: RELU
}
layers {
  bottom: "inception_3a/5x5_reduce"
  top: "inception_3a/5x5"
  name: "inception_3a/5x5"
  type: CONVOLUTION
  blobs_lr: 1
  blobs_lr: 2
  weight_decay: 1
  weight_decay: 0
  convolution_param {
    num_output: 32
    pad: 2
    kernel_size: 5
    weight_filler {
      type: "xavier"
      std: 0.03
    }
    bias_filler {
      type: "constant"
      value: 0.2
    }
  }
}
layers {
  bottom: "inception_3a/5x5"
  top: "inception_3a/5x5"
  name: "inception_3a/relu_5x5"
  type: RELU
}
layers {
  bottom: "pool2/3x3_s2"
  top: "inception_3a/pool"
  name: "inception_3a/pool"
  type: POOLING
  pooling_param {
    pool: MAX
    kernel_size: 3
    stride: 1
    pad: 1
  }
}
layers {
  bottom: "inception_3a/pool"
  top: "inception_3a/pool_proj"
  name: "inception_3a/pool_proj"
  type: CONVOLUTION
  blobs_lr: 1
  blobs_lr: 2
  weight_decay: 1
  weight_decay: 0
  convolution_param {
    num_output: 32
    kernel_size: 1
    weight_filler {
      type: "xavier"
      std: 0.1
    }
    bias_filler {
      type: "constant"
      value: 0.2
    }
  }
}
layers {
  bottom: "inception_3a/pool_proj"
  top: "inception_3a/pool_proj"
  name: "inception_3a/relu_pool_proj"
  type: RELU
}
layers {
  bottom: "inception_3a/1x1"
  bottom: "inception_3a/3x3"
  bottom: "inception_3a/5x5"
  bottom: "inception_3a/pool_proj"
  top: "inception_3a/output"
  name: "inception_3a/output"
  type: CONCAT
}
layers {
  bottom: "inception_3a/output"
  top: "inception_3b/1x1"
  name: "inception_3b/1x1"
  type: CONVOLUTION
  blobs_lr: 1
  blobs_lr: 2
  weight_decay: 1
  weight_decay: 0
  convolution_param {
    num_output: 128
    kernel_size: 1
    weight_filler {
      type: "xavier"
      std: 0.03
    }
    bias_filler {
      type: "constant"
      value: 0.2
    }
  }
}
layers {
  bottom: "inception_3b/1x1"
  top: "inception_3b/1x1"
  name: "inception_3b/relu_1x1"
  type: RELU
}
layers {
  bottom: "inception_3a/output"
  top: "inception_3b/3x3_reduce"
  name: "inception_3b/3x3_reduce"
  type: CONVOLUTION
  blobs_lr: 1
  blobs_lr: 2
  weight_decay: 1
  weight_decay: 0
  convolution_param {
    num_output: 128
    kernel_size: 1
    weight_filler {
      type: "xavier"
      std: 0.09
    }
    bias_filler {
      type: "constant"
      value: 0.2
    }
  }
}
layers {
  bottom: "inception_3b/3x3_reduce"
  top: "inception_3b/3x3_reduce"
  name: "inception_3b/relu_3x3_reduce"
  type: RELU
}
layers {
  bottom: "inception_3b/3x3_reduce"
  top: "inception_3b/3x3"
  name: "inception_3b/3x3"
  type: CONVOLUTION
  blobs_lr: 1
  blobs_lr: 2
  weight_decay: 1
  weight_decay: 0
  convolution_param {
    num_output: 192
    pad: 1
    kernel_size: 3
    weight_filler {
      type: "xavier"
      std: 0.03
    }
    bias_filler {
      type: "constant"
      value: 0.2
    }
  }
}
layers {
  bottom: "inception_3b/3x3"
  top: "inception_3b/3x3"
  name: "inception_3b/relu_3x3"
  type: RELU
}
layers {
  bottom: "inception_3a/output"
  top: "inception_3b/5x5_reduce"
  name: "inception_3b/5x5_reduce"
  type: CONVOLUTION
  blobs_lr: 1
  blobs_lr: 2
  weight_decay: 1
  weight_decay: 0
  convolution_param {
    num_output: 32
    kernel_size: 1
    weight_filler {
      type: "xavier"
      std: 0.2
    }
    bias_filler {
      type: "constant"
      value: 0.2
    }
  }
}
layers {
  bottom: "inception_3b/5x5_reduce"
  top: "inception_3b/5x5_reduce"
  name: "inception_3b/relu_5x5_reduce"
  type: RELU
}
layers {
  bottom: "inception_3b/5x5_reduce"
  top: "inception_3b/5x5"
  name: "inception_3b/5x5"
  type: CONVOLUTION
  blobs_lr: 1
  blobs_lr: 2
  weight_decay: 1
  weight_decay: 0
  convolution_param {
    num_output: 96
    pad: 2
    kernel_size: 5
    weight_filler {
      type: "xavier"
      std: 0.03
    }
    bias_filler {
      type: "constant"
      value: 0.2
    }
  }
}
layers {
  bottom: "inception_3b/5x5"
  top: "inception_3b/5x5"
  name: "inception_3b/relu_5x5"
  type: RELU
}
layers {
  bottom: "inception_3a/output"
  top: "inception_3b/pool"
  name: "inception_3b/pool"
  type: POOLING
  pooling_param {
    pool: MAX
    kernel_size: 3
    stride: 1
    pad: 1
  }
}
layers {
  bottom: "inception_3b/pool"
  top: "inception_3b/pool_proj"
  name: "inception_3b/pool_proj"
  type: CONVOLUTION
  blobs_lr: 1
  blobs_lr: 2
  weight_decay: 1
  weight_decay: 0
  convolution_param {
    num_output: 64
    kernel_size: 1
    weight_filler {
      type: "xavier"
      std: 0.1
    }
    bias_filler {
      type: "constant"
      value: 0.2
    }
  }
}
layers {
  bottom: "inception_3b/pool_proj"
  top: "inception_3b/pool_proj"
  name: "inception_3b/relu_pool_proj"
  type: RELU
}
layers {
  bottom: "inception_3b/1x1"
  bottom: "inception_3b/3x3"
  bottom: "inception_3b/5x5"
  bottom: "inception_3b/pool_proj"
  top: "inception_3b/output"
  name: "inception_3b/output"
  type: CONCAT
}
layers {
  bottom: "inception_3b/output"
  top: "pool3/3x3_s2"
  name: "pool3/3x3_s2"
  type: POOLING
  pooling_param {
    pool: MAX
    kernel_size: 3
    stride: 2
  }
}
layers {
  bottom: "pool3/3x3_s2"
  top: "inception_4a/1x1"
  name: "inception_4a/1x1"
  type: CONVOLUTION
  blobs_lr: 1
  blobs_lr: 2
  weight_decay: 1
  weight_decay: 0
  convolution_param {
    num_output: 192
    kernel_size: 1
    weight_filler {
      type: "xavier"
      std: 0.03
    }
    bias_filler {
      type: "constant"
      value: 0.2
    }
  }
}
layers {
  bottom: "inception_4a/1x1"
  top: "inception_4a/1x1"
  name: "inception_4a/relu_1x1"
  type: RELU
}
layers {
  bottom: "pool3/3x3_s2"
  top: "inception_4a/3x3_reduce"
  name: "inception_4a/3x3_reduce"
  type: CONVOLUTION
  blobs_lr: 1
  blobs_lr: 2
  weight_decay: 1
  weight_decay: 0
  convolution_param {
    num_output: 96
    kernel_size: 1
    weight_filler {
      type: "xavier"
      std: 0.09
    }
    bias_filler {
      type: "constant"
      value: 0.2
    }
  }
}
layers {
  bottom: "inception_4a/3x3_reduce"
  top: "inception_4a/3x3_reduce"
  name: "inception_4a/relu_3x3_reduce"
  type: RELU
}
layers {
  bottom: "inception_4a/3x3_reduce"
  top: "inception_4a/3x3"
  name: "inception_4a/3x3"
  type: CONVOLUTION
  blobs_lr: 1
  blobs_lr: 2
  weight_decay: 1
  weight_decay: 0
  convolution_param {
    num_output: 208
    pad: 1
    kernel_size: 3
    weight_filler {
      type: "xavier"
      std: 0.03
    }
    bias_filler {
      type: "constant"
      value: 0.2
    }
  }
}
layers {
  bottom: "inception_4a/3x3"
  top: "inception_4a/3x3"
  name: "inception_4a/relu_3x3"
  type: RELU
}
layers {
  bottom: "pool3/3x3_s2"
  top: "inception_4a/5x5_reduce"
  name: "inception_4a/5x5_reduce"
  type: CONVOLUTION
  blobs_lr: 1
  blobs_lr: 2
  weight_decay: 1
  weight_decay: 0
  convolution_param {
    num_output: 16
    kernel_size: 1
    weight_filler {
      type: "xavier"
      std: 0.2
    }
    bias_filler {
      type: "constant"
      value: 0.2
    }
  }
}
layers {
  bottom: "inception_4a/5x5_reduce"
  top: "inception_4a/5x5_reduce"
  name: "inception_4a/relu_5x5_reduce"
  type: RELU
}
layers {
  bottom: "inception_4a/5x5_reduce"
  top: "inception_4a/5x5"
  name: "inception_4a/5x5"
  type: CONVOLUTION
  blobs_lr: 1
  blobs_lr: 2
  weight_decay: 1
  weight_decay: 0
  convolution_param {
    num_output: 48
    pad: 2
    kernel_size: 5
    weight_filler {
      type: "xavier"
      std: 0.03
    }
    bias_filler {
      type: "constant"
      value: 0.2
    }
  }
}
layers {
  bottom: "inception_4a/5x5"
  top: "inception_4a/5x5"
  name: "inception_4a/relu_5x5"
  type: RELU
}
layers {
  bottom: "pool3/3x3_s2"
  top: "inception_4a/pool"
  name: "inception_4a/pool"
  type: POOLING
  pooling_param {
    pool: MAX
    kernel_size: 3
    stride: 1
    pad: 1
  }
}
layers {
  bottom: "inception_4a/pool"
  top: "inception_4a/pool_proj"
  name: "inception_4a/pool_proj"
  type: CONVOLUTION
  blobs_lr: 1
  blobs_lr: 2
  weight_decay: 1
  weight_decay: 0
  convolution_param {
    num_output: 64
    kernel_size: 1
    weight_filler {
      type: "xavier"
      std: 0.1
    }
    bias_filler {
      type: "constant"
      value: 0.2
    }
  }
}
layers {
  bottom: "inception_4a/pool_proj"
  top: "inception_4a/pool_proj"
  name: "inception_4a/relu_pool_proj"
  type: RELU
}
layers {
  bottom: "inception_4a/1x1"
  bottom: "inception_4a/3x3"
  bottom: "inception_4a/5x5"
  bottom: "inception_4a/pool_proj"
  top: "inception_4a/output"
  name: "inception_4a/output"
  type: CONCAT
}
layers {
  bottom: "inception_4a/output"
  top: "loss1/ave_pool"
  name: "loss1/ave_pool"
  type: POOLING
  pooling_param {
    pool: AVE
    kernel_size: 5
    stride: 3
  }
}
layers {
  bottom: "loss1/ave_pool"
  top: "loss1/conv"
  name: "loss1/conv"
  type: CONVOLUTION
  blobs_lr: 1
  blobs_lr: 2
  weight_decay: 1
  weight_decay: 0
  convolution_param {
    num_output: 128
    kernel_size: 1
    weight_filler {
      type: "xavier"
      std: 0.08
    }
    bias_filler {
      type: "constant"
      value: 0.2
    }
  }
}
layers {
  bottom: "loss1/conv"
  top: "loss1/conv"
  name: "loss1/relu_conv"
  type: RELU
}
layers {
  bottom: "loss1/conv"
  top: "loss1/fd_fc"
  name: "loss1/fd_fc"
  type: INNER_PRODUCT
  blobs_lr: 10
  blobs_lr: 20
  weight_decay: 1
  weight_decay: 0
  inner_product_param {
    num_output: 1024
    weight_filler {
      type: "xavier"
      std: 0.02
    }
    bias_filler {
      type: "constant"
      value: 0.2
    }
  }
}
layers {
  bottom: "loss1/fd_fc"
  top: "loss1/fd_fc"
  name: "loss1/relu_fc"
  type: RELU
}
layers {
  bottom: "loss1/fd_fc"
  top: "loss1/fd_fc"
  name: "loss1/drop_fc"
  type: DROPOUT
  dropout_param {
    dropout_ratio: 0.7
  }
}
layers {
  bottom: "loss1/fd_fc"
  top: "fd_loss1/classifier"
  name: "fd_loss1/classifier"
  type: INNER_PRODUCT
  blobs_lr: 10
  blobs_lr: 20
  weight_decay: 1
  weight_decay: 0
  inner_product_param {
    num_output: 2
    weight_filler {
      type: "xavier"
      std: 0.0009765625
    }
    bias_filler {
      type: "constant"
      value: 0
    }
  }
}
layers {
  bottom: "fd_loss1/classifier"
  bottom: "label"
  top: "loss1/loss1"
  name: "loss1/loss"
  type: SOFTMAX_LOSS
  loss_weight: 0.3
}
layers {
  bottom: "inception_4a/output"
  top: "inception_4b/1x1"
  name: "inception_4b/1x1"
  type: CONVOLUTION
  blobs_lr: 1
  blobs_lr: 2
  weight_decay: 1
  weight_decay: 0
  convolution_param {
    num_output: 160
    kernel_size: 1
    weight_filler {
      type: "xavier"
      std: 0.03
    }
    bias_filler {
      type: "constant"
      value: 0.2
    }
  }
}
layers {
  bottom: "inception_4b/1x1"
  top: "inception_4b/1x1"
  name: "inception_4b/relu_1x1"
  type: RELU
}
layers {
  bottom: "inception_4a/output"
  top: "inception_4b/3x3_reduce"
  name: "inception_4b/3x3_reduce"
  type: CONVOLUTION
  blobs_lr: 1
  blobs_lr: 2
  weight_decay: 1
  weight_decay: 0
  convolution_param {
    num_output: 112
    kernel_size: 1
    weight_filler {
      type: "xavier"
      std: 0.09
    }
    bias_filler {
      type: "constant"
      value: 0.2
    }
  }
}
layers {
  bottom: "inception_4b/3x3_reduce"
  top: "inception_4b/3x3_reduce"
  name: "inception_4b/relu_3x3_reduce"
  type: RELU
}
layers {
  bottom: "inception_4b/3x3_reduce"
  top: "inception_4b/3x3"
  name: "inception_4b/3x3"
  type: CONVOLUTION
  blobs_lr: 1
  blobs_lr: 2
  weight_decay: 1
  weight_decay: 0
  convolution_param {
    num_output: 224
    pad: 1
    kernel_size: 3
    weight_filler {
      type: "xavier"
      std: 0.03
    }
    bias_filler {
      type: "constant"
      value: 0.2
    }
  }
}
layers {
  bottom: "inception_4b/3x3"
  top: "inception_4b/3x3"
  name: "inception_4b/relu_3x3"
  type: RELU
}
layers {
  bottom: "inception_4a/output"
  top: "inception_4b/5x5_reduce"
  name: "inception_4b/5x5_reduce"
  type: CONVOLUTION
  blobs_lr: 1
  blobs_lr: 2
  weight_decay: 1
  weight_decay: 0
  convolution_param {
    num_output: 24
    kernel_size: 1
    weight_filler {
      type: "xavier"
      std: 0.2
    }
    bias_filler {
      type: "constant"
      value: 0.2
    }
  }
}
layers {
  bottom: "inception_4b/5x5_reduce"
  top: "inception_4b/5x5_reduce"
  name: "inception_4b/relu_5x5_reduce"
  type: RELU
}
layers {
  bottom: "inception_4b/5x5_reduce"
  top: "inception_4b/5x5"
  name: "inception_4b/5x5"
  type: CONVOLUTION
  blobs_lr: 1
  blobs_lr: 2
  weight_decay: 1
  weight_decay: 0
  convolution_param {
    num_output: 64
    pad: 2
    kernel_size: 5
    weight_filler {
      type: "xavier"
      std: 0.03
    }
    bias_filler {
      type: "constant"
      value: 0.2
    }
  }
}
layers {
  bottom: "inception_4b/5x5"
  top: "inception_4b/5x5"
  name: "inception_4b/relu_5x5"
  type: RELU
}
layers {
  bottom: "inception_4a/output"
  top: "inception_4b/pool"
  name: "inception_4b/pool"
  type: POOLING
  pooling_param {
    pool: MAX
    kernel_size: 3
    stride: 1
    pad: 1
  }
}
layers {
  bottom: "inception_4b/pool"
  top: "inception_4b/pool_proj"
  name: "inception_4b/pool_proj"
  type: CONVOLUTION
  blobs_lr: 1
  blobs_lr: 2
  weight_decay: 1
  weight_decay: 0
  convolution_param {
    num_output: 64
    kernel_size: 1
    weight_filler {
      type: "xavier"
      std: 0.1
    }
    bias_filler {
      type: "constant"
      value: 0.2
    }
  }
}
layers {
  bottom: "inception_4b/pool_proj"
  top: "inception_4b/pool_proj"
  name: "inception_4b/relu_pool_proj"
  type: RELU
}
layers {
  bottom: "inception_4b/1x1"
  bottom: "inception_4b/3x3"
  bottom: "inception_4b/5x5"
  bottom: "inception_4b/pool_proj"
  top: "inception_4b/output"
  name: "inception_4b/output"
  type: CONCAT
}
layers {
  bottom: "inception_4b/output"
  top: "inception_4c/1x1"
  name: "inception_4c/1x1"
  type: CONVOLUTION
  blobs_lr: 1
  blobs_lr: 2
  weight_decay: 1
  weight_decay: 0
  convolution_param {
    num_output: 128
    kernel_size: 1
    weight_filler {
      type: "xavier"
      std: 0.03
    }
    bias_filler {
      type: "constant"
      value: 0.2
    }
  }
}
layers {
  bottom: "inception_4c/1x1"
  top: "inception_4c/1x1"
  name: "inception_4c/relu_1x1"
  type: RELU
}
layers {
  bottom: "inception_4b/output"
  top: "inception_4c/3x3_reduce"
  name: "inception_4c/3x3_reduce"
  type: CONVOLUTION
  blobs_lr: 1
  blobs_lr: 2
  weight_decay: 1
  weight_decay: 0
  convolution_param {
    num_output: 128
    kernel_size: 1
    weight_filler {
      type: "xavier"
      std: 0.09
    }
    bias_filler {
      type: "constant"
      value: 0.2
    }
  }
}
layers {
  bottom: "inception_4c/3x3_reduce"
  top: "inception_4c/3x3_reduce"
  name: "inception_4c/relu_3x3_reduce"
  type: RELU
}
layers {
  bottom: "inception_4c/3x3_reduce"
  top: "inception_4c/3x3"
  name: "inception_4c/3x3"
  type: CONVOLUTION
  blobs_lr: 1
  blobs_lr: 2
  weight_decay: 1
  weight_decay: 0
  convolution_param {
    num_output: 256
    pad: 1
    kernel_size: 3
    weight_filler {
      type: "xavier"
      std: 0.03
    }
    bias_filler {
      type: "constant"
      value: 0.2
    }
  }
}
layers {
  bottom: "inception_4c/3x3"
  top: "inception_4c/3x3"
  name: "inception_4c/relu_3x3"
  type: RELU
}
layers {
  bottom: "inception_4b/output"
  top: "inception_4c/5x5_reduce"
  name: "inception_4c/5x5_reduce"
  type: CONVOLUTION
  blobs_lr: 1
  blobs_lr: 2
  weight_decay: 1
  weight_decay: 0
  convolution_param {
    num_output: 24
    kernel_size: 1
    weight_filler {
      type: "xavier"
      std: 0.2
    }
    bias_filler {
      type: "constant"
      value: 0.2
    }
  }
}
layers {
  bottom: "inception_4c/5x5_reduce"
  top: "inception_4c/5x5_reduce"
  name: "inception_4c/relu_5x5_reduce"
  type: RELU
}
layers {
  bottom: "inception_4c/5x5_reduce"
  top: "inception_4c/5x5"
  name: "inception_4c/5x5"
  type: CONVOLUTION
  blobs_lr: 1
  blobs_lr: 2
  weight_decay: 1
  weight_decay: 0
  convolution_param {
    num_output: 64
    pad: 2
    kernel_size: 5
    weight_filler {
      type: "xavier"
      std: 0.03
    }
    bias_filler {
      type: "constant"
      value: 0.2
    }
  }
}
layers {
  bottom: "inception_4c/5x5"
  top: "inception_4c/5x5"
  name: "inception_4c/relu_5x5"
  type: RELU
}
layers {
  bottom: "inception_4b/output"
  top: "inception_4c/pool"
  name: "inception_4c/pool"
  type: POOLING
  pooling_param {
    pool: MAX
    kernel_size: 3
    stride: 1
    pad: 1
  }
}
layers {
  bottom: "inception_4c/pool"
  top: "inception_4c/pool_proj"
  name: "inception_4c/pool_proj"
  type: CONVOLUTION
  blobs_lr: 1
  blobs_lr: 2
  weight_decay: 1
  weight_decay: 0
  convolution_param {
    num_output: 64
    kernel_size: 1
    weight_filler {
      type: "xavier"
      std: 0.1
    }
    bias_filler {
      type: "constant"
      value: 0.2
    }
  }
}
layers {
  bottom: "inception_4c/pool_proj"
  top: "inception_4c/pool_proj"
  name: "inception_4c/relu_pool_proj"
  type: RELU
}
layers {
  bottom: "inception_4c/1x1"
  bottom: "inception_4c/3x3"
  bottom: "inception_4c/5x5"
  bottom: "inception_4c/pool_proj"
  top: "inception_4c/output"
  name: "inception_4c/output"
  type: CONCAT
}
layers {
  bottom: "inception_4c/output"
  top: "inception_4d/1x1"
  name: "inception_4d/1x1"
  type: CONVOLUTION
  blobs_lr: 1
  blobs_lr: 2
  weight_decay: 1
  weight_decay: 0
  convolution_param {
    num_output: 112
    kernel_size: 1
    weight_filler {
      type: "xavier"
      std: 0.03
    }
    bias_filler {
      type: "constant"
      value: 0.2
    }
  }
}
layers {
  bottom: "inception_4d/1x1"
  top: "inception_4d/1x1"
  name: "inception_4d/relu_1x1"
  type: RELU
}
layers {
  bottom: "inception_4c/output"
  top: "inception_4d/3x3_reduce"
  name: "inception_4d/3x3_reduce"
  type: CONVOLUTION
  blobs_lr: 1
  blobs_lr: 2
  weight_decay: 1
  weight_decay: 0
  convolution_param {
    num_output: 144
    kernel_size: 1
    weight_filler {
      type: "xavier"
      std: 0.09
    }
    bias_filler {
      type: "constant"
      value: 0.2
    }
  }
}
layers {
  bottom: "inception_4d/3x3_reduce"
  top: "inception_4d/3x3_reduce"
  name: "inception_4d/relu_3x3_reduce"
  type: RELU
}
layers {
  bottom: "inception_4d/3x3_reduce"
  top: "inception_4d/3x3"
  name: "inception_4d/3x3"
  type: CONVOLUTION
  blobs_lr: 1
  blobs_lr: 2
  weight_decay: 1
  weight_decay: 0
  convolution_param {
    num_output: 288
    pad: 1
    kernel_size: 3
    weight_filler {
      type: "xavier"
      std: 0.03
    }
    bias_filler {
      type: "constant"
      value: 0.2
    }
  }
}
layers {
  bottom: "inception_4d/3x3"
  top: "inception_4d/3x3"
  name: "inception_4d/relu_3x3"
  type: RELU
}
layers {
  bottom: "inception_4c/output"
  top: "inception_4d/5x5_reduce"
  name: "inception_4d/5x5_reduce"
  type: CONVOLUTION
  blobs_lr: 1
  blobs_lr: 2
  weight_decay: 1
  weight_decay: 0
  convolution_param {
    num_output: 32
    kernel_size: 1
    weight_filler {
      type: "xavier"
      std: 0.2
    }
    bias_filler {
      type: "constant"
      value: 0.2
    }
  }
}
layers {
  bottom: "inception_4d/5x5_reduce"
  top: "inception_4d/5x5_reduce"
  name: "inception_4d/relu_5x5_reduce"
  type: RELU
}
layers {
  bottom: "inception_4d/5x5_reduce"
  top: "inception_4d/5x5"
  name: "inception_4d/5x5"
  type: CONVOLUTION
  blobs_lr: 1
  blobs_lr: 2
  weight_decay: 1
  weight_decay: 0
  convolution_param {
    num_output: 64
    pad: 2
    kernel_size: 5
    weight_filler {
      type: "xavier"
      std: 0.03
    }
    bias_filler {
      type: "constant"
      value: 0.2
    }
  }
}
layers {
  bottom: "inception_4d/5x5"
  top: "inception_4d/5x5"
  name: "inception_4d/relu_5x5"
  type: RELU
}
layers {
  bottom: "inception_4c/output"
  top: "inception_4d/pool"
  name: "inception_4d/pool"
  type: POOLING
  pooling_param {
    pool: MAX
    kernel_size: 3
    stride: 1
    pad: 1
  }
}
layers {
  bottom: "inception_4d/pool"
  top: "inception_4d/pool_proj"
  name: "inception_4d/pool_proj"
  type: CONVOLUTION
  blobs_lr: 1
  blobs_lr: 2
  weight_decay: 1
  weight_decay: 0
  convolution_param {
    num_output: 64
    kernel_size: 1
    weight_filler {
      type: "xavier"
      std: 0.1
    }
    bias_filler {
      type: "constant"
      value: 0.2
    }
  }
}
layers {
  bottom: "inception_4d/pool_proj"
  top: "inception_4d/pool_proj"
  name: "inception_4d/relu_pool_proj"
  type: RELU
}
layers {
  bottom: "inception_4d/1x1"
  bottom: "inception_4d/3x3"
  bottom: "inception_4d/5x5"
  bottom: "inception_4d/pool_proj"
  top: "inception_4d/output"
  name: "inception_4d/output"
  type: CONCAT
}
layers {
  bottom: "inception_4d/output"
  top: "loss2/ave_pool"
  name: "loss2/ave_pool"
  type: POOLING
  pooling_param {
    pool: AVE
    kernel_size: 5
    stride: 3
  }
}
layers {
  bottom: "loss2/ave_pool"
  top: "loss2/conv"
  name: "loss2/conv"
  type: CONVOLUTION
  blobs_lr: 1
  blobs_lr: 2
  weight_decay: 1
  weight_decay: 0
  convolution_param {
    num_output: 128
    kernel_size: 1
    weight_filler {
      type: "xavier"
      std: 0.08
    }
    bias_filler {
      type: "constant"
      value: 0.2
    }
  }
}
layers {
  bottom: "loss2/conv"
  top: "loss2/conv"
  name: "loss2/relu_conv"
  type: RELU
}
layers {
  bottom: "loss2/conv"
  top: "loss2/fd_fc"
  name: "loss2/fd_fc"
  type: INNER_PRODUCT
  blobs_lr: 10
  blobs_lr: 20
  weight_decay: 1
  weight_decay: 0
  inner_product_param {
    num_output: 1024
    weight_filler {
      type: "xavier"
      std: 0.02
    }
    bias_filler {
      type: "constant"
      value: 0.2
    }
  }
}
layers {
  bottom: "loss2/fd_fc"
  top: "loss2/fd_fc"
  name: "loss2/relu_fc"
  type: RELU
}
layers {
  bottom: "loss2/fd_fc"
  top: "loss2/fd_fc"
  name: "loss2/drop_fc"
  type: DROPOUT
  dropout_param {
    dropout_ratio: 0.7
  }
}
layers {
  bottom: "loss2/fd_fc"
  top: "fd_loss2/classifier"
  name: "fd_loss2/classifier"
  type: INNER_PRODUCT
  blobs_lr: 10
  blobs_lr: 20
  weight_decay: 1
  weight_decay: 0
  inner_product_param {
    num_output: 2
    weight_filler {
      type: "xavier"
      std: 0.0009765625
    }
    bias_filler {
      type: "constant"
      value: 0
    }
  }
}
layers {
  bottom: "fd_loss2/classifier"
  bottom: "label"
  top: "loss2/loss1"
  name: "loss2/loss"
  type: SOFTMAX_LOSS
  loss_weight: 0.3
}
layers {
  bottom: "inception_4d/output"
  top: "inception_4e/1x1"
  name: "inception_4e/1x1"
  type: CONVOLUTION
  blobs_lr: 1
  blobs_lr: 2
  weight_decay: 1
  weight_decay: 0
  convolution_param {
    num_output: 256
    kernel_size: 1
    weight_filler {
      type: "xavier"
      std: 0.03
    }
    bias_filler {
      type: "constant"
      value: 0.2
    }
  }
}
layers {
  bottom: "inception_4e/1x1"
  top: "inception_4e/1x1"
  name: "inception_4e/relu_1x1"
  type: RELU
}
layers {
  bottom: "inception_4d/output"
  top: "inception_4e/3x3_reduce"
  name: "inception_4e/3x3_reduce"
  type: CONVOLUTION
  blobs_lr: 1
  blobs_lr: 2
  weight_decay: 1
  weight_decay: 0
  convolution_param {
    num_output: 160
    kernel_size: 1
    weight_filler {
      type: "xavier"
      std: 0.09
    }
    bias_filler {
      type: "constant"
      value: 0.2
    }
  }
}
layers {
  bottom: "inception_4e/3x3_reduce"
  top: "inception_4e/3x3_reduce"
  name: "inception_4e/relu_3x3_reduce"
  type: RELU
}
layers {
  bottom: "inception_4e/3x3_reduce"
  top: "inception_4e/3x3"
  name: "inception_4e/3x3"
  type: CONVOLUTION
  blobs_lr: 1
  blobs_lr: 2
  weight_decay: 1
  weight_decay: 0
  convolution_param {
    num_output: 320
    pad: 1
    kernel_size: 3
    weight_filler {
      type: "xavier"
      std: 0.03
    }
    bias_filler {
      type: "constant"
      value: 0.2
    }
  }
}
layers {
  bottom: "inception_4e/3x3"
  top: "inception_4e/3x3"
  name: "inception_4e/relu_3x3"
  type: RELU
}
layers {
  bottom: "inception_4d/output"
  top: "inception_4e/5x5_reduce"
  name: "inception_4e/5x5_reduce"
  type: CONVOLUTION
  blobs_lr: 1
  blobs_lr: 2
  weight_decay: 1
  weight_decay: 0
  convolution_param {
    num_output: 32
    kernel_size: 1
    weight_filler {
      type: "xavier"
      std: 0.2
    }
    bias_filler {
      type: "constant"
      value: 0.2
    }
  }
}
layers {
  bottom: "inception_4e/5x5_reduce"
  top: "inception_4e/5x5_reduce"
  name: "inception_4e/relu_5x5_reduce"
  type: RELU
}
layers {
  bottom: "inception_4e/5x5_reduce"
  top: "inception_4e/5x5"
  name: "inception_4e/5x5"
  type: CONVOLUTION
  blobs_lr: 1
  blobs_lr: 2
  weight_decay: 1
  weight_decay: 0
  convolution_param {
    num_output: 128
    pad: 2
    kernel_size: 5
    weight_filler {
      type: "xavier"
      std: 0.03
    }
    bias_filler {
      type: "constant"
      value: 0.2
    }
  }
}
layers {
  bottom: "inception_4e/5x5"
  top: "inception_4e/5x5"
  name: "inception_4e/relu_5x5"
  type: RELU
}
layers {
  bottom: "inception_4d/output"
  top: "inception_4e/pool"
  name: "inception_4e/pool"
  type: POOLING
  pooling_param {
    pool: MAX
    kernel_size: 3
    stride: 1
    pad: 1
  }
}
layers {
  bottom: "inception_4e/pool"
  top: "inception_4e/pool_proj"
  name: "inception_4e/pool_proj"
  type: CONVOLUTION
  blobs_lr: 1
  blobs_lr: 2
  weight_decay: 1
  weight_decay: 0
  convolution_param {
    num_output: 128
    kernel_size: 1
    weight_filler {
      type: "xavier"
      std: 0.1
    }
    bias_filler {
      type: "constant"
      value: 0.2
    }
  }
}
layers {
  bottom: "inception_4e/pool_proj"
  top: "inception_4e/pool_proj"
  name: "inception_4e/relu_pool_proj"
  type: RELU
}
layers {
  bottom: "inception_4e/1x1"
  bottom: "inception_4e/3x3"
  bottom: "inception_4e/5x5"
  bottom: "inception_4e/pool_proj"
  top: "inception_4e/output"
  name: "inception_4e/output"
  type: CO
I0414 08:08:58.818042   669 net.cpp:56] Memory required for data: 0
I0414 08:08:58.818305   669 net.cpp:67] Creating Layer data
I0414 08:08:58.818327   669 net.cpp:356] data -> data
I0414 08:08:58.818368   669 net.cpp:356] data -> label
I0414 08:08:58.818388   669 net.cpp:96] Setting up data
I0414 08:08:58.831784   669 data_layer.cpp:68] Opening lmdb /mnt_data/yilin_guo/data/food_detection/train_data/
I0414 08:08:58.901484   669 data_layer.cpp:128] output data size: 32,3,160,160
I0414 08:08:58.901515   669 base_data_layer.cpp:36] Loading mean file from/mnt_data/yilin_guo/caffe/examples/food_detection/googleNet/imagenet_mean.binaryproto
I0414 08:08:58.972302   669 base_data_layer.cpp:64] Initializing prefetch
I0414 08:08:58.972424   669 base_data_layer.cpp:66] Prefetch initialized.
I0414 08:08:58.972443   669 net.cpp:103] Top shape: 32 3 160 160 (2457600)
I0414 08:08:58.972451   669 net.cpp:103] Top shape: 32 1 1 1 (32)
I0414 08:08:58.972456   669 net.cpp:113] Memory required for data: 9830528
I0414 08:08:58.972484   669 net.cpp:67] Creating Layer label_data_1_split
I0414 08:08:58.972493   669 net.cpp:394] label_data_1_split <- label
I0414 08:08:58.972522   669 net.cpp:356] label_data_1_split -> label_data_1_split_0
I0414 08:08:58.972543   669 net.cpp:356] label_data_1_split -> label_data_1_split_1
I0414 08:08:58.972555   669 net.cpp:356] label_data_1_split -> label_data_1_split_2
I0414 08:08:58.972568   669 net.cpp:96] Setting up label_data_1_split
I0414 08:08:58.972580   669 net.cpp:103] Top shape: 32 1 1 1 (32)
I0414 08:08:58.972586   669 net.cpp:103] Top shape: 32 1 1 1 (32)
I0414 08:08:58.972595   669 net.cpp:103] Top shape: 32 1 1 1 (32)
I0414 08:08:58.972599   669 net.cpp:113] Memory required for data: 9830912
I0414 08:08:58.972617   669 net.cpp:67] Creating Layer conv1/7x7_s2
I0414 08:08:58.972625   669 net.cpp:394] conv1/7x7_s2 <- data
I0414 08:08:58.972638   669 net.cpp:356] conv1/7x7_s2 -> conv1/7x7_s2
I0414 08:08:58.972650   669 net.cpp:96] Setting up conv1/7x7_s2
I0414 08:08:58.973371   669 net.cpp:103] Top shape: 32 64 80 80 (13107200)
I0414 08:08:58.973388   669 net.cpp:113] Memory required for data: 62259712
I0414 08:08:58.973417   669 net.cpp:67] Creating Layer conv1/relu_7x7
I0414 08:08:58.973424   669 net.cpp:394] conv1/relu_7x7 <- conv1/7x7_s2
I0414 08:08:58.973435   669 net.cpp:345] conv1/relu_7x7 -> conv1/7x7_s2 (in-place)
I0414 08:08:58.973444   669 net.cpp:96] Setting up conv1/relu_7x7
I0414 08:08:58.973449   669 net.cpp:103] Top shape: 32 64 80 80 (13107200)
I0414 08:08:58.973453   669 net.cpp:113] Memory required for data: 114688512
I0414 08:08:58.973469   669 net.cpp:67] Creating Layer pool1/3x3_s2
I0414 08:08:58.973474   669 net.cpp:394] pool1/3x3_s2 <- conv1/7x7_s2
I0414 08:08:58.973486   669 net.cpp:356] pool1/3x3_s2 -> pool1/3x3_s2
I0414 08:08:58.973497   669 net.cpp:96] Setting up pool1/3x3_s2
I0414 08:08:58.973517   669 net.cpp:103] Top shape: 32 64 40 40 (3276800)
I0414 08:08:58.973523   669 net.cpp:113] Memory required for data: 127795712
I0414 08:08:58.973534   669 net.cpp:67] Creating Layer pool1/norm1
I0414 08:08:58.973541   669 net.cpp:394] pool1/norm1 <- pool1/3x3_s2
I0414 08:08:58.973553   669 net.cpp:356] pool1/norm1 -> pool1/norm1
I0414 08:08:58.973563   669 net.cpp:96] Setting up pool1/norm1
I0414 08:08:58.973572   669 net.cpp:103] Top shape: 32 64 40 40 (3276800)
I0414 08:08:58.973577   669 net.cpp:113] Memory required for data: 140902912
I0414 08:08:58.973587   669 net.cpp:67] Creating Layer conv2/3x3_reduce
I0414 08:08:58.973593   669 net.cpp:394] conv2/3x3_reduce <- pool1/norm1
I0414 08:08:58.973606   669 net.cpp:356] conv2/3x3_reduce -> conv2/3x3_reduce
I0414 08:08:58.973618   669 net.cpp:96] Setting up conv2/3x3_reduce
I0414 08:08:58.973913   669 net.cpp:103] Top shape: 32 64 40 40 (3276800)
I0414 08:08:58.973928   669 net.cpp:113] Memory required for data: 154010112
I0414 08:08:58.973947   669 net.cpp:67] Creating Layer conv2/relu_3x3_reduce
I0414 08:08:58.973953   669 net.cpp:394] conv2/relu_3x3_reduce <- conv2/3x3_reduce
I0414 08:08:58.973964   669 net.cpp:345] conv2/relu_3x3_reduce -> conv2/3x3_reduce (in-place)
I0414 08:08:58.973973   669 net.cpp:96] Setting up conv2/relu_3x3_reduce
I0414 08:08:58.973978   669 net.cpp:103] Top shape: 32 64 40 40 (3276800)
I0414 08:08:58.973983   669 net.cpp:113] Memory required for data: 167117312
I0414 08:08:58.973994   669 net.cpp:67] Creating Layer conv2/3x3
I0414 08:08:58.973999   669 net.cpp:394] conv2/3x3 <- conv2/3x3_reduce
I0414 08:08:58.974014   669 net.cpp:356] conv2/3x3 -> conv2/3x3
I0414 08:08:58.974035   669 net.cpp:96] Setting up conv2/3x3
I0414 08:08:58.981264   669 net.cpp:103] Top shape: 32 192 40 40 (9830400)
I0414 08:08:58.981282   669 net.cpp:113] Memory required for data: 206438912
I0414 08:08:58.981309   669 net.cpp:67] Creating Layer conv2/relu_3x3
I0414 08:08:58.981319   669 net.cpp:394] conv2/relu_3x3 <- conv2/3x3
I0414 08:08:58.981340   669 net.cpp:345] conv2/relu_3x3 -> conv2/3x3 (in-place)
I0414 08:08:58.981355   669 net.cpp:96] Setting up conv2/relu_3x3
I0414 08:08:58.981364   669 net.cpp:103] Top shape: 32 192 40 40 (9830400)
I0414 08:08:58.981370   669 net.cpp:113] Memory required for data: 245760512
I0414 08:08:58.981385   669 net.cpp:67] Creating Layer conv2/norm2
I0414 08:08:58.981394   669 net.cpp:394] conv2/norm2 <- conv2/3x3
I0414 08:08:58.981411   669 net.cpp:356] conv2/norm2 -> conv2/norm2
I0414 08:08:58.981426   669 net.cpp:96] Setting up conv2/norm2
I0414 08:08:58.981437   669 net.cpp:103] Top shape: 32 192 40 40 (9830400)
I0414 08:08:58.981444   669 net.cpp:113] Memory required for data: 285082112
I0414 08:08:58.981462   669 net.cpp:67] Creating Layer pool2/3x3_s2
I0414 08:08:58.981470   669 net.cpp:394] pool2/3x3_s2 <- conv2/norm2
I0414 08:08:58.981487   669 net.cpp:356] pool2/3x3_s2 -> pool2/3x3_s2
I0414 08:08:58.981503   669 net.cpp:96] Setting up pool2/3x3_s2
I0414 08:08:58.981514   669 net.cpp:103] Top shape: 32 192 20 20 (2457600)
I0414 08:08:58.981521   669 net.cpp:113] Memory required for data: 294912512
I0414 08:08:58.981539   669 net.cpp:67] Creating Layer pool2/3x3_s2_pool2/3x3_s2_0_split
I0414 08:08:58.981547   669 net.cpp:394] pool2/3x3_s2_pool2/3x3_s2_0_split <- pool2/3x3_s2
I0414 08:08:58.981564   669 net.cpp:356] pool2/3x3_s2_pool2/3x3_s2_0_split -> pool2/3x3_s2_pool2/3x3_s2_0_split_0
I0414 08:08:58.981582   669 net.cpp:356] pool2/3x3_s2_pool2/3x3_s2_0_split -> pool2/3x3_s2_pool2/3x3_s2_0_split_1
I0414 08:08:58.981600   669 net.cpp:356] pool2/3x3_s2_pool2/3x3_s2_0_split -> pool2/3x3_s2_pool2/3x3_s2_0_split_2
I0414 08:08:58.981617   669 net.cpp:356] pool2/3x3_s2_pool2/3x3_s2_0_split -> pool2/3x3_s2_pool2/3x3_s2_0_split_3
I0414 08:08:58.981629   669 net.cpp:96] Setting up pool2/3x3_s2_pool2/3x3_s2_0_split
I0414 08:08:58.981641   669 net.cpp:103] Top shape: 32 192 20 20 (2457600)
I0414 08:08:58.981648   669 net.cpp:103] Top shape: 32 192 20 20 (2457600)
I0414 08:08:58.981655   669 net.cpp:103] Top shape: 32 192 20 20 (2457600)
I0414 08:08:58.981662   669 net.cpp:103] Top shape: 32 192 20 20 (2457600)
I0414 08:08:58.981667   669 net.cpp:113] Memory required for data: 334234112
I0414 08:08:58.981686   669 net.cpp:67] Creating Layer inception_3a/1x1
I0414 08:08:58.981696   669 net.cpp:394] inception_3a/1x1 <- pool2/3x3_s2_pool2/3x3_s2_0_split_0
I0414 08:08:58.981722   669 net.cpp:356] inception_3a/1x1 -> inception_3a/1x1
I0414 08:08:58.981745   669 net.cpp:96] Setting up inception_3a/1x1
I0414 08:08:58.982717   669 net.cpp:103] Top shape: 32 64 20 20 (819200)
I0414 08:08:58.982735   669 net.cpp:113] Memory required for data: 337510912
I0414 08:08:58.982755   669 net.cpp:67] Creating Layer inception_3a/relu_1x1
I0414 08:08:58.982765   669 net.cpp:394] inception_3a/relu_1x1 <- inception_3a/1x1
I0414 08:08:58.982795   669 net.cpp:345] inception_3a/relu_1x1 -> inception_3a/1x1 (in-place)
I0414 08:08:58.982815   669 net.cpp:96] Setting up inception_3a/relu_1x1
I0414 08:08:58.982823   669 net.cpp:103] Top shape: 32 64 20 20 (819200)
I0414 08:08:58.982830   669 net.cpp:113] Memory required for data: 340787712
I0414 08:08:58.982844   669 net.cpp:67] Creating Layer inception_3a/3x3_reduce
I0414 08:08:58.982853   669 net.cpp:394] inception_3a/3x3_reduce <- pool2/3x3_s2_pool2/3x3_s2_0_split_1
I0414 08:08:58.982873   669 net.cpp:356] inception_3a/3x3_reduce -> inception_3a/3x3_reduce
I0414 08:08:58.982892   669 net.cpp:96] Setting up inception_3a/3x3_reduce
I0414 08:08:58.984169   669 net.cpp:103] Top shape: 32 96 20 20 (1228800)
I0414 08:08:58.984186   669 net.cpp:113] Memory required for data: 345702912
I0414 08:08:58.984220   669 net.cpp:67] Creating Layer inception_3a/relu_3x3_reduce
I0414 08:08:58.984230   669 net.cpp:394] inception_3a/relu_3x3_reduce <- inception_3a/3x3_reduce
I0414 08:08:58.984251   669 net.cpp:345] inception_3a/relu_3x3_reduce -> inception_3a/3x3_reduce (in-place)
I0414 08:08:58.984267   669 net.cpp:96] Setting up inception_3a/relu_3x3_reduce
I0414 08:08:58.984275   669 net.cpp:103] Top shape: 32 96 20 20 (1228800)
I0414 08:08:58.984282   669 net.cpp:113] Memory required for data: 350618112
I0414 08:08:58.984297   669 net.cpp:67] Creating Layer inception_3a/3x3
I0414 08:08:58.984307   669 net.cpp:394] inception_3a/3x3 <- inception_3a/3x3_reduce
I0414 08:08:58.984330   669 net.cpp:356] inception_3a/3x3 -> inception_3a/3x3
I0414 08:08:58.984349   669 net.cpp:96] Setting up inception_3a/3x3
I0414 08:08:58.991313   669 net.cpp:103] Top shape: 32 128 20 20 (1638400)
I0414 08:08:58.991330   669 net.cpp:113] Memory required for data: 357171712
I0414 08:08:58.991351   669 net.cpp:67] Creating Layer inception_3a/relu_3x3
I0414 08:08:58.991363   669 net.cpp:394] inception_3a/relu_3x3 <- inception_3a/3x3
I0414 08:08:58.991384   669 net.cpp:345] inception_3a/relu_3x3 -> inception_3a/3x3 (in-place)
I0414 08:08:58.991399   669 net.cpp:96] Setting up inception_3a/relu_3x3
I0414 08:08:58.991406   669 net.cpp:103] Top shape: 32 128 20 20 (1638400)
I0414 08:08:58.991413   669 net.cpp:113] Memory required for data: 363725312
I0414 08:08:58.991428   669 net.cpp:67] Creating Layer inception_3a/5x5_reduce
I0414 08:08:58.991437   669 net.cpp:394] inception_3a/5x5_reduce <- pool2/3x3_s2_pool2/3x3_s2_0_split_2
I0414 08:08:58.991457   669 net.cpp:356] inception_3a/5x5_reduce -> inception_3a/5x5_reduce
I0414 08:08:58.991485   669 net.cpp:96] Setting up inception_3a/5x5_reduce
I0414 08:08:58.991739   669 net.cpp:103] Top shape: 32 16 20 20 (204800)
I0414 08:08:58.991755   669 net.cpp:113] Memory required for data: 364544512
I0414 08:08:58.991775   669 net.cpp:67] Creating Layer inception_3a/relu_5x5_reduce
I0414 08:08:58.991786   669 net.cpp:394] inception_3a/relu_5x5_reduce <- inception_3a/5x5_reduce
I0414 08:08:58.991802   669 net.cpp:345] inception_3a/relu_5x5_reduce -> inception_3a/5x5_reduce (in-place)
I0414 08:08:58.991816   669 net.cpp:96] Setting up inception_3a/relu_5x5_reduce
I0414 08:08:58.991824   669 net.cpp:103] Top shape: 32 16 20 20 (204800)
I0414 08:08:58.991830   669 net.cpp:113] Memory required for data: 365363712
I0414 08:08:58.991850   669 net.cpp:67] Creating Layer inception_3a/5x5
I0414 08:08:58.991859   669 net.cpp:394] inception_3a/5x5 <- inception_3a/5x5_reduce
I0414 08:08:58.991879   669 net.cpp:356] inception_3a/5x5 -> inception_3a/5x5
I0414 08:08:58.991896   669 net.cpp:96] Setting up inception_3a/5x5
I0414 08:08:58.992779   669 net.cpp:103] Top shape: 32 32 20 20 (409600)
I0414 08:08:58.992796   669 net.cpp:113] Memory required for data: 367002112
I0414 08:08:58.992820   669 net.cpp:67] Creating Layer inception_3a/relu_5x5
I0414 08:08:58.992830   669 net.cpp:394] inception_3a/relu_5x5 <- inception_3a/5x5
I0414 08:08:58.992846   669 net.cpp:345] inception_3a/relu_5x5 -> inception_3a/5x5 (in-place)
I0414 08:08:58.992859   669 net.cpp:96] Setting up inception_3a/relu_5x5
I0414 08:08:58.992867   669 net.cpp:103] Top shape: 32 32 20 20 (409600)
I0414 08:08:58.992873   669 net.cpp:113] Memory required for data: 368640512
I0414 08:08:58.992887   669 net.cpp:67] Creating Layer inception_3a/pool
I0414 08:08:58.992895   669 net.cpp:394] inception_3a/pool <- pool2/3x3_s2_pool2/3x3_s2_0_split_3
I0414 08:08:58.992918   669 net.cpp:356] inception_3a/pool -> inception_3a/pool
I0414 08:08:58.992935   669 net.cpp:96] Setting up inception_3a/pool
I0414 08:08:58.992949   669 net.cpp:103] Top shape: 32 192 20 20 (2457600)
I0414 08:08:58.992955   669 net.cpp:113] Memory required for data: 378470912
I0414 08:08:58.992972   669 net.cpp:67] Creating Layer inception_3a/pool_proj
I0414 08:08:58.992980   669 net.cpp:394] inception_3a/pool_proj <- inception_3a/pool
I0414 08:08:58.993005   669 net.cpp:356] inception_3a/pool_proj -> inception_3a/pool_proj
I0414 08:08:58.993022   669 net.cpp:96] Setting up inception_3a/pool_proj
I0414 08:08:58.993465   669 net.cpp:103] Top shape: 32 32 20 20 (409600)
I0414 08:08:58.993481   669 net.cpp:113] Memory required for data: 380109312
I0414 08:08:58.993510   669 net.cpp:67] Creating Layer inception_3a/relu_pool_proj
I0414 08:08:58.993520   669 net.cpp:394] inception_3a/relu_pool_proj <- inception_3a/pool_proj
I0414 08:08:58.993537   669 net.cpp:345] inception_3a/relu_pool_proj -> inception_3a/pool_proj (in-place)
I0414 08:08:58.993551   669 net.cpp:96] Setting up inception_3a/relu_pool_proj
I0414 08:08:58.993559   669 net.cpp:103] Top shape: 32 32 20 20 (409600)
I0414 08:08:58.993566   669 net.cpp:113] Memory required for data: 381747712
I0414 08:08:58.993584   669 net.cpp:67] Creating Layer inception_3a/output
I0414 08:08:58.993592   669 net.cpp:394] inception_3a/output <- inception_3a/1x1
I0414 08:08:58.993607   669 net.cpp:394] inception_3a/output <- inception_3a/3x3
I0414 08:08:58.993618   669 net.cpp:394] inception_3a/output <- inception_3a/5x5
I0414 08:08:58.993629   669 net.cpp:394] inception_3a/output <- inception_3a/pool_proj
I0414 08:08:58.993643   669 net.cpp:356] inception_3a/output -> inception_3a/output
I0414 08:08:58.993659   669 net.cpp:96] Setting up inception_3a/output
I0414 08:08:58.993669   669 net.cpp:103] Top shape: 32 256 20 20 (3276800)
I0414 08:08:58.993675   669 net.cpp:113] Memory required for data: 394854912
I0414 08:08:58.993695   669 net.cpp:67] Creating Layer inception_3a/output_inception_3a/output_0_split
I0414 08:08:58.993705   669 net.cpp:394] inception_3a/output_inception_3a/output_0_split <- inception_3a/output
I0414 08:08:58.993722   669 net.cpp:356] inception_3a/output_inception_3a/output_0_split -> inception_3a/output_inception_3a/output_0_split_0
I0414 08:08:58.993741   669 net.cpp:356] inception_3a/output_inception_3a/output_0_split -> inception_3a/output_inception_3a/output_0_split_1
I0414 08:08:58.993757   669 net.cpp:356] inception_3a/output_inception_3a/output_0_split -> inception_3a/output_inception_3a/output_0_split_2
I0414 08:08:58.993779   669 net.cpp:356] inception_3a/output_inception_3a/output_0_split -> inception_3a/output_inception_3a/output_0_split_3
I0414 08:08:58.993794   669 net.cpp:96] Setting up inception_3a/output_inception_3a/output_0_split
I0414 08:08:58.993805   669 net.cpp:103] Top shape: 32 256 20 20 (3276800)
I0414 08:08:58.993813   669 net.cpp:103] Top shape: 32 256 20 20 (3276800)
I0414 08:08:58.993820   669 net.cpp:103] Top shape: 32 256 20 20 (3276800)
I0414 08:08:58.993827   669 net.cpp:103] Top shape: 32 256 20 20 (3276800)
I0414 08:08:58.993834   669 net.cpp:113] Memory required for data: 447283712
I0414 08:08:58.993849   669 net.cpp:67] Creating Layer inception_3b/1x1
I0414 08:08:58.993857   669 net.cpp:394] inception_3b/1x1 <- inception_3a/output_inception_3a/output_0_split_0
I0414 08:08:58.993883   669 net.cpp:356] inception_3b/1x1 -> inception_3b/1x1
I0414 08:08:58.993901   669 net.cpp:96] Setting up inception_3b/1x1
I0414 08:08:58.996107   669 net.cpp:103] Top shape: 32 128 20 20 (1638400)
I0414 08:08:58.996124   669 net.cpp:113] Memory required for data: 453837312
I0414 08:08:58.996143   669 net.cpp:67] Creating Layer inception_3b/relu_1x1
I0414 08:08:58.996153   669 net.cpp:394] inception_3b/relu_1x1 <- inception_3b/1x1
I0414 08:08:58.996175   669 net.cpp:345] inception_3b/relu_1x1 -> inception_3b/1x1 (in-place)
I0414 08:08:58.996189   669 net.cpp:96] Setting up inception_3b/relu_1x1
I0414 08:08:58.996197   669 net.cpp:103] Top shape: 32 128 20 20 (1638400)
I0414 08:08:58.996204   669 net.cpp:113] Memory required for data: 460390912
I0414 08:08:58.996219   669 net.cpp:67] Creating Layer inception_3b/3x3_reduce
I0414 08:08:58.996228   669 net.cpp:394] inception_3b/3x3_reduce <- inception_3a/output_inception_3a/output_0_split_1
I0414 08:08:58.996251   669 net.cpp:356] inception_3b/3x3_reduce -> inception_3b/3x3_reduce
I0414 08:08:58.996269   669 net.cpp:96] Setting up inception_3b/3x3_reduce
I0414 08:08:58.998471   669 net.cpp:103] Top shape: 32 128 20 20 (1638400)
I0414 08:08:58.998488   669 net.cpp:113] Memory required for data: 466944512
I0414 08:08:58.998508   669 net.cpp:67] Creating Layer inception_3b/relu_3x3_reduce
I0414 08:08:58.998518   669 net.cpp:394] inception_3b/relu_3x3_reduce <- inception_3b/3x3_reduce
I0414 08:08:58.998540   669 net.cpp:345] inception_3b/relu_3x3_reduce -> inception_3b/3x3_reduce (in-place)
I0414 08:08:58.998556   669 net.cpp:96] Setting up inception_3b/relu_3x3_reduce
I0414 08:08:58.998564   669 net.cpp:103] Top shape: 32 128 20 20 (1638400)
I0414 08:08:58.998570   669 net.cpp:113] Memory required for data: 473498112
I0414 08:08:58.998592   669 net.cpp:67] Creating Layer inception_3b/3x3
I0414 08:08:58.998602   669 net.cpp:394] inception_3b/3x3 <- inception_3b/3x3_reduce
I0414 08:08:58.998626   669 net.cpp:356] inception_3b/3x3 -> inception_3b/3x3
I0414 08:08:58.998643   669 net.cpp:96] Setting up inception_3b/3x3
I0414 08:08:59.013241   669 net.cpp:103] Top shape: 32 192 20 20 (2457600)
I0414 08:08:59.013259   669 net.cpp:113] Memory required for data: 483328512
I0414 08:08:59.013281   669 net.cpp:67] Creating Layer inception_3b/relu_3x3
I0414 08:08:59.013293   669 net.cpp:394] inception_3b/relu_3x3 <- inception_3b/3x3
I0414 08:08:59.013314   669 net.cpp:345] inception_3b/relu_3x3 -> inception_3b/3x3 (in-place)
I0414 08:08:59.013330   669 net.cpp:96] Setting up inception_3b/relu_3x3
I0414 08:08:59.013339   669 net.cpp:103] Top shape: 32 192 20 20 (2457600)
I0414 08:08:59.013345   669 net.cpp:113] Memory required for data: 493158912
I0414 08:08:59.013361   669 net.cpp:67] Creating Layer inception_3b/5x5_reduce
I0414 08:08:59.013371   669 net.cpp:394] inception_3b/5x5_reduce <- inception_3a/output_inception_3a/output_0_split_2
I0414 08:08:59.013396   669 net.cpp:356] inception_3b/5x5_reduce -> inception_3b/5x5_reduce
I0414 08:08:59.013413   669 net.cpp:96] Setting up inception_3b/5x5_reduce
I0414 08:08:59.013981   669 net.cpp:103] Top shape: 32 32 20 20 (409600)
I0414 08:08:59.013998   669 net.cpp:113] Memory required for data: 494797312
I0414 08:08:59.014015   669 net.cpp:67] Creating Layer inception_3b/relu_5x5_reduce
I0414 08:08:59.014026   669 net.cpp:394] inception_3b/relu_5x5_reduce <- inception_3b/5x5_reduce
I0414 08:08:59.014046   669 net.cpp:345] inception_3b/relu_5x5_reduce -> inception_3b/5x5_reduce (in-place)
I0414 08:08:59.014062   669 net.cpp:96] Setting up inception_3b/relu_5x5_reduce
I0414 08:08:59.014070   669 net.cpp:103] Top shape: 32 32 20 20 (409600)
I0414 08:08:59.014076   669 net.cpp:113] Memory required for data: 496435712
I0414 08:08:59.014091   669 net.cpp:67] Creating Layer inception_3b/5x5
I0414 08:08:59.014101   669 net.cpp:394] inception_3b/5x5 <- inception_3b/5x5_reduce
I0414 08:08:59.014119   669 net.cpp:356] inception_3b/5x5 -> inception_3b/5x5
I0414 08:08:59.014149   669 net.cpp:96] Setting up inception_3b/5x5
I0414 08:08:59.019222   669 net.cpp:103] Top shape: 32 96 20 20 (1228800)
I0414 08:08:59.019237   669 net.cpp:113] Memory required for data: 501350912
I0414 08:08:59.019258   669 net.cpp:67] Creating Layer inception_3b/relu_5x5
I0414 08:08:59.019268   669 net.cpp:394] inception_3b/relu_5x5 <- inception_3b/5x5
I0414 08:08:59.019289   669 net.cpp:345] inception_3b/relu_5x5 -> inception_3b/5x5 (in-place)
I0414 08:08:59.019304   669 net.cpp:96] Setting up inception_3b/relu_5x5
I0414 08:08:59.019312   669 net.cpp:103] Top shape: 32 96 20 20 (1228800)
I0414 08:08:59.019320   669 net.cpp:113] Memory required for data: 506266112
I0414 08:08:59.019335   669 net.cpp:67] Creating Layer inception_3b/pool
I0414 08:08:59.019342   669 net.cpp:394] inception_3b/pool <- inception_3a/output_inception_3a/output_0_split_3
I0414 08:08:59.019364   669 net.cpp:356] inception_3b/pool -> inception_3b/pool
I0414 08:08:59.019381   669 net.cpp:96] Setting up inception_3b/pool
I0414 08:08:59.019393   669 net.cpp:103] Top shape: 32 256 20 20 (3276800)
I0414 08:08:59.019400   669 net.cpp:113] Memory required for data: 519373312
I0414 08:08:59.019422   669 net.cpp:67] Creating Layer inception_3b/pool_proj
I0414 08:08:59.019433   669 net.cpp:394] inception_3b/pool_proj <- inception_3b/pool
I0414 08:08:59.019454   669 net.cpp:356] inception_3b/pool_proj -> inception_3b/pool_proj
I0414 08:08:59.019472   669 net.cpp:96] Setting up inception_3b/pool_proj
I0414 08:08:59.020606   669 net.cpp:103] Top shape: 32 64 20 20 (819200)
I0414 08:08:59.020623   669 net.cpp:113] Memory required for data: 522650112
I0414 08:08:59.020643   669 net.cpp:67] Creating Layer inception_3b/relu_pool_proj
I0414 08:08:59.020654   669 net.cpp:394] inception_3b/relu_pool_proj <- inception_3b/pool_proj
I0414 08:08:59.020671   669 net.cpp:345] inception_3b/relu_pool_proj -> inception_3b/pool_proj (in-place)
I0414 08:08:59.020686   669 net.cpp:96] Setting up inception_3b/relu_pool_proj
I0414 08:08:59.020694   669 net.cpp:103] Top shape: 32 64 20 20 (819200)
I0414 08:08:59.020700   669 net.cpp:113] Memory required for data: 525926912
I0414 08:08:59.020716   669 net.cpp:67] Creating Layer inception_3b/output
I0414 08:08:59.020726   669 net.cpp:394] inception_3b/output <- inception_3b/1x1
I0414 08:08:59.020741   669 net.cpp:394] inception_3b/output <- inception_3b/3x3
I0414 08:08:59.020753   669 net.cpp:394] inception_3b/output <- inception_3b/5x5
I0414 08:08:59.020766   669 net.cpp:394] inception_3b/output <- inception_3b/pool_proj
I0414 08:08:59.020778   669 net.cpp:356] inception_3b/output -> inception_3b/output
I0414 08:08:59.020794   669 net.cpp:96] Setting up inception_3b/output
I0414 08:08:59.020804   669 net.cpp:103] Top shape: 32 480 20 20 (6144000)
I0414 08:08:59.020812   669 net.cpp:113] Memory required for data: 550502912
I0414 08:08:59.020828   669 net.cpp:67] Creating Layer pool3/3x3_s2
I0414 08:08:59.020838   669 net.cpp:394] pool3/3x3_s2 <- inception_3b/output
I0414 08:08:59.020856   669 net.cpp:356] pool3/3x3_s2 -> pool3/3x3_s2
I0414 08:08:59.020871   669 net.cpp:96] Setting up pool3/3x3_s2
I0414 08:08:59.020884   669 net.cpp:103] Top shape: 32 480 10 10 (1536000)
I0414 08:08:59.020890   669 net.cpp:113] Memory required for data: 556646912
I0414 08:08:59.020906   669 net.cpp:67] Creating Layer pool3/3x3_s2_pool3/3x3_s2_0_split
I0414 08:08:59.020915   669 net.cpp:394] pool3/3x3_s2_pool3/3x3_s2_0_split <- pool3/3x3_s2
I0414 08:08:59.020931   669 net.cpp:356] pool3/3x3_s2_pool3/3x3_s2_0_split -> pool3/3x3_s2_pool3/3x3_s2_0_split_0
I0414 08:08:59.020952   669 net.cpp:356] pool3/3x3_s2_pool3/3x3_s2_0_split -> pool3/3x3_s2_pool3/3x3_s2_0_split_1
I0414 08:08:59.020972   669 net.cpp:356] pool3/3x3_s2_pool3/3x3_s2_0_split -> pool3/3x3_s2_pool3/3x3_s2_0_split_2
I0414 08:08:59.020987   669 net.cpp:356] pool3/3x3_s2_pool3/3x3_s2_0_split -> pool3/3x3_s2_pool3/3x3_s2_0_split_3
I0414 08:08:59.021000   669 net.cpp:96] Setting up pool3/3x3_s2_pool3/3x3_s2_0_split
I0414 08:08:59.021013   669 net.cpp:103] Top shape: 32 480 10 10 (1536000)
I0414 08:08:59.021019   669 net.cpp:103] Top shape: 32 480 10 10 (1536000)
I0414 08:08:59.021026   669 net.cpp:103] Top shape: 32 480 10 10 (1536000)
I0414 08:08:59.021034   669 net.cpp:103] Top shape: 32 480 10 10 (1536000)
I0414 08:08:59.021039   669 net.cpp:113] Memory required for data: 581222912
I0414 08:08:59.021059   669 net.cpp:67] Creating Layer inception_4a/1x1
I0414 08:08:59.021069   669 net.cpp:394] inception_4a/1x1 <- pool3/3x3_s2_pool3/3x3_s2_0_split_0
I0414 08:08:59.021087   669 net.cpp:356] inception_4a/1x1 -> inception_4a/1x1
I0414 08:08:59.021102   669 net.cpp:96] Setting up inception_4a/1x1
I0414 08:08:59.027194   669 net.cpp:103] Top shape: 32 192 10 10 (614400)
I0414 08:08:59.027212   669 net.cpp:113] Memory required for data: 583680512
I0414 08:08:59.027235   669 net.cpp:67] Creating Layer inception_4a/relu_1x1
I0414 08:08:59.027245   669 net.cpp:394] inception_4a/relu_1x1 <- inception_4a/1x1
I0414 08:08:59.027266   669 net.cpp:345] inception_4a/relu_1x1 -> inception_4a/1x1 (in-place)
I0414 08:08:59.027281   669 net.cpp:96] Setting up inception_4a/relu_1x1
I0414 08:08:59.027288   669 net.cpp:103] Top shape: 32 192 10 10 (614400)
I0414 08:08:59.027294   669 net.cpp:113] Memory required for data: 586138112
I0414 08:08:59.027309   669 net.cpp:67] Creating Layer inception_4a/3x3_reduce
I0414 08:08:59.027318   669 net.cpp:394] inception_4a/3x3_reduce <- pool3/3x3_s2_pool3/3x3_s2_0_split_1
I0414 08:08:59.027338   669 net.cpp:356] inception_4a/3x3_reduce -> inception_4a/3x3_reduce
I0414 08:08:59.027355   669 net.cpp:96] Setting up inception_4a/3x3_reduce
I0414 08:08:59.030428   669 net.cpp:103] Top shape: 32 96 10 10 (307200)
I0414 08:08:59.030447   669 net.cpp:113] Memory required for data: 587366912
I0414 08:08:59.030486   669 net.cpp:67] Creating Layer inception_4a/relu_3x3_reduce
I0414 08:08:59.030498   669 net.cpp:394] inception_4a/relu_3x3_reduce <- inception_4a/3x3_reduce
I0414 08:08:59.030515   669 net.cpp:345] inception_4a/relu_3x3_reduce -> inception_4a/3x3_reduce (in-place)
I0414 08:08:59.030530   669 net.cpp:96] Setting up inception_4a/relu_3x3_reduce
I0414 08:08:59.030537   669 net.cpp:103] Top shape: 32 96 10 10 (307200)
I0414 08:08:59.030544   669 net.cpp:113] Memory required for data: 588595712
I0414 08:08:59.030563   669 net.cpp:67] Creating Layer inception_4a/3x3
I0414 08:08:59.030573   669 net.cpp:394] inception_4a/3x3 <- inception_4a/3x3_reduce
I0414 08:08:59.030593   669 net.cpp:356] inception_4a/3x3 -> inception_4a/3x3
I0414 08:08:59.030611   669 net.cpp:96] Setting up inception_4a/3x3
I0414 08:08:59.042426   669 net.cpp:103] Top shape: 32 208 10 10 (665600)
I0414 08:08:59.042446   669 net.cpp:113] Memory required for data: 591258112
I0414 08:08:59.042470   669 net.cpp:67] Creating Layer inception_4a/relu_3x3
I0414 08:08:59.042482   669 net.cpp:394] inception_4a/relu_3x3 <- inception_4a/3x3
I0414 08:08:59.042500   669 net.cpp:345] inception_4a/relu_3x3 -> inception_4a/3x3 (in-place)
I0414 08:08:59.042515   669 net.cpp:96] Setting up inception_4a/relu_3x3
I0414 08:08:59.042522   669 net.cpp:103] Top shape: 32 208 10 10 (665600)
I0414 08:08:59.042529   669 net.cpp:113] Memory required for data: 593920512
I0414 08:08:59.042549   669 net.cpp:67] Creating Layer inception_4a/5x5_reduce
I0414 08:08:59.042561   669 net.cpp:394] inception_4a/5x5_reduce <- pool3/3x3_s2_pool3/3x3_s2_0_split_2
I0414 08:08:59.042583   669 net.cpp:356] inception_4a/5x5_reduce -> inception_4a/5x5_reduce
I0414 08:08:59.042601   669 net.cpp:96] Setting up inception_4a/5x5_reduce
I0414 08:08:59.043148   669 net.cpp:103] Top shape: 32 16 10 10 (51200)
I0414 08:08:59.043164   669 net.cpp:113] Memory required for data: 594125312
I0414 08:08:59.043189   669 net.cpp:67] Creating Layer inception_4a/relu_5x5_reduce
I0414 08:08:59.043200   669 net.cpp:394] inception_4a/relu_5x5_reduce <- inception_4a/5x5_reduce
I0414 08:08:59.043216   669 net.cpp:345] inception_4a/relu_5x5_reduce -> inception_4a/5x5_reduce (in-place)
I0414 08:08:59.043232   669 net.cpp:96] Setting up inception_4a/relu_5x5_reduce
I0414 08:08:59.043241   669 net.cpp:103] Top shape: 32 16 10 10 (51200)
I0414 08:08:59.043246   669 net.cpp:113] Memory required for data: 594330112
I0414 08:08:59.043264   669 net.cpp:67] Creating Layer inception_4a/5x5
I0414 08:08:59.043274   669 net.cpp:394] inception_4a/5x5 <- inception_4a/5x5_reduce
I0414 08:08:59.043294   669 net.cpp:356] inception_4a/5x5 -> inception_4a/5x5
I0414 08:08:59.043311   669 net.cpp:96] Setting up inception_4a/5x5
I0414 08:08:59.044903   669 net.cpp:103] Top shape: 32 48 10 10 (153600)
I0414 08:08:59.044924   669 net.cpp:113] Memory required for data: 594944512
I0414 08:08:59.044946   669 net.cpp:67] Creating Layer inception_4a/relu_5x5
I0414 08:08:59.044956   669 net.cpp:394] inception_4a/relu_5x5 <- inception_4a/5x5
I0414 08:08:59.044977   669 net.cpp:345] inception_4a/relu_5x5 -> inception_4a/5x5 (in-place)
I0414 08:08:59.044993   669 net.cpp:96] Setting up inception_4a/relu_5x5
I0414 08:08:59.045001   669 net.cpp:103] Top shape: 32 48 10 10 (153600)
I0414 08:08:59.045006   669 net.cpp:113] Memory required for data: 595558912
I0414 08:08:59.045019   669 net.cpp:67] Creating Layer inception_4a/pool
I0414 08:08:59.045027   669 net.cpp:394] inception_4a/pool <- pool3/3x3_s2_pool3/3x3_s2_0_split_3
I0414 08:08:59.045044   669 net.cpp:356] inception_4a/pool -> inception_4a/pool
I0414 08:08:59.045060   669 net.cpp:96] Setting up inception_4a/pool
I0414 08:08:59.045078   669 net.cpp:103] Top shape: 32 480 10 10 (1536000)
I0414 08:08:59.045084   669 net.cpp:113] Memory required for data: 601702912
I0414 08:08:59.045104   669 net.cpp:67] Creating Layer inception_4a/pool_proj
I0414 08:08:59.045114   669 net.cpp:394] inception_4a/pool_proj <- inception_4a/pool
I0414 08:08:59.045135   669 net.cpp:356] inception_4a/pool_proj -> inception_4a/pool_proj
I0414 08:08:59.045161   669 net.cpp:96] Setting up inception_4a/pool_proj
I0414 08:08:59.047080   669 net.cpp:103] Top shape: 32 64 10 10 (204800)
I0414 08:08:59.047096   669 net.cpp:113] Memory required for data: 602522112
I0414 08:08:59.047117   669 net.cpp:67] Creating Layer inception_4a/relu_pool_proj
I0414 08:08:59.047127   669 net.cpp:394] inception_4a/relu_pool_proj <- inception_4a/pool_proj
I0414 08:08:59.047148   669 net.cpp:345] inception_4a/relu_pool_proj -> inception_4a/pool_proj (in-place)
I0414 08:08:59.047163   669 net.cpp:96] Setting up inception_4a/relu_pool_proj
I0414 08:08:59.047178   669 net.cpp:103] Top shape: 32 64 10 10 (204800)
I0414 08:08:59.047185   669 net.cpp:113] Memory required for data: 603341312
I0414 08:08:59.047199   669 net.cpp:67] Creating Layer inception_4a/output
I0414 08:08:59.047209   669 net.cpp:394] inception_4a/output <- inception_4a/1x1
I0414 08:08:59.047224   669 net.cpp:394] inception_4a/output <- inception_4a/3x3
I0414 08:08:59.047235   669 net.cpp:394] inception_4a/output <- inception_4a/5x5
I0414 08:08:59.047251   669 net.cpp:394] inception_4a/output <- inception_4a/pool_proj
I0414 08:08:59.047266   669 net.cpp:356] inception_4a/output -> inception_4a/output
I0414 08:08:59.047282   669 net.cpp:96] Setting up inception_4a/output
I0414 08:08:59.047293   669 net.cpp:103] Top shape: 32 512 10 10 (1638400)
I0414 08:08:59.047301   669 net.cpp:113] Memory required for data: 609894912
I0414 08:08:59.047313   669 net.cpp:67] Creating Layer inception_4a/output_inception_4a/output_0_split
I0414 08:08:59.047322   669 net.cpp:394] inception_4a/output_inception_4a/output_0_split <- inception_4a/output
I0414 08:08:59.047348   669 net.cpp:356] inception_4a/output_inception_4a/output_0_split -> inception_4a/output_inception_4a/output_0_split_0
I0414 08:08:59.047372   669 net.cpp:356] inception_4a/output_inception_4a/output_0_split -> inception_4a/output_inception_4a/output_0_split_1
I0414 08:08:59.047390   669 net.cpp:356] inception_4a/output_inception_4a/output_0_split -> inception_4a/output_inception_4a/output_0_split_2
I0414 08:08:59.047418   669 net.cpp:356] inception_4a/output_inception_4a/output_0_split -> inception_4a/output_inception_4a/output_0_split_3
I0414 08:08:59.047435   669 net.cpp:356] inception_4a/output_inception_4a/output_0_split -> inception_4a/output_inception_4a/output_0_split_4
I0414 08:08:59.047451   669 net.cpp:96] Setting up inception_4a/output_inception_4a/output_0_split
I0414 08:08:59.047471   669 net.cpp:103] Top shape: 32 512 10 10 (1638400)
I0414 08:08:59.047478   669 net.cpp:103] Top shape: 32 512 10 10 (1638400)
I0414 08:08:59.047484   669 net.cpp:103] Top shape: 32 512 10 10 (1638400)
I0414 08:08:59.047492   669 net.cpp:103] Top shape: 32 512 10 10 (1638400)
I0414 08:08:59.047498   669 net.cpp:103] Top shape: 32 512 10 10 (1638400)
I0414 08:08:59.047504   669 net.cpp:113] Memory required for data: 642662912
I0414 08:08:59.047518   669 net.cpp:67] Creating Layer loss1/ave_pool
I0414 08:08:59.047528   669 net.cpp:394] loss1/ave_pool <- inception_4a/output_inception_4a/output_0_split_0
I0414 08:08:59.047564   669 net.cpp:356] loss1/ave_pool -> loss1/ave_pool
I0414 08:08:59.047585   669 net.cpp:96] Setting up loss1/ave_pool
I0414 08:08:59.047597   669 net.cpp:103] Top shape: 32 512 3 3 (147456)
I0414 08:08:59.047605   669 net.cpp:113] Memory required for data: 643252736
I0414 08:08:59.047626   669 net.cpp:67] Creating Layer loss1/conv
I0414 08:08:59.047644   669 net.cpp:394] loss1/conv <- loss1/ave_pool
I0414 08:08:59.047665   669 net.cpp:356] loss1/conv -> loss1/conv
I0414 08:08:59.047683   669 net.cpp:96] Setting up loss1/conv
I0414 08:08:59.051758   669 net.cpp:103] Top shape: 32 128 3 3 (36864)
I0414 08:08:59.051774   669 net.cpp:113] Memory required for data: 643400192
I0414 08:08:59.051794   669 net.cpp:67] Creating Layer loss1/relu_conv
I0414 08:08:59.051803   669 net.cpp:394] loss1/relu_conv <- loss1/conv
I0414 08:08:59.051825   669 net.cpp:345] loss1/relu_conv -> loss1/conv (in-place)
I0414 08:08:59.051844   669 net.cpp:96] Setting up loss1/relu_conv
I0414 08:08:59.051857   669 net.cpp:103] Top shape: 32 128 3 3 (36864)
I0414 08:08:59.051863   669 net.cpp:113] Memory required for data: 643547648
I0414 08:08:59.051880   669 net.cpp:67] Creating Layer loss1/fd_fc
I0414 08:08:59.051889   669 net.cpp:394] loss1/fd_fc <- loss1/conv
I0414 08:08:59.051909   669 net.cpp:356] loss1/fd_fc -> loss1/fd_fc
I0414 08:08:59.051934   669 net.cpp:96] Setting up loss1/fd_fc
I0414 08:08:59.125113   669 net.cpp:103] Top shape: 32 1024 1 1 (32768)
I0414 08:08:59.125140   669 net.cpp:113] Memory required for data: 643678720
I0414 08:08:59.125175   669 net.cpp:67] Creating Layer loss1/relu_fc
I0414 08:08:59.125190   669 net.cpp:394] loss1/relu_fc <- loss1/fd_fc
I0414 08:08:59.125212   669 net.cpp:345] loss1/relu_fc -> loss1/fd_fc (in-place)
I0414 08:08:59.125231   669 net.cpp:96] Setting up loss1/relu_fc
I0414 08:08:59.125241   669 net.cpp:103] Top shape: 32 1024 1 1 (32768)
I0414 08:08:59.125247   669 net.cpp:113] Memory required for data: 643809792
I0414 08:08:59.125294   669 net.cpp:67] Creating Layer loss1/drop_fc
I0414 08:08:59.125311   669 net.cpp:394] loss1/drop_fc <- loss1/fd_fc
I0414 08:08:59.125330   669 net.cpp:345] loss1/drop_fc -> loss1/fd_fc (in-place)
I0414 08:08:59.125345   669 net.cpp:96] Setting up loss1/drop_fc
I0414 08:08:59.125356   669 net.cpp:103] Top shape: 32 1024 1 1 (32768)
I0414 08:08:59.125362   669 net.cpp:113] Memory required for data: 643940864
I0414 08:08:59.125383   669 net.cpp:67] Creating Layer fd_loss1/classifier
I0414 08:08:59.125401   669 net.cpp:394] fd_loss1/classifier <- loss1/fd_fc
I0414 08:08:59.125422   669 net.cpp:356] fd_loss1/classifier -> fd_loss1/classifier
I0414 08:08:59.125439   669 net.cpp:96] Setting up fd_loss1/classifier
I0414 08:08:59.125607   669 net.cpp:103] Top shape: 32 2 1 1 (64)
I0414 08:08:59.125620   669 net.cpp:113] Memory required for data: 643941120
I0414 08:08:59.125648   669 net.cpp:67] Creating Layer loss1/loss
I0414 08:08:59.125658   669 net.cpp:394] loss1/loss <- fd_loss1/classifier
I0414 08:08:59.125674   669 net.cpp:394] loss1/loss <- label_data_1_split_0
I0414 08:08:59.125690   669 net.cpp:356] loss1/loss -> loss1/loss1
I0414 08:08:59.125716   669 net.cpp:96] Setting up loss1/loss
I0414 08:08:59.125740   669 net.cpp:103] Top shape: 1 1 1 1 (1)
I0414 08:08:59.125756   669 net.cpp:109]     with loss weight 0.3
I0414 08:08:59.126701   669 net.cpp:113] Memory required for data: 643941124
I0414 08:08:59.126729   669 net.cpp:67] Creating Layer inception_4b/1x1
I0414 08:08:59.126741   669 net.cpp:394] inception_4b/1x1 <- inception_4a/output_inception_4a/output_0_split_1
I0414 08:08:59.126765   669 net.cpp:356] inception_4b/1x1 -> inception_4b/1x1
I0414 08:08:59.126788   669 net.cpp:96] Setting up inception_4b/1x1
I0414 08:08:59.131944   669 net.cpp:103] Top shape: 32 160 10 10 (512000)
I0414 08:08:59.131960   669 net.cpp:113] Memory required for data: 645989124
I0414 08:08:59.131986   669 net.cpp:67] Creating Layer inception_4b/relu_1x1
I0414 08:08:59.131997   669 net.cpp:394] inception_4b/relu_1x1 <- inception_4b/1x1
I0414 08:08:59.132014   669 net.cpp:345] inception_4b/relu_1x1 -> inception_4b/1x1 (in-place)
I0414 08:08:59.132030   669 net.cpp:96] Setting up inception_4b/relu_1x1
I0414 08:08:59.132038   669 net.cpp:103] Top shape: 32 160 10 10 (512000)
I0414 08:08:59.132045   669 net.cpp:113] Memory required for data: 648037124
I0414 08:08:59.132064   669 net.cpp:67] Creating Layer inception_4b/3x3_reduce
I0414 08:08:59.132074   669 net.cpp:394] inception_4b/3x3_reduce <- inception_4a/output_inception_4a/output_0_split_2
I0414 08:08:59.132094   669 net.cpp:356] inception_4b/3x3_reduce -> inception_4b/3x3_reduce
I0414 08:08:59.132115   669 net.cpp:96] Setting up inception_4b/3x3_reduce
I0414 08:08:59.135704   669 net.cpp:103] Top shape: 32 112 10 10 (358400)
I0414 08:08:59.135721   669 net.cpp:113] Memory required for data: 649470724
I0414 08:08:59.135741   669 net.cpp:67] Creating Layer inception_4b/relu_3x3_reduce
I0414 08:08:59.135752   669 net.cpp:394] inception_4b/relu_3x3_reduce <- inception_4b/3x3_reduce
I0414 08:08:59.135769   669 net.cpp:345] inception_4b/relu_3x3_reduce -> inception_4b/3x3_reduce (in-place)
I0414 08:08:59.135783   669 net.cpp:96] Setting up inception_4b/relu_3x3_reduce
I0414 08:08:59.135792   669 net.cpp:103] Top shape: 32 112 10 10 (358400)
I0414 08:08:59.135797   669 net.cpp:113] Memory required for data: 650904324
I0414 08:08:59.135818   669 net.cpp:67] Creating Layer inception_4b/3x3
I0414 08:08:59.135826   669 net.cpp:394] inception_4b/3x3 <- inception_4b/3x3_reduce
I0414 08:08:59.135846   669 net.cpp:356] inception_4b/3x3 -> inception_4b/3x3
I0414 08:08:59.135866   669 net.cpp:96] Setting up inception_4b/3x3
I0414 08:08:59.149802   669 net.cpp:103] Top shape: 32 224 10 10 (716800)
I0414 08:08:59.149819   669 net.cpp:113] Memory required for data: 653771524
I0414 08:08:59.149842   669 net.cpp:67] Creating Layer inception_4b/relu_3x3
I0414 08:08:59.149852   669 net.cpp:394] inception_4b/relu_3x3 <- inception_4b/3x3
I0414 08:08:59.149873   669 net.cpp:345] inception_4b/relu_3x3 -> inception_4b/3x3 (in-place)
I0414 08:08:59.149889   669 net.cpp:96] Setting up inception_4b/relu_3x3
I0414 08:08:59.149898   669 net.cpp:103] Top shape: 32 224 10 10 (716800)
I0414 08:08:59.149904   669 net.cpp:113] Memory required for data: 656638724
I0414 08:08:59.149919   669 net.cpp:67] Creating Layer inception_4b/5x5_reduce
I0414 08:08:59.149929   669 net.cpp:394] inception_4b/5x5_reduce <- inception_4a/output_inception_4a/output_0_split_3
I0414 08:08:59.149952   669 net.cpp:356] inception_4b/5x5_reduce -> inception_4b/5x5_reduce
I0414 08:08:59.149973   669 net.cpp:96] Setting up inception_4b/5x5_reduce
I0414 08:08:59.150761   669 net.cpp:103] Top shape: 32 24 10 10 (76800)
I0414 08:08:59.150776   669 net.cpp:113] Memory required for data: 656945924
I0414 08:08:59.150796   669 net.cpp:67] Creating Layer inception_4b/relu_5x5_reduce
I0414 08:08:59.150809   669 net.cpp:394] inception_4b/relu_5x5_reduce <- inception_4b/5x5_reduce
I0414 08:08:59.150832   669 net.cpp:345] inception_4b/relu_5x5_reduce -> inception_4b/5x5_reduce (in-place)
I0414 08:08:59.150856   669 net.cpp:96] Setting up inception_4b/relu_5x5_reduce
I0414 08:08:59.150864   669 net.cpp:103] Top shape: 32 24 10 10 (76800)
I0414 08:08:59.150871   669 net.cpp:113] Memory required for data: 657253124
I0414 08:08:59.150885   669 net.cpp:67] Creating Layer inception_4b/5x5
I0414 08:08:59.150895   669 net.cpp:394] inception_4b/5x5 <- inception_4b/5x5_reduce
I0414 08:08:59.150919   669 net.cpp:356] inception_4b/5x5 -> inception_4b/5x5
I0414 08:08:59.150939   669 net.cpp:96] Setting up inception_4b/5x5
I0414 08:08:59.153357   669 net.cpp:103] Top shape: 32 64 10 10 (204800)
I0414 08:08:59.153373   669 net.cpp:113] Memory required for data: 658072324
I0414 08:08:59.153394   669 net.cpp:67] Creating Layer inception_4b/relu_5x5
I0414 08:08:59.153404   669 net.cpp:394] inception_4b/relu_5x5 <- inception_4b/5x5
I0414 08:08:59.153422   669 net.cpp:345] inception_4b/relu_5x5 -> inception_4b/5x5 (in-place)
I0414 08:08:59.153436   669 net.cpp:96] Setting up inception_4b/relu_5x5
I0414 08:08:59.153445   669 net.cpp:103] Top shape: 32 64 10 10 (204800)
I0414 08:08:59.153451   669 net.cpp:113] Memory required for data: 658891524
I0414 08:08:59.153465   669 net.cpp:67] Creating Layer inception_4b/pool
I0414 08:08:59.153475   669 net.cpp:394] inception_4b/pool <- inception_4a/output_inception_4a/output_0_split_4
I0414 08:08:59.153499   669 net.cpp:356] inception_4b/pool -> inception_4b/pool
I0414 08:08:59.153551   669 net.cpp:96] Setting up inception_4b/pool
I0414 08:08:59.153575   669 net.cpp:103] Top shape: 32 512 10 10 (1638400)
I0414 08:08:59.153584   669 net.cpp:113] Memory required for data: 665445124
I0414 08:08:59.153600   669 net.cpp:67] Creating Layer inception_4b/pool_proj
I0414 08:08:59.153610   669 net.cpp:394] inception_4b/pool_proj <- inception_4b/pool
I0414 08:08:59.153635   669 net.cpp:356] inception_4b/pool_proj -> inception_4b/pool_proj
I0414 08:08:59.153656   669 net.cpp:96] Setting up inception_4b/pool_proj
I0414 08:08:59.155725   669 net.cpp:103] Top shape: 32 64 10 10 (204800)
I0414 08:08:59.155740   669 net.cpp:113] Memory required for data: 666264324
I0414 08:08:59.155764   669 net.cpp:67] Creating Layer inception_4b/relu_pool_proj
I0414 08:08:59.155776   669 net.cpp:394] inception_4b/relu_pool_proj <- inception_4b/pool_proj
I0414 08:08:59.155793   669 net.cpp:345] inception_4b/relu_pool_proj -> inception_4b/pool_proj (in-place)
I0414 08:08:59.155808   669 net.cpp:96] Setting up inception_4b/relu_pool_proj
I0414 08:08:59.155817   669 net.cpp:103] Top shape: 32 64 10 10 (204800)
I0414 08:08:59.155822   669 net.cpp:113] Memory required for data: 667083524
I0414 08:08:59.155834   669 net.cpp:67] Creating Layer inception_4b/output
I0414 08:08:59.155843   669 net.cpp:394] inception_4b/output <- inception_4b/1x1
I0414 08:08:59.155858   669 net.cpp:394] inception_4b/output <- inception_4b/3x3
I0414 08:08:59.155870   669 net.cpp:394] inception_4b/output <- inception_4b/5x5
I0414 08:08:59.155881   669 net.cpp:394] inception_4b/output <- inception_4b/pool_proj
I0414 08:08:59.155900   669 net.cpp:356] inception_4b/output -> inception_4b/output
I0414 08:08:59.155916   669 net.cpp:96] Setting up inception_4b/output
I0414 08:08:59.155936   669 net.cpp:103] Top shape: 32 512 10 10 (1638400)
I0414 08:08:59.155943   669 net.cpp:113] Memory required for data: 673637124
I0414 08:08:59.155956   669 net.cpp:67] Creating Layer inception_4b/output_inception_4b/output_0_split
I0414 08:08:59.155966   669 net.cpp:394] inception_4b/output_inception_4b/output_0_split <- inception_4b/output
I0414 08:08:59.155984   669 net.cpp:356] inception_4b/output_inception_4b/output_0_split -> inception_4b/output_inception_4b/output_0_split_0
I0414 08:08:59.156003   669 net.cpp:356] inception_4b/output_inception_4b/output_0_split -> inception_4b/output_inception_4b/output_0_split_1
I0414 08:08:59.156028   669 net.cpp:356] inception_4b/output_inception_4b/output_0_split -> inception_4b/output_inception_4b/output_0_split_2
I0414 08:08:59.156067   669 net.cpp:356] inception_4b/output_inception_4b/output_0_split -> inception_4b/output_inception_4b/output_0_split_3
I0414 08:08:59.156082   669 net.cpp:96] Setting up inception_4b/output_inception_4b/output_0_split
I0414 08:08:59.156096   669 net.cpp:103] Top shape: 32 512 10 10 (1638400)
I0414 08:08:59.156103   669 net.cpp:103] Top shape: 32 512 10 10 (1638400)
I0414 08:08:59.156111   669 net.cpp:103] Top shape: 32 512 10 10 (1638400)
I0414 08:08:59.156117   669 net.cpp:103] Top shape: 32 512 10 10 (1638400)
I0414 08:08:59.156124   669 net.cpp:113] Memory required for data: 699851524
I0414 08:08:59.156139   669 net.cpp:67] Creating Layer inception_4c/1x1
I0414 08:08:59.156148   669 net.cpp:394] inception_4c/1x1 <- inception_4b/output_inception_4b/output_0_split_0
I0414 08:08:59.156173   669 net.cpp:356] inception_4c/1x1 -> inception_4c/1x1
I0414 08:08:59.156199   669 net.cpp:96] Setting up inception_4c/1x1
I0414 08:08:59.160274   669 net.cpp:103] Top shape: 32 128 10 10 (409600)
I0414 08:08:59.160291   669 net.cpp:113] Memory required for data: 701489924
I0414 08:08:59.160311   669 net.cpp:67] Creating Layer inception_4c/relu_1x1
I0414 08:08:59.160322   669 net.cpp:394] inception_4c/relu_1x1 <- inception_4c/1x1
I0414 08:08:59.160339   669 net.cpp:345] inception_4c/relu_1x1 -> inception_4c/1x1 (in-place)
I0414 08:08:59.160354   669 net.cpp:96] Setting up inception_4c/relu_1x1
I0414 08:08:59.160362   669 net.cpp:103] Top shape: 32 128 10 10 (409600)
I0414 08:08:59.160369   669 net.cpp:113] Memory required for data: 703128324
I0414 08:08:59.160393   669 net.cpp:67] Creating Layer inception_4c/3x3_reduce
I0414 08:08:59.160403   669 net.cpp:394] inception_4c/3x3_reduce <- inception_4b/output_inception_4b/output_0_split_1
I0414 08:08:59.160425   669 net.cpp:356] inception_4c/3x3_reduce -> inception_4c/3x3_reduce
I0414 08:08:59.160446   669 net.cpp:96] Setting up inception_4c/3x3_reduce
I0414 08:08:59.164535   669 net.cpp:103] Top shape: 32 128 10 10 (409600)
I0414 08:08:59.164551   669 net.cpp:113] Memory required for data: 704766724
I0414 08:08:59.164572   669 net.cpp:67] Creating Layer inception_4c/relu_3x3_reduce
I0414 08:08:59.164582   669 net.cpp:394] inception_4c/relu_3x3_reduce <- inception_4c/3x3_reduce
I0414 08:08:59.164603   669 net.cpp:345] inception_4c/relu_3x3_reduce -> inception_4c/3x3_reduce (in-place)
I0414 08:08:59.164619   669 net.cpp:96] Setting up inception_4c/relu_3x3_reduce
I0414 08:08:59.164628   669 net.cpp:103] Top shape: 32 128 10 10 (409600)
I0414 08:08:59.164634   669 net.cpp:113] Memory required for data: 706405124
I0414 08:08:59.164654   669 net.cpp:67] Creating Layer inception_4c/3x3
I0414 08:08:59.164671   669 net.cpp:394] inception_4c/3x3 <- inception_4c/3x3_reduce
I0414 08:08:59.164692   669 net.cpp:356] inception_4c/3x3 -> inception_4c/3x3
I0414 08:08:59.164713   669 net.cpp:96] Setting up inception_4c/3x3
I0414 08:08:59.182942   669 net.cpp:103] Top shape: 32 256 10 10 (819200)
I0414 08:08:59.182961   669 net.cpp:113] Memory required for data: 709681924
I0414 08:08:59.183018   669 net.cpp:67] Creating Layer inception_4c/relu_3x3
I0414 08:08:59.183038   669 net.cpp:394] inception_4c/relu_3x3 <- inception_4c/3x3
I0414 08:08:59.183058   669 net.cpp:345] inception_4c/relu_3x3 -> inception_4c/3x3 (in-place)
I0414 08:08:59.183075   669 net.cpp:96] Setting up inception_4c/relu_3x3
I0414 08:08:59.183084   669 net.cpp:103] Top shape: 32 256 10 10 (819200)
I0414 08:08:59.183091   669 net.cpp:113] Memory required for data: 712958724
I0414 08:08:59.183111   669 net.cpp:67] Creating Layer inception_4c/5x5_reduce
I0414 08:08:59.183133   669 net.cpp:394] inception_4c/5x5_reduce <- inception_4b/output_inception_4b/output_0_split_2
I0414 08:08:59.183156   669 net.cpp:356] inception_4c/5x5_reduce -> inception_4c/5x5_reduce
I0414 08:08:59.183183   669 net.cpp:96] Setting up inception_4c/5x5_reduce
I0414 08:08:59.183989   669 net.cpp:103] Top shape: 32 24 10 10 (76800)
I0414 08:08:59.184003   669 net.cpp:113] Memory required for data: 713265924
I0414 08:08:59.184025   669 net.cpp:67] Creating Layer inception_4c/relu_5x5_reduce
I0414 08:08:59.184034   669 net.cpp:394] inception_4c/relu_5x5_reduce <- inception_4c/5x5_reduce
I0414 08:08:59.184051   669 net.cpp:345] inception_4c/relu_5x5_reduce -> inception_4c/5x5_reduce (in-place)
I0414 08:08:59.184067   669 net.cpp:96] Setting up inception_4c/relu_5x5_reduce
I0414 08:08:59.184074   669 net.cpp:103] Top shape: 32 24 10 10 (76800)
I0414 08:08:59.184082   669 net.cpp:113] Memory required for data: 713573124
I0414 08:08:59.184101   669 net.cpp:67] Creating Layer inception_4c/5x5
I0414 08:08:59.184111   669 net.cpp:394] inception_4c/5x5 <- inception_4c/5x5_reduce
I0414 08:08:59.184131   669 net.cpp:356] inception_4c/5x5 -> inception_4c/5x5
I0414 08:08:59.184151   669 net.cpp:96] Setting up inception_4c/5x5
I0414 08:08:59.186545   669 net.cpp:103] Top shape: 32 64 10 10 (204800)
I0414 08:08:59.186561   669 net.cpp:113] Memory required for data: 714392324
I0414 08:08:59.186581   669 net.cpp:67] Creating Layer inception_4c/relu_5x5
I0414 08:08:59.186592   669 net.cpp:394] inception_4c/relu_5x5 <- inception_4c/5x5
I0414 08:08:59.186612   669 net.cpp:345] inception_4c/relu_5x5 -> inception_4c/5x5 (in-place)
I0414 08:08:59.186627   669 net.cpp:96] Setting up inception_4c/relu_5x5
I0414 08:08:59.186645   669 net.cpp:103] Top shape: 32 64 10 10 (204800)
I0414 08:08:59.186650   669 net.cpp:113] Memory required for data: 715211524
I0414 08:08:59.186666   669 net.cpp:67] Creating Layer inception_4c/pool
I0414 08:08:59.186674   669 net.cpp:394] inception_4c/pool <- inception_4b/output_inception_4b/output_0_split_3
I0414 08:08:59.186693   669 net.cpp:356] inception_4c/pool -> inception_4c/pool
I0414 08:08:59.186710   669 net.cpp:96] Setting up inception_4c/pool
I0414 08:08:59.186733   669 net.cpp:103] Top shape: 32 512 10 10 (1638400)
I0414 08:08:59.186739   669 net.cpp:113] Memory required for data: 721765124
I0414 08:08:59.186763   669 net.cpp:67] Creating Layer inception_4c/pool_proj
I0414 08:08:59.186776   669 net.cpp:394] inception_4c/pool_proj <- inception_4c/pool
I0414 08:08:59.186799   669 net.cpp:356] inception_4c/pool_proj -> inception_4c/pool_proj
I0414 08:08:59.186816   669 net.cpp:96] Setting up inception_4c/pool_proj
I0414 08:08:59.188880   669 net.cpp:103] Top shape: 32 64 10 10 (204800)
I0414 08:08:59.188896   669 net.cpp:113] Memory required for data: 722584324
I0414 08:08:59.188916   669 net.cpp:67] Creating Layer inception_4c/relu_pool_proj
I0414 08:08:59.188927   669 net.cpp:394] inception_4c/relu_pool_proj <- inception_4c/pool_proj
I0414 08:08:59.188943   669 net.cpp:345] inception_4c/relu_pool_proj -> inception_4c/pool_proj (in-place)
I0414 08:08:59.188961   669 net.cpp:96] Setting up inception_4c/relu_pool_proj
I0414 08:08:59.188969   669 net.cpp:103] Top shape: 32 64 10 10 (204800)
I0414 08:08:59.188977   669 net.cpp:113] Memory required for data: 723403524
I0414 08:08:59.188994   669 net.cpp:67] Creating Layer inception_4c/output
I0414 08:08:59.189004   669 net.cpp:394] inception_4c/output <- inception_4c/1x1
I0414 08:08:59.189019   669 net.cpp:394] inception_4c/output <- inception_4c/3x3
I0414 08:08:59.189033   669 net.cpp:394] inception_4c/output <- inception_4c/5x5
I0414 08:08:59.189044   669 net.cpp:394] inception_4c/output <- inception_4c/pool_proj
I0414 08:08:59.189059   669 net.cpp:356] inception_4c/output -> inception_4c/output
I0414 08:08:59.189074   669 net.cpp:96] Setting up inception_4c/output
I0414 08:08:59.189085   669 net.cpp:103] Top shape: 32 512 10 10 (1638400)
I0414 08:08:59.189091   669 net.cpp:113] Memory required for data: 729957124
I0414 08:08:59.189103   669 net.cpp:67] Creating Layer inception_4c/output_inception_4c/output_0_split
I0414 08:08:59.189112   669 net.cpp:394] inception_4c/output_inception_4c/output_0_split <- inception_4c/output
I0414 08:08:59.189132   669 net.cpp:356] inception_4c/output_inception_4c/output_0_split -> inception_4c/output_inception_4c/output_0_split_0
I0414 08:08:59.189152   669 net.cpp:356] inception_4c/output_inception_4c/output_0_split -> inception_4c/output_inception_4c/output_0_split_1
I0414 08:08:59.189172   669 net.cpp:356] inception_4c/output_inception_4c/output_0_split -> inception_4c/output_inception_4c/output_0_split_2
I0414 08:08:59.189193   669 net.cpp:356] inception_4c/output_inception_4c/output_0_split -> inception_4c/output_inception_4c/output_0_split_3
I0414 08:08:59.189208   669 net.cpp:96] Setting up inception_4c/output_inception_4c/output_0_split
I0414 08:08:59.189220   669 net.cpp:103] Top shape: 32 512 10 10 (1638400)
I0414 08:08:59.189229   669 net.cpp:103] Top shape: 32 512 10 10 (1638400)
I0414 08:08:59.189235   669 net.cpp:103] Top shape: 32 512 10 10 (1638400)
I0414 08:08:59.189242   669 net.cpp:103] Top shape: 32 512 10 10 (1638400)
I0414 08:08:59.189249   669 net.cpp:113] Memory required for data: 756171524
I0414 08:08:59.189268   669 net.cpp:67] Creating Layer inception_4d/1x1
I0414 08:08:59.189278   669 net.cpp:394] inception_4d/1x1 <- inception_4c/output_inception_4c/output_0_split_0
I0414 08:08:59.189297   669 net.cpp:356] inception_4d/1x1 -> inception_4d/1x1
I0414 08:08:59.189324   669 net.cpp:96] Setting up inception_4d/1x1
I0414 08:08:59.192886   669 net.cpp:103] Top shape: 32 112 10 10 (358400)
I0414 08:08:59.192903   669 net.cpp:113] Memory required for data: 757605124
I0414 08:08:59.192922   669 net.cpp:67] Creating Layer inception_4d/relu_1x1
I0414 08:08:59.192934   669 net.cpp:394] inception_4d/relu_1x1 <- inception_4d/1x1
I0414 08:08:59.192955   669 net.cpp:345] inception_4d/relu_1x1 -> inception_4d/1x1 (in-place)
I0414 08:08:59.192971   669 net.cpp:96] Setting up inception_4d/relu_1x1
I0414 08:08:59.192996   669 net.cpp:103] Top shape: 32 112 10 10 (358400)
I0414 08:08:59.193003   669 net.cpp:113] Memory required for data: 759038724
I0414 08:08:59.193019   669 net.cpp:67] Creating Layer inception_4d/3x3_reduce
I0414 08:08:59.193028   669 net.cpp:394] inception_4d/3x3_reduce <- inception_4c/output_inception_4c/output_0_split_1
I0414 08:08:59.193054   669 net.cpp:356] inception_4d/3x3_reduce -> inception_4d/3x3_reduce
I0414 08:08:59.193073   669 net.cpp:96] Setting up inception_4d/3x3_reduce
I0414 08:08:59.197710   669 net.cpp:103] Top shape: 32 144 10 10 (460800)
I0414 08:08:59.197727   669 net.cpp:113] Memory required for data: 760881924
I0414 08:08:59.197748   669 net.cpp:67] Creating Layer inception_4d/relu_3x3_reduce
I0414 08:08:59.197759   669 net.cpp:394] inception_4d/relu_3x3_reduce <- inception_4d/3x3_reduce
I0414 08:08:59.197782   669 net.cpp:345] inception_4d/relu_3x3_reduce -> inception_4d/3x3_reduce (in-place)
I0414 08:08:59.197798   669 net.cpp:96] Setting up inception_4d/relu_3x3_reduce
I0414 08:08:59.197805   669 net.cpp:103] Top shape: 32 144 10 10 (460800)
I0414 08:08:59.197813   669 net.cpp:113] Memory required for data: 762725124
I0414 08:08:59.197828   669 net.cpp:67] Creating Layer inception_4d/3x3
I0414 08:08:59.197837   669 net.cpp:394] inception_4d/3x3 <- inception_4d/3x3_reduce
I0414 08:08:59.197862   669 net.cpp:356] inception_4d/3x3 -> inception_4d/3x3
I0414 08:08:59.197891   669 net.cpp:96] Setting up inception_4d/3x3
I0414 08:08:59.220995   669 net.cpp:103] Top shape: 32 288 10 10 (921600)
I0414 08:08:59.221015   669 net.cpp:113] Memory required for data: 766411524
I0414 08:08:59.221041   669 net.cpp:67] Creating Layer inception_4d/relu_3x3
I0414 08:08:59.221053   669 net.cpp:394] inception_4d/relu_3x3 <- inception_4d/3x3
I0414 08:08:59.221076   669 net.cpp:345] inception_4d/relu_3x3 -> inception_4d/3x3 (in-place)
I0414 08:08:59.221093   669 net.cpp:96] Setting up inception_4d/relu_3x3
I0414 08:08:59.221112   669 net.cpp:103] Top shape: 32 288 10 10 (921600)
I0414 08:08:59.221119   669 net.cpp:113] Memory required for data: 770097924
I0414 08:08:59.221137   669 net.cpp:67] Creating Layer inception_4d/5x5_reduce
I0414 08:08:59.221146   669 net.cpp:394] inception_4d/5x5_reduce <- inception_4c/output_inception_4c/output_0_split_2
I0414 08:08:59.221168   669 net.cpp:356] inception_4d/5x5_reduce -> inception_4d/5x5_reduce
I0414 08:08:59.221194   669 net.cpp:96] Setting up inception_4d/5x5_reduce
I0414 08:08:59.222234   669 net.cpp:103] Top shape: 32 32 10 10 (102400)
I0414 08:08:59.222249   669 net.cpp:113] Memory required for data: 770507524
I0414 08:08:59.222268   669 net.cpp:67] Creating Layer inception_4d/relu_5x5_reduce
I0414 08:08:59.222280   669 net.cpp:394] inception_4d/relu_5x5_reduce <- inception_4d/5x5_reduce
I0414 08:08:59.222301   669 net.cpp:345] inception_4d/relu_5x5_reduce -> inception_4d/5x5_reduce (in-place)
I0414 08:08:59.222316   669 net.cpp:96] Setting up inception_4d/relu_5x5_reduce
I0414 08:08:59.222327   669 net.cpp:103] Top shape: 32 32 10 10 (102400)
I0414 08:08:59.222334   669 net.cpp:113] Memory required for data: 770917124
I0414 08:08:59.222350   669 net.cpp:67] Creating Layer inception_4d/5x5
I0414 08:08:59.222360   669 net.cpp:394] inception_4d/5x5 <- inception_4d/5x5_reduce
I0414 08:08:59.222380   669 net.cpp:356] inception_4d/5x5 -> inception_4d/5x5
I0414 08:08:59.222398   669 net.cpp:96] Setting up inception_4d/5x5
I0414 08:08:59.225611   669 net.cpp:103] Top shape: 32 64 10 10 (204800)
I0414 08:08:59.225627   669 net.cpp:113] Memory required for data: 771736324
I0414 08:08:59.225651   669 net.cpp:67] Creating Layer inception_4d/relu_5x5
I0414 08:08:59.225662   669 net.cpp:394] inception_4d/relu_5x5 <- inception_4d/5x5
I0414 08:08:59.225679   669 net.cpp:345] inception_4d/relu_5x5 -> inception_4d/5x5 (in-place)
I0414 08:08:59.225695   669 net.cpp:96] Setting up inception_4d/relu_5x5
I0414 08:08:59.225703   669 net.cpp:103] Top shape: 32 64 10 10 (204800)
I0414 08:08:59.225710   669 net.cpp:113] Memory required for data: 772555524
I0414 08:08:59.225724   669 net.cpp:67] Creating Layer inception_4d/pool
I0414 08:08:59.225734   669 net.cpp:394] inception_4d/pool <- inception_4c/output_inception_4c/output_0_split_3
I0414 08:08:59.225756   669 net.cpp:356] inception_4d/pool -> inception_4d/pool
I0414 08:08:59.225783   669 net.cpp:96] Setting up inception_4d/pool
I0414 08:08:59.225797   669 net.cpp:103] Top shape: 32 512 10 10 (1638400)
I0414 08:08:59.225812   669 net.cpp:113] Memory required for data: 779109124
I0414 08:08:59.225832   669 net.cpp:67] Creating Layer inception_4d/pool_proj
I0414 08:08:59.225843   669 net.cpp:394] inception_4d/pool_proj <- inception_4d/pool
I0414 08:08:59.225868   669 net.cpp:356] inception_4d/pool_proj -> inception_4d/pool_proj
I0414 08:08:59.225895   669 net.cpp:96] Setting up inception_4d/pool_proj
I0414 08:08:59.227959   669 net.cpp:103] Top shape: 32 64 10 10 (204800)
I0414 08:08:59.227975   669 net.cpp:113] Memory required for data: 779928324
I0414 08:08:59.227995   669 net.cpp:67] Creating Layer inception_4d/relu_pool_proj
I0414 08:08:59.228006   669 net.cpp:394] inception_4d/relu_pool_proj <- inception_4d/pool_proj
I0414 08:08:59.228027   669 net.cpp:345] inception_4d/relu_pool_proj -> inception_4d/pool_proj (in-place)
I0414 08:08:59.228044   669 net.cpp:96] Setting up inception_4d/relu_pool_proj
I0414 08:08:59.228051   669 net.cpp:103] Top shape: 32 64 10 10 (204800)
I0414 08:08:59.228059   669 net.cpp:113] Memory required for data: 780747524
I0414 08:08:59.228070   669 net.cpp:67] Creating Layer inception_4d/output
I0414 08:08:59.228080   669 net.cpp:394] inception_4d/output <- inception_4d/1x1
I0414 08:08:59.228094   669 net.cpp:394] inception_4d/output <- inception_4d/3x3
I0414 08:08:59.228106   669 net.cpp:394] inception_4d/output <- inception_4d/5x5
I0414 08:08:59.228118   669 net.cpp:394] inception_4d/output <- inception_4d/pool_proj
I0414 08:08:59.228135   669 net.cpp:356] inception_4d/output -> inception_4d/output
I0414 08:08:59.228152   669 net.cpp:96] Setting up inception_4d/output
I0414 08:08:59.228163   669 net.cpp:103] Top shape: 32 528 10 10 (1689600)
I0414 08:08:59.228169   669 net.cpp:113] Memory required for data: 787505924
I0414 08:08:59.228181   669 net.cpp:67] Creating Layer inception_4d/output_inception_4d/output_0_split
I0414 08:08:59.228190   669 net.cpp:394] inception_4d/output_inception_4d/output_0_split <- inception_4d/output
I0414 08:08:59.228207   669 net.cpp:356] inception_4d/output_inception_4d/output_0_split -> inception_4d/output_inception_4d/output_0_split_0
I0414 08:08:59.228226   669 net.cpp:356] inception_4d/output_inception_4d/output_0_split -> inception_4d/output_inception_4d/output_0_split_1
I0414 08:08:59.228255   669 net.cpp:356] inception_4d/output_inception_4d/output_0_split -> inception_4d/output_inception_4d/output_0_split_2
I0414 08:08:59.228276   669 net.cpp:356] inception_4d/output_inception_4d/output_0_split -> inception_4d/output_inception_4d/output_0_split_3
I0414 08:08:59.228302   669 net.cpp:356] inception_4d/output_inception_4d/output_0_split -> inception_4d/output_inception_4d/output_0_split_4
I0414 08:08:59.228318   669 net.cpp:96] Setting up inception_4d/output_inception_4d/output_0_split
I0414 08:08:59.228338   669 net.cpp:103] Top shape: 32 528 10 10 (1689600)
I0414 08:08:59.228346   669 net.cpp:103] Top shape: 32 528 10 10 (1689600)
I0414 08:08:59.228354   669 net.cpp:103] Top shape: 32 528 10 10 (1689600)
I0414 08:08:59.228360   669 net.cpp:103] Top shape: 32 528 10 10 (1689600)
I0414 08:08:59.228368   669 net.cpp:103] Top shape: 32 528 10 10 (1689600)
I0414 08:08:59.228374   669 net.cpp:113] Memory required for data: 821297924
I0414 08:08:59.228389   669 net.cpp:67] Creating Layer loss2/ave_pool
I0414 08:08:59.228397   669 net.cpp:394] loss2/ave_pool <- inception_4d/output_inception_4d/output_0_split_0
I0414 08:08:59.228421   669 net.cpp:356] loss2/ave_pool -> loss2/ave_pool
I0414 08:08:59.228440   669 net.cpp:96] Setting up loss2/ave_pool
I0414 08:08:59.228452   669 net.cpp:103] Top shape: 32 528 3 3 (152064)
I0414 08:08:59.228461   669 net.cpp:113] Memory required for data: 821906180
I0414 08:08:59.228477   669 net.cpp:67] Creating Layer loss2/conv
I0414 08:08:59.228485   669 net.cpp:394] loss2/conv <- loss2/ave_pool
I0414 08:08:59.228505   669 net.cpp:356] loss2/conv -> loss2/conv
I0414 08:08:59.228530   669 net.cpp:96] Setting up loss2/conv
I0414 08:08:59.232722   669 net.cpp:103] Top shape: 32 128 3 3 (36864)
I0414 08:08:59.232738   669 net.cpp:113] Memory required for data: 822053636
I0414 08:08:59.232764   669 net.cpp:67] Creating Layer loss2/relu_conv
I0414 08:08:59.232774   669 net.cpp:394] loss2/relu_conv <- loss2/conv
I0414 08:08:59.232791   669 net.cpp:345] loss2/relu_conv -> loss2/conv (in-place)
I0414 08:08:59.232806   669 net.cpp:96] Setting up loss2/relu_conv
I0414 08:08:59.232823   669 net.cpp:103] Top shape: 32 128 3 3 (36864)
I0414 08:08:59.232831   669 net.cpp:113] Memory required for data: 822201092
I0414 08:08:59.232846   669 net.cpp:67] Creating Layer loss2/fd_fc
I0414 08:08:59.232856   669 net.cpp:394] loss2/fd_fc <- loss2/conv
I0414 08:08:59.232879   669 net.cpp:356] loss2/fd_fc -> loss2/fd_fc
I0414 08:08:59.232902   669 net.cpp:96] Setting up loss2/fd_fc
I0414 08:08:59.308194   669 net.cpp:103] Top shape: 32 1024 1 1 (32768)
I0414 08:08:59.308224   669 net.cpp:113] Memory required for data: 822332164
I0414 08:08:59.308259   669 net.cpp:67] Creating Layer loss2/relu_fc
I0414 08:08:59.308275   669 net.cpp:394] loss2/relu_fc <- loss2/fd_fc
I0414 08:08:59.308302   669 net.cpp:345] loss2/relu_fc -> loss2/fd_fc (in-place)
I0414 08:08:59.308321   669 net.cpp:96] Setting up loss2/relu_fc
I0414 08:08:59.308333   669 net.cpp:103] Top shape: 32 1024 1 1 (32768)
I0414 08:08:59.308339   669 net.cpp:113] Memory required for data: 822463236
I0414 08:08:59.308356   669 net.cpp:67] Creating Layer loss2/drop_fc
I0414 08:08:59.308364   669 net.cpp:394] loss2/drop_fc <- loss2/fd_fc
I0414 08:08:59.308382   669 net.cpp:345] loss2/drop_fc -> loss2/fd_fc (in-place)
I0414 08:08:59.308396   669 net.cpp:96] Setting up loss2/drop_fc
I0414 08:08:59.308420   669 net.cpp:103] Top shape: 32 1024 1 1 (32768)
I0414 08:08:59.308428   669 net.cpp:113] Memory required for data: 822594308
I0414 08:08:59.308445   669 net.cpp:67] Creating Layer fd_loss2/classifier
I0414 08:08:59.308455   669 net.cpp:394] fd_loss2/classifier <- loss2/fd_fc
I0414 08:08:59.308481   669 net.cpp:356] fd_loss2/classifier -> fd_loss2/classifier
I0414 08:08:59.308503   669 net.cpp:96] Setting up fd_loss2/classifier
I0414 08:08:59.308666   669 net.cpp:103] Top shape: 32 2 1 1 (64)
I0414 08:08:59.308681   669 net.cpp:113] Memory required for data: 822594564
I0414 08:08:59.308708   669 net.cpp:67] Creating Layer loss2/loss
I0414 08:08:59.308722   669 net.cpp:394] loss2/loss <- fd_loss2/classifier
I0414 08:08:59.308739   669 net.cpp:394] loss2/loss <- label_data_1_split_1
I0414 08:08:59.308761   669 net.cpp:356] loss2/loss -> loss2/loss1
I0414 08:08:59.308778   669 net.cpp:96] Setting up loss2/loss
I0414 08:08:59.308809   669 net.cpp:103] Top shape: 1 1 1 1 (1)
I0414 08:08:59.308826   669 net.cpp:109]     with loss weight 0.3
I0414 08:08:59.308847   669 net.cpp:113] Memory required for data: 822594568
I0414 08:08:59.308871   669 net.cpp:67] Creating Layer inception_4e/1x1
I0414 08:08:59.308881   669 net.cpp:394] inception_4e/1x1 <- inception_4d/output_inception_4d/output_0_split_1
I0414 08:08:59.308902   669 net.cpp:356] inception_4e/1x1 -> inception_4e/1x1
I0414 08:08:59.308928   669 net.cpp:96] Setting up inception_4e/1x1
I0414 08:08:59.317322   669 net.cpp:103] Top shape: 32 256 10 10 (819200)
I0414 08:08:59.317338   669 net.cpp:113] Memory required for data: 825871368
I0414 08:08:59.317359   669 net.cpp:67] Creating Layer inception_4e/relu_1x1
I0414 08:08:59.317370   669 net.cpp:394] inception_4e/relu_1x1 <- inception_4e/1x1
I0414 08:08:59.317391   669 net.cpp:345] inception_4e/relu_1x1 -> inception_4e/1x1 (in-place)
I0414 08:08:59.317407   669 net.cpp:96] Setting up inception_4e/relu_1x1
I0414 08:08:59.317415   669 net.cpp:103] Top shape: 32 256 10 10 (819200)
I0414 08:08:59.317422   669 net.cpp:113] Memory required for data: 829148168
I0414 08:08:59.317438   669 net.cpp:67] Creating Layer inception_4e/3x3_reduce
I0414 08:08:59.317447   669 net.cpp:394] inception_4e/3x3_reduce <- inception_4d/output_inception_4d/output_0_split_2
I0414 08:08:59.317467   669 net.cpp:356] inception_4e/3x3_reduce -> inception_4e/3x3_reduce
I0414 08:08:59.317494   669 net.cpp:96] Setting up inception_4e/3x3_reduce
I0414 08:08:59.322729   669 net.cpp:103] Top shape: 32 160 10 10 (512000)
I0414 08:08:59.322746   669 net.cpp:113] Memory required for data: 831196168
I0414 08:08:59.322772   669 net.cpp:67] Creating Layer inception_4e/relu_3x3_reduce
I0414 08:08:59.322783   669 net.cpp:394] inception_4e/relu_3x3_reduce <- inception_4e/3x3_reduce
I0414 08:08:59.322801   669 net.cpp:345] inception_4e/relu_3x3_reduce -> inception_4e/3x3_reduce (in-place)
I0414 08:08:59.322826   669 net.cpp:96] Setting up inception_4e/relu_3x3_reduce
I0414 08:08:59.322835   669 net.cpp:103] Top shape: 32 160 10 10 (512000)
I0414 08:08:59.322842   669 net.cpp:113] Memory required for data: 833244168
I0414 08:08:59.322861   669 net.cpp:67] Creating Layer inception_4e/3x3
I0414 08:08:59.322875   669 net.cpp:394] inception_4e/3x3 <- inception_4e/3x3_reduce
I0414 08:08:59.322896   669 net.cpp:356] inception_4e/3x3 -> inception_4e/3x3
I0414 08:08:59.322913   669 net.cpp:96] Setting up inception_4e/3x3
I0414 08:08:59.351495   669 net.cpp:103] Top shape: 32 320 10 10 (1024000)
I0414 08:08:59.351516   669 net.cpp:113] Memory required for data: 837340168
I0414 08:08:59.351557   669 net.cpp:67] Creating Layer inception_4e/relu_3x3
I0414 08:08:59.351570   669 net.cpp:394] inception_4e/relu_3x3 <- inception_4e/3x3
I0414 08:08:59.351598   669 net.cpp:345] inception_4e/relu_3x3 -> inception_4e/3x3 (in-place)
I0414 08:08:59.351619   669 net.cpp:96] Setting up inception_4e/relu_3x3
I0414 08:08:59.351626   669 net.cpp:103] Top shape: 32 320 10 10 (1024000)
I0414 08:08:59.351634   669 net.cpp:113] Memory required for data: 841436168
I0414 08:08:59.351649   669 net.cpp:67] Creating Layer inception_4e/5x5_reduce
I0414 08:08:59.351660   669 net.cpp:394] inception_4e/5x5_reduce <- inception_4d/output_inception_4d/output_0_split_3
I0414 08:08:59.351685   669 net.cpp:356] inception_4e/5x5_reduce -> inception_4e/5x5_reduce
I0414 08:08:59.351706   669 net.cpp:96] Setting up inception_4e/5x5_reduce
I0414 08:08:59.352780   669 net.cpp:103] Top shape: 32 32 10 10 (102400)
I0414 08:08:59.352795   669 net.cpp:113] Memory required for data: 841845768
I0414 08:08:59.352816   669 net.cpp:67] Creating Layer inception_4e/relu_5x5_reduce
I0414 08:08:59.352826   669 net.cpp:394] inception_4e/relu_5x5_reduce <- inception_4e/5x5_reduce
I0414 08:08:59.352848   669 net.cpp:345] inception_4e/relu_5x5_reduce -> inception_4e/5x5_reduce (in-place)
I0414 08:08:59.352866   669 net.cpp:96] Setting up inception_4e/relu_5x5_reduce
I0414 08:08:59.352877   669 net.cpp:103] Top shape: 32 32 10 10 (102400)
I0414 08:08:59.352882   669 net.cpp:113] Memory required for data: 842255368
I0414 08:08:59.352946   669 net.cpp:67] Creating Layer inception_4e/5x5
I0414 08:08:59.352962   669 net.cpp:394] inception_4e/5x5 <- inception_4e/5x5_reduce
I0414 08:08:59.352985   669 net.cpp:356] inception_4e/5x5 -> inception_4e/5x5
I0414 08:08:59.353004   669 net.cpp:96] Setting up inception_4e/5x5
I0414 08:08:59.359339   669 net.cpp:103] Top shape: 32 128 10 10 (409600)
I0414 08:08:59.359355   669 net.cpp:113] Memory required for data: 843893768
I0414 08:08:59.359380   669 net.cpp:67] Creating Layer inception_4e/relu_5x5
I0414 08:08:59.359390   669 net.cpp:394] inception_4e/relu_5x5 <- inception_4e/5x5
I0414 08:08:59.359410   669 net.cpp:345] inception_4e/relu_5x5 -> inception_4e/5x5 (in-place)
I0414 08:08:59.359426   669 net.cpp:96] Setting up inception_4e/relu_5x5
I0414 08:08:59.359442   669 net.cpp:103] Top shape: 32 128 10 10 (409600)
I0414 08:08:59.359449   669 net.cpp:113] Memory required for data: 845532168
I0414 08:08:59.359465   669 net.cpp:67] Creating Layer inception_4e/pool
I0414 08:08:59.359475   669 net.cpp:394] inception_4e/pool <- inception_4d/output_inception_4d/output_0_split_4
I0414 08:08:59.359495   669 net.cpp:356] inception_4e/pool -> inception_4e/pool
I0414 08:08:59.359513   669 net.cpp:96] Setting up inception_4e/pool
I0414 08:08:59.359526   669 net.cpp:103] Top shape: 32 528 10 10 (1689600)
I0414 08:08:59.359560   669 net.cpp:113] Memory required for data: 852290568
I0414 08:08:59.359582   669 net.cpp:67] Creating Layer inception_4e/pool_proj
I0414 08:08:59.359596   669 net.cpp:394] inception_4e/pool_proj <- inception_4e/pool
I0414 08:08:59.359617   669 net.cpp:356] inception_4e/pool_proj -> inception_4e/pool_proj
I0414 08:08:59.359635   669 net.cpp:96] Setting up inception_4e/pool_proj
I0414 08:08:59.363844   669 net.cpp:103] Top shape: 32 128 10 10 (409600)
I0414 08:08:59.363860   669 net.cpp:113] Memory required for data: 853928968
I0414 08:08:59.363880   669 net.cpp:67] Creating Layer inception_4e/relu_pool_proj
I0414 08:08:59.363895   669 net.cpp:394] inception_4e/relu_pool_proj <- inception_4e/pool_proj
I0414 08:08:59.363914   669 net.cpp:345] inception_4e/relu_pool_proj -> inception_4e/pool_proj (in-place)
I0414 08:08:59.363929   669 net.cpp:96] Setting up inception_4e/relu_pool_proj
I0414 08:08:59.363936   669 net.cpp:103] Top shape: 32 128 10 10 (409600)
I0414 08:08:59.363944   669 net.cpp:113] Memory required for data: 855567368
I0414 08:08:59.363956   669 net.cpp:67] Creating Layer inception_4e/output
I0414 08:08:59.363965   669 net.cpp:394] inception_4e/output <- inception_4e/1x1
I0414 08:08:59.363979   669 net.cpp:394] inception_4e/output <- inception_4e/3x3
I0414 08:08:59.363991   669 net.cpp:394] inception_4e/output <- inception_4e/5x5
I0414 08:08:59.364003   669 net.cpp:394] inception_4e/output <- inception_4e/pool_proj
I0414 08:08:59.364017   669 net.cpp:356] inception_4e/output -> inception_4e/output
I0414 08:08:59.364033   669 net.cpp:96] Setting up inception_4e/output
I0414 08:08:59.364044   669 net.cpp:103] Top shape: 32 832 10 10 (2662400)
I0414 08:08:59.364051   669 net.cpp:113] Memory required for data: 866216968
I0414 08:08:59.364068   669 net.cpp:67] Creating Layer pool4/3x3_s2
I0414 08:08:59.364089   669 net.cpp:394] pool4/3x3_s2 <- inception_4e/output
I0414 08:08:59.364109   669 net.cpp:356] pool4/3x3_s2 -> pool4/3x3_s2
I0414 08:08:59.364135   669 net.cpp:96] Setting up pool4/3x3_s2
I0414 08:08:59.364148   669 net.cpp:103] Top shape: 32 832 5 5 (665600)
I0414 08:08:59.364156   669 net.cpp:113] Memory required for data: 868879368
I0414 08:08:59.364171   669 net.cpp:67] Creating Layer pool4/3x3_s2_pool4/3x3_s2_0_split
I0414 08:08:59.364181   669 net.cpp:394] pool4/3x3_s2_pool4/3x3_s2_0_split <- pool4/3x3_s2
I0414 08:08:59.364198   669 net.cpp:356] pool4/3x3_s2_pool4/3x3_s2_0_split -> pool4/3x3_s2_pool4/3x3_s2_0_split_0
I0414 08:08:59.364219   669 net.cpp:356] pool4/3x3_s2_pool4/3x3_s2_0_split -> pool4/3x3_s2_pool4/3x3_s2_0_split_1
I0414 08:08:59.364238   669 net.cpp:356] pool4/3x3_s2_pool4/3x3_s2_0_split -> pool4/3x3_s2_pool4/3x3_s2_0_split_2
I0414 08:08:59.364259   669 net.cpp:356] pool4/3x3_s2_pool4/3x3_s2_0_split -> pool4/3x3_s2_pool4/3x3_s2_0_split_3
I0414 08:08:59.364274   669 net.cpp:96] Setting up pool4/3x3_s2_pool4/3x3_s2_0_split
I0414 08:08:59.364285   669 net.cpp:103] Top shape: 32 832 5 5 (665600)
I0414 08:08:59.364294   669 net.cpp:103] Top shape: 32 832 5 5 (665600)
I0414 08:08:59.364300   669 net.cpp:103] Top shape: 32 832 5 5 (665600)
I0414 08:08:59.364307   669 net.cpp:103] Top shape: 32 832 5 5 (665600)
I0414 08:08:59.364313   669 net.cpp:113] Memory required for data: 879528968
I0414 08:08:59.364336   669 net.cpp:67] Creating Layer inception_5a/1x1
I0414 08:08:59.364346   669 net.cpp:394] inception_5a/1x1 <- pool4/3x3_s2_pool4/3x3_s2_0_split_0
I0414 08:08:59.364367   669 net.cpp:356] inception_5a/1x1 -> inception_5a/1x1
I0414 08:08:59.364385   669 net.cpp:96] Setting up inception_5a/1x1
I0414 08:08:59.377542   669 net.cpp:103] Top shape: 32 256 5 5 (204800)
I0414 08:08:59.377559   669 net.cpp:113] Memory required for data: 880348168
I0414 08:08:59.377580   669 net.cpp:67] Creating Layer inception_5a/relu_1x1
I0414 08:08:59.377591   669 net.cpp:394] inception_5a/relu_1x1 <- inception_5a/1x1
I0414 08:08:59.377614   669 net.cpp:345] inception_5a/relu_1x1 -> inception_5a/1x1 (in-place)
I0414 08:08:59.377629   669 net.cpp:96] Setting up inception_5a/relu_1x1
I0414 08:08:59.377637   669 net.cpp:103] Top shape: 32 256 5 5 (204800)
I0414 08:08:59.377643   669 net.cpp:113] Memory required for data: 881167368
I0414 08:08:59.377660   669 net.cpp:67] Creating Layer inception_5a/3x3_reduce
I0414 08:08:59.377670   669 net.cpp:394] inception_5a/3x3_reduce <- pool4/3x3_s2_pool4/3x3_s2_0_split_1
I0414 08:08:59.377693   669 net.cpp:356] inception_5a/3x3_reduce -> inception_5a/3x3_reduce
I0414 08:08:59.377714   669 net.cpp:96] Setting up inception_5a/3x3_reduce
I0414 08:08:59.385958   669 net.cpp:103] Top shape: 32 160 5 5 (128000)
I0414 08:08:59.385975   669 net.cpp:113] Memory required for data: 881679368
I0414 08:08:59.385999   669 net.cpp:67] Creating Layer inception_5a/relu_3x3_reduce
I0414 08:08:59.386011   669 net.cpp:394] inception_5a/relu_3x3_reduce <- inception_5a/3x3_reduce
I0414 08:08:59.386029   669 net.cpp:345] inception_5a/relu_3x3_reduce -> inception_5a/3x3_reduce (in-place)
I0414 08:08:59.386044   669 net.cpp:96] Setting up inception_5a/relu_3x3_reduce
I0414 08:08:59.386052   669 net.cpp:103] Top shape: 32 160 5 5 (128000)
I0414 08:08:59.386059   669 net.cpp:113] Memory required for data: 882191368
I0414 08:08:59.386078   669 net.cpp:67] Creating Layer inception_5a/3x3
I0414 08:08:59.386087   669 net.cpp:394] inception_5a/3x3 <- inception_5a/3x3_reduce
I0414 08:08:59.386107   669 net.cpp:356] inception_5a/3x3 -> inception_5a/3x3
I0414 08:08:59.386129   669 net.cpp:96] Setting up inception_5a/3x3
I0414 08:08:59.414580   669 net.cpp:103] Top shape: 32 320 5 5 (256000)
I0414 08:08:59.414599   669 net.cpp:113] Memory required for data: 883215368
I0414 08:08:59.414624   669 net.cpp:67] Creating Layer inception_5a/relu_3x3
I0414 08:08:59.414638   669 net.cpp:394] inception_5a/relu_3x3 <- inception_5a/3x3
I0414 08:08:59.414660   669 net.cpp:345] inception_5a/relu_3x3 -> inception_5a/3x3 (in-place)
I0414 08:08:59.414677   669 net.cpp:96] Setting up inception_5a/relu_3x3
I0414 08:08:59.414695   669 net.cpp:103] Top shape: 32 320 5 5 (256000)
I0414 08:08:59.414701   669 net.cpp:113] Memory required for data: 884239368
I0414 08:08:59.414718   669 net.cpp:67] Creating Layer inception_5a/5x5_reduce
I0414 08:08:59.414729   669 net.cpp:394] inception_5a/5x5_reduce <- pool4/3x3_s2_pool4/3x3_s2_0_split_2
I0414 08:08:59.414751   669 net.cpp:356] inception_5a/5x5_reduce -> inception_5a/5x5_reduce
I0414 08:08:59.414772   669 net.cpp:96] Setting up inception_5a/5x5_reduce
I0414 08:08:59.416465   669 net.cpp:103] Top shape: 32 32 5 5 (25600)
I0414 08:08:59.416481   669 net.cpp:113] Memory required for data: 884341768
I0414 08:08:59.416501   669 net.cpp:67] Creating Layer inception_5a/relu_5x5_reduce
I0414 08:08:59.416512   669 net.cpp:394] inception_5a/relu_5x5_reduce <- inception_5a/5x5_reduce
I0414 08:08:59.416533   669 net.cpp:345] inception_5a/relu_5x5_reduce -> inception_5a/5x5_reduce (in-place)
I0414 08:08:59.416550   669 net.cpp:96] Setting up inception_5a/relu_5x5_reduce
I0414 08:08:59.416558   669 net.cpp:103] Top shape: 32 32 5 5 (25600)
I0414 08:08:59.416565   669 net.cpp:113] Memory required for data: 884444168
I0414 08:08:59.416581   669 net.cpp:67] Creating Layer inception_5a/5x5
I0414 08:08:59.416590   669 net.cpp:394] inception_5a/5x5 <- inception_5a/5x5_reduce
I0414 08:08:59.416611   669 net.cpp:356] inception_5a/5x5 -> inception_5a/5x5
I0414 08:08:59.416630   669 net.cpp:96] Setting up inception_5a/5x5
I0414 08:08:59.422966   669 net.cpp:103] Top shape: 32 128 5 5 (102400)
I0414 08:08:59.422986   669 net.cpp:113] Memory required for data: 884853768
I0414 08:08:59.423007   669 net.cpp:67] Creating Layer inception_5a/relu_5x5
I0414 08:08:59.423018   669 net.cpp:394] inception_5a/relu_5x5 <- inception_5a/5x5
I0414 08:08:59.423040   669 net.cpp:345] inception_5a/relu_5x5 -> inception_5a/5x5 (in-place)
I0414 08:08:59.423056   669 net.cpp:96] Setting up inception_5a/relu_5x5
I0414 08:08:59.423064   669 net.cpp:103] Top shape: 32 128 5 5 (102400)
I0414 08:08:59.423070   669 net.cpp:113] Memory required for data: 885263368
I0414 08:08:59.423085   669 net.cpp:67] Creating Layer inception_5a/pool
I0414 08:08:59.423101   669 net.cpp:394] inception_5a/pool <- pool4/3x3_s2_pool4/3x3_s2_0_split_3
I0414 08:08:59.423120   669 net.cpp:356] inception_5a/pool -> inception_5a/pool
I0414 08:08:59.423141   669 net.cpp:96] Setting up inception_5a/pool
I0414 08:08:59.423156   669 net.cpp:103] Top shape: 32 832 5 5 (665600)
I0414 08:08:59.423162   669 net.cpp:113] Memory required for data: 887925768
I0414 08:08:59.423182   669 net.cpp:67] Creating Layer inception_5a/pool_proj
I0414 08:08:59.423202   669 net.cpp:394] inception_5a/pool_proj <- inception_5a/pool
I0414 08:08:59.423226   669 net.cpp:356] inception_5a/pool_proj -> inception_5a/pool_proj
I0414 08:08:59.423252   669 net.cpp:96] Setting up inception_5a/pool_proj
I0414 08:08:59.429843   669 net.cpp:103] Top shape: 32 128 5 5 (102400)
I0414 08:08:59.429860   669 net.cpp:113] Memory required for data: 888335368
I0414 08:08:59.429882   669 net.cpp:67] Creating Layer inception_5a/relu_pool_proj
I0414 08:08:59.429893   669 net.cpp:394] inception_5a/relu_pool_proj <- inception_5a/pool_proj
I0414 08:08:59.429913   669 net.cpp:345] inception_5a/relu_pool_proj -> inception_5a/pool_proj (in-place)
I0414 08:08:59.429930   669 net.cpp:96] Setting up inception_5a/relu_pool_proj
I0414 08:08:59.429939   669 net.cpp:103] Top shape: 32 128 5 5 (102400)
I0414 08:08:59.429946   669 net.cpp:113] Memory required for data: 888744968
I0414 08:08:59.429960   669 net.cpp:67] Creating Layer inception_5a/output
I0414 08:08:59.429968   669 net.cpp:394] inception_5a/output <- inception_5a/1x1
I0414 08:08:59.429982   669 net.cpp:394] inception_5a/output <- inception_5a/3x3
I0414 08:08:59.429996   669 net.cpp:394] inception_5a/output <- inception_5a/5x5
I0414 08:08:59.430009   669 net.cpp:394] inception_5a/output <- inception_5a/pool_proj
I0414 08:08:59.430022   669 net.cpp:356] inception_5a/output -> inception_5a/output
I0414 08:08:59.430038   669 net.cpp:96] Setting up inception_5a/output
I0414 08:08:59.430058   669 net.cpp:103] Top shape: 32 832 5 5 (665600)
I0414 08:08:59.430066   669 net.cpp:113] Memory required for data: 891407368
I0414 08:08:59.430083   669 net.cpp:67] Creating Layer inception_5a/output_inception_5a/output_0_split
I0414 08:08:59.430093   669 net.cpp:394] inception_5a/output_inception_5a/output_0_split <- inception_5a/output
I0414 08:08:59.430111   669 net.cpp:356] inception_5a/output_inception_5a/output_0_split -> inception_5a/output_inception_5a/output_0_split_0
I0414 08:08:59.430135   669 net.cpp:356] inception_5a/output_inception_5a/output_0_split -> inception_5a/output_inception_5a/output_0_split_1
I0414 08:08:59.430155   669 net.cpp:356] inception_5a/output_inception_5a/output_0_split -> inception_5a/output_inception_5a/output_0_split_2
I0414 08:08:59.430176   669 net.cpp:356] inception_5a/output_inception_5a/output_0_split -> inception_5a/output_inception_5a/output_0_split_3
I0414 08:08:59.430191   669 net.cpp:96] Setting up inception_5a/output_inception_5a/output_0_split
I0414 08:08:59.430213   669 net.cpp:103] Top shape: 32 832 5 5 (665600)
I0414 08:08:59.430222   669 net.cpp:103] Top shape: 32 832 5 5 (665600)
I0414 08:08:59.430228   669 net.cpp:103] Top shape: 32 832 5 5 (665600)
I0414 08:08:59.430235   669 net.cpp:103] Top shape: 32 832 5 5 (665600)
I0414 08:08:59.430241   669 net.cpp:113] Memory required for data: 902056968
I0414 08:08:59.430261   669 net.cpp:67] Creating Layer inception_5b/1x1
I0414 08:08:59.430271   669 net.cpp:394] inception_5b/1x1 <- inception_5a/output_inception_5a/output_0_split_0
I0414 08:08:59.430296   669 net.cpp:356] inception_5b/1x1 -> inception_5b/1x1
I0414 08:08:59.430316   669 net.cpp:96] Setting up inception_5b/1x1
I0414 08:08:59.450024   669 net.cpp:103] Top shape: 32 384 5 5 (307200)
I0414 08:08:59.450042   669 net.cpp:113] Memory required for data: 903285768
I0414 08:08:59.450068   669 net.cpp:67] Creating Layer inception_5b/relu_1x1
I0414 08:08:59.450080   669 net.cpp:394] inception_5b/relu_1x1 <- inception_5b/1x1
I0414 08:08:59.450099   669 net.cpp:345] inception_5b/relu_1x1 -> inception_5b/1x1 (in-place)
I0414 08:08:59.450114   669 net.cpp:96] Setting up inception_5b/relu_1x1
I0414 08:08:59.450131   669 net.cpp:103] Top shape: 32 384 5 5 (307200)
I0414 08:08:59.450137   669 net.cpp:113] Memory required for data: 904514568
I0414 08:08:59.450158   669 net.cpp:67] Creating Layer inception_5b/3x3_reduce
I0414 08:08:59.450168   669 net.cpp:394] inception_5b/3x3_reduce <- inception_5a/output_inception_5a/output_0_split_1
I0414 08:08:59.450189   669 net.cpp:356] inception_5b/3x3_reduce -> inception_5b/3x3_reduce
I0414 08:08:59.450214   669 net.cpp:96] Setting up inception_5b/3x3_reduce
I0414 08:08:59.460113   669 net.cpp:103] Top shape: 32 192 5 5 (153600)
I0414 08:08:59.460129   669 net.cpp:113] Memory required for data: 905128968
I0414 08:08:59.460150   669 net.cpp:67] Creating Layer inception_5b/relu_3x3_reduce
I0414 08:08:59.460160   669 net.cpp:394] inception_5b/relu_3x3_reduce <- inception_5b/3x3_reduce
I0414 08:08:59.460182   669 net.cpp:345] inception_5b/relu_3x3_reduce -> inception_5b/3x3_reduce (in-place)
I0414 08:08:59.460198   669 net.cpp:96] Setting up inception_5b/relu_3x3_reduce
I0414 08:08:59.460206   669 net.cpp:103] Top shape: 32 192 5 5 (153600)
I0414 08:08:59.460212   669 net.cpp:113] Memory required for data: 905743368
I0414 08:08:59.460228   669 net.cpp:67] Creating Layer inception_5b/3x3
I0414 08:08:59.460237   669 net.cpp:394] inception_5b/3x3 <- inception_5b/3x3_reduce
I0414 08:08:59.460258   669 net.cpp:356] inception_5b/3x3 -> inception_5b/3x3
I0414 08:08:59.460319   669 net.cpp:96] Setting up inception_5b/3x3
I0414 08:08:59.501272   669 net.cpp:103] Top shape: 32 384 5 5 (307200)
I0414 08:08:59.501296   669 net.cpp:113] Memory required for data: 906972168
I0414 08:08:59.501324   669 net.cpp:67] Creating Layer inception_5b/relu_3x3
I0414 08:08:59.501338   669 net.cpp:394] inception_5b/relu_3x3 <- inception_5b/3x3
I0414 08:08:59.501358   669 net.cpp:345] inception_5b/relu_3x3 -> inception_5b/3x3 (in-place)
I0414 08:08:59.501375   669 net.cpp:96] Setting up inception_5b/relu_3x3
I0414 08:08:59.501399   669 net.cpp:103] Top shape: 32 384 5 5 (307200)
I0414 08:08:59.501405   669 net.cpp:113] Memory required for data: 908200968
I0414 08:08:59.501423   669 net.cpp:67] Creating Layer inception_5b/5x5_reduce
I0414 08:08:59.501435   669 net.cpp:394] inception_5b/5x5_reduce <- inception_5a/output_inception_5a/output_0_split_2
I0414 08:08:59.501459   669 net.cpp:356] inception_5b/5x5_reduce -> inception_5b/5x5_reduce
I0414 08:08:59.501482   669 net.cpp:96] Setting up inception_5b/5x5_reduce
I0414 08:08:59.504010   669 net.cpp:103] Top shape: 32 48 5 5 (38400)
I0414 08:08:59.504026   669 net.cpp:113] Memory required for data: 908354568
I0414 08:08:59.504050   669 net.cpp:67] Creating Layer inception_5b/relu_5x5_reduce
I0414 08:08:59.504061   669 net.cpp:394] inception_5b/relu_5x5_reduce <- inception_5b/5x5_reduce
I0414 08:08:59.504083   669 net.cpp:345] inception_5b/relu_5x5_reduce -> inception_5b/5x5_reduce (in-place)
I0414 08:08:59.504099   669 net.cpp:96] Setting up inception_5b/relu_5x5_reduce
I0414 08:08:59.504115   669 net.cpp:103] Top shape: 32 48 5 5 (38400)
I0414 08:08:59.504123   669 net.cpp:113] Memory required for data: 908508168
I0414 08:08:59.504139   669 net.cpp:67] Creating Layer inception_5b/5x5
I0414 08:08:59.504150   669 net.cpp:394] inception_5b/5x5 <- inception_5b/5x5_reduce
I0414 08:08:59.504174   669 net.cpp:356] inception_5b/5x5 -> inception_5b/5x5
I0414 08:08:59.504195   669 net.cpp:96] Setting up inception_5b/5x5
I0414 08:08:59.513695   669 net.cpp:103] Top shape: 32 128 5 5 (102400)
I0414 08:08:59.513711   669 net.cpp:113] Memory required for data: 908917768
I0414 08:08:59.513733   669 net.cpp:67] Creating Layer inception_5b/relu_5x5
I0414 08:08:59.513744   669 net.cpp:394] inception_5b/relu_5x5 <- inception_5b/5x5
I0414 08:08:59.513761   669 net.cpp:345] inception_5b/relu_5x5 -> inception_5b/5x5 (in-place)
I0414 08:08:59.513777   669 net.cpp:96] Setting up inception_5b/relu_5x5
I0414 08:08:59.513784   669 net.cpp:103] Top shape: 32 128 5 5 (102400)
I0414 08:08:59.513792   669 net.cpp:113] Memory required for data: 909327368
I0414 08:08:59.513806   669 net.cpp:67] Creating Layer inception_5b/pool
I0414 08:08:59.513815   669 net.cpp:394] inception_5b/pool <- inception_5a/output_inception_5a/output_0_split_3
I0414 08:08:59.513839   669 net.cpp:356] inception_5b/pool -> inception_5b/pool
I0414 08:08:59.513860   669 net.cpp:96] Setting up inception_5b/pool
I0414 08:08:59.513875   669 net.cpp:103] Top shape: 32 832 5 5 (665600)
I0414 08:08:59.513882   669 net.cpp:113] Memory required for data: 911989768
I0414 08:08:59.513900   669 net.cpp:67] Creating Layer inception_5b/pool_proj
I0414 08:08:59.513908   669 net.cpp:394] inception_5b/pool_proj <- inception_5b/pool
I0414 08:08:59.513933   669 net.cpp:356] inception_5b/pool_proj -> inception_5b/pool_proj
I0414 08:08:59.513960   669 net.cpp:96] Setting up inception_5b/pool_proj
I0414 08:08:59.520550   669 net.cpp:103] Top shape: 32 128 5 5 (102400)
I0414 08:08:59.520567   669 net.cpp:113] Memory required for data: 912399368
I0414 08:08:59.520591   669 net.cpp:67] Creating Layer inception_5b/relu_pool_proj
I0414 08:08:59.520602   669 net.cpp:394] inception_5b/relu_pool_proj <- inception_5b/pool_proj
I0414 08:08:59.520619   669 net.cpp:345] inception_5b/relu_pool_proj -> inception_5b/pool_proj (in-place)
I0414 08:08:59.520635   669 net.cpp:96] Setting up inception_5b/relu_pool_proj
I0414 08:08:59.520643   669 net.cpp:103] Top shape: 32 128 5 5 (102400)
I0414 08:08:59.520650   669 net.cpp:113] Memory required for data: 912808968
I0414 08:08:59.520663   669 net.cpp:67] Creating Layer inception_5b/output
I0414 08:08:59.520676   669 net.cpp:394] inception_5b/output <- inception_5b/1x1
I0414 08:08:59.520691   669 net.cpp:394] inception_5b/output <- inception_5b/3x3
I0414 08:08:59.520704   669 net.cpp:394] inception_5b/output <- inception_5b/5x5
I0414 08:08:59.520716   669 net.cpp:394] inception_5b/output <- inception_5b/pool_proj
I0414 08:08:59.520730   669 net.cpp:356] inception_5b/output -> inception_5b/output
I0414 08:08:59.520757   669 net.cpp:96] Setting up inception_5b/output
I0414 08:08:59.520769   669 net.cpp:103] Top shape: 32 1024 5 5 (819200)
I0414 08:08:59.520776   669 net.cpp:113] Memory required for data: 916085768
I0414 08:08:59.520791   669 net.cpp:67] Creating Layer pool5/fd_7x7_s1
I0414 08:08:59.520800   669 net.cpp:394] pool5/fd_7x7_s1 <- inception_5b/output
I0414 08:08:59.520819   669 net.cpp:356] pool5/fd_7x7_s1 -> pool5/fd_7x7_s1
I0414 08:08:59.520839   669 net.cpp:96] Setting up pool5/fd_7x7_s1
I0414 08:08:59.520851   669 net.cpp:103] Top shape: 32 1024 1 1 (32768)
I0414 08:08:59.520859   669 net.cpp:113] Memory required for data: 916216840
I0414 08:08:59.520875   669 net.cpp:67] Creating Layer pool5/drop_7x7_s1
I0414 08:08:59.520885   669 net.cpp:394] pool5/drop_7x7_s1 <- pool5/fd_7x7_s1
I0414 08:08:59.520906   669 net.cpp:345] pool5/drop_7x7_s1 -> pool5/fd_7x7_s1 (in-place)
I0414 08:08:59.520925   669 net.cpp:96] Setting up pool5/drop_7x7_s1
I0414 08:08:59.520934   669 net.cpp:103] Top shape: 32 1024 1 1 (32768)
I0414 08:08:59.520941   669 net.cpp:113] Memory required for data: 916347912
I0414 08:08:59.520957   669 net.cpp:67] Creating Layer fd_loss3/classifier
I0414 08:08:59.520979   669 net.cpp:394] fd_loss3/classifier <- pool5/fd_7x7_s1
I0414 08:08:59.521003   669 net.cpp:356] fd_loss3/classifier -> fd_loss3/classifier
I0414 08:08:59.521028   669 net.cpp:96] Setting up fd_loss3/classifier
I0414 08:08:59.521191   669 net.cpp:103] Top shape: 32 2 1 1 (64)
I0414 08:08:59.521205   669 net.cpp:113] Memory required for data: 916348168
I0414 08:08:59.521234   669 net.cpp:67] Creating Layer loss3/loss3
I0414 08:08:59.521245   669 net.cpp:394] loss3/loss3 <- fd_loss3/classifier
I0414 08:08:59.521260   669 net.cpp:394] loss3/loss3 <- label_data_1_split_2
I0414 08:08:59.521281   669 net.cpp:356] loss3/loss3 -> loss3/loss3
I0414 08:08:59.521299   669 net.cpp:96] Setting up loss3/loss3
I0414 08:08:59.521319   669 net.cpp:103] Top shape: 1 1 1 1 (1)
I0414 08:08:59.521332   669 net.cpp:109]     with loss weight 1
I0414 08:08:59.521355   669 net.cpp:113] Memory required for data: 916348172
I0414 08:08:59.521363   669 net.cpp:170] loss3/loss3 needs backward computation.
I0414 08:08:59.521373   669 net.cpp:170] fd_loss3/classifier needs backward computation.
I0414 08:08:59.521380   669 net.cpp:170] pool5/drop_7x7_s1 needs backward computation.
…
I0414 08:08:59.526682   669 net.cpp:275] The NetState phase (1) differed from the phase (0) specified by a rule in layer data
I0414 08:08:59.527787   669 net.cpp:39] Initializing net from parameters: 
name: "fd_GoogleNet"
layers {
  top: "data"
  top: "label"
  name: "data"
  type: DATA
  data_param {
    source: "/mnt_data/yilin_guo/data/food_detection/val_data/"
    batch_size: 32
    backend: LMDB
  }
  include {
    phase: TEST
  }
  transform_param {
    mirror: false
    crop_size: 160
    mean_file: "/mnt_data/yilin_guo/caffe/examples/food_detection/googleNet/imagenet_mean.binaryproto"
  }
}
layers {
  bottom: "data"
  top: "conv1/7x7_s2"
  name: "conv1/7x7_s2"
  type: CONVOLUTION
  blobs_lr: 1
  blobs_lr: 2
  weight_decay: 1
  weight_decay: 0
  convolution_param {
    num_output: 64
    pad: 3
    kernel_size: 7
    stride: 2
    weight_filler {
      type: "xavier"
      std: 0.1
    }
    bias_filler {
      type: "constant"
      value: 0.2
    }
  }
}
layers {
  bottom: "conv1/7x7_s2"
  top: "conv1/7x7_s2"
  name: "conv1/relu_7x7"
  type: RELU
}
layers {
  bottom: "conv1/7x7_s2"
  top: "pool1/3x3_s2"
  name: "pool1/3x3_s2"
  type: POOLING
  pooling_param {
    pool: MAX
    kernel_size: 3
    stride: 2
  }
}
layers {
  bottom: "pool1/3x3_s2"
  top: "pool1/norm1"
  name: "pool1/norm1"
  type: LRN
  lrn_param {
    local_size: 5
    alpha: 0.0001
    beta: 0.75
  }
}
layers {
  bottom: "pool1/norm1"
  top: "conv2/3x3_reduce"
  name: "conv2/3x3_reduce"
  type: CONVOLUTION
  blobs_lr: 1
  blobs_lr: 2
  weight_decay: 1
  weight_decay: 0
  convolution_param {
    num_output: 64
    kernel_size: 1
    weight_filler {
      type: "xavier"
      std: 0.1
    }
    bias_filler {
      type: "constant"
      value: 0.2
    }
  }
}
layers {
  bottom: "conv2/3x3_reduce"
  top: "conv2/3x3_reduce"
  name: "conv2/relu_3x3_reduce"
  type: RELU
}
layers {
  bottom: "conv2/3x3_reduce"
  top: "conv2/3x3"
  name: "conv2/3x3"
  type: CONVOLUTION
  blobs_lr: 1
  blobs_lr: 2
  weight_decay: 1
  weight_decay: 0
  convolution_param {
    num_output: 192
    pad: 1
    kernel_size: 3
    weight_filler {
      type: "xavier"
      std: 0.03
    }
    bias_filler {
      type: "constant"
      value: 0.2
    }
  }
}
layers {
  bottom: "conv2/3x3"
  top: "conv2/3x3"
  name: "conv2/relu_3x3"
  type: RELU
}
layers {
  bottom: "conv2/3x3"
  top: "conv2/norm2"
  name: "conv2/norm2"
  type: LRN
  lrn_param {
    local_size: 5
    alpha: 0.0001
    beta: 0.75
  }
}
layers {
  bottom: "conv2/norm2"
  top: "pool2/3x3_s2"
  name: "pool2/3x3_s2"
  type: POOLING
  pooling_param {
    pool: MAX
    kernel_size: 3
    stride: 2
  }
}
layers {
  bottom: "pool2/3x3_s2"
  top: "inception_3a/1x1"
  name: "inception_3a/1x1"
  type: CONVOLUTION
  blobs_lr: 1
  blobs_lr: 2
  weight_decay: 1
  weight_decay: 0
  convolution_param {
    num_output: 64
    kernel_size: 1
    weight_filler {
      type: "xavier"
      std: 0.03
    }
    bias_filler {
      type: "constant"
      value: 0.2
    }
  }
}
layers {
  bottom: "inception_3a/1x1"
  top: "inception_3a/1x1"
  name: "inception_3a/relu_1x1"
  type: RELU
}
layers {
  bottom: "pool2/3x3_s2"
  top: "inception_3a/3x3_reduce"
  name: "inception_3a/3x3_reduce"
  type: CONVOLUTION
  blobs_lr: 1
  blobs_lr: 2
  weight_decay: 1
  weight_decay: 0
  convolution_param {
    num_output: 96
    kernel_size: 1
    weight_filler {
      type: "xavier"
      std: 0.09
    }
    bias_filler {
      type: "constant"
      value: 0.2
    }
  }
}
layers {
  bottom: "inception_3a/3x3_reduce"
  top: "inception_3a/3x3_reduce"
  name: "inception_3a/relu_3x3_reduce"
  type: RELU
}
layers {
  bottom: "inception_3a/3x3_reduce"
  top: "inception_3a/3x3"
  name: "inception_3a/3x3"
  type: CONVOLUTION
  blobs_lr: 1
  blobs_lr: 2
  weight_decay: 1
  weight_decay: 0
  convolution_param {
    num_output: 128
    pad: 1
    kernel_size: 3
    weight_filler {
      type: "xavier"
      std: 0.03
    }
    bias_filler {
      type: "constant"
      value: 0.2
    }
  }
}
layers {
  bottom: "inception_3a/3x3"
  top: "inception_3a/3x3"
  name: "inception_3a/relu_3x3"
  type: RELU
}
layers {
  bottom: "pool2/3x3_s2"
  top: "inception_3a/5x5_reduce"
  name: "inception_3a/5x5_reduce"
  type: CONVOLUTION
  blobs_lr: 1
  blobs_lr: 2
  weight_decay: 1
  weight_decay: 0
  convolution_param {
    num_output: 16
    kernel_size: 1
    weight_filler {
      type: "xavier"
      std: 0.2
    }
    bias_filler {
      type: "constant"
      value: 0.2
    }
  }
}
layers {
  bottom: "inception_3a/5x5_reduce"
  top: "inception_3a/5x5_reduce"
  name: "inception_3a/relu_5x5_reduce"
  type: RELU
}
layers {
  bottom: "inception_3a/5x5_reduce"
  top: "inception_3a/5x5"
  name: "inception_3a/5x5"
  type: CONVOLUTION
  blobs_lr: 1
  blobs_lr: 2
  weight_decay: 1
  weight_decay: 0
  convolution_param {
    num_output: 32
    pad: 2
    kernel_size: 5
    weight_filler {
      type: "xavier"
      std: 0.03
    }
    bias_filler {
      type: "constant"
      value: 0.2
    }
  }
}
layers {
  bottom: "inception_3a/5x5"
  top: "inception_3a/5x5"
  name: "inception_3a/relu_5x5"
  type: RELU
}
layers {
  bottom: "pool2/3x3_s2"
  top: "inception_3a/pool"
  name: "inception_3a/pool"
  type: POOLING
  pooling_param {
    pool: MAX
    kernel_size: 3
    stride: 1
    pad: 1
  }
}
layers {
  bottom: "inception_3a/pool"
  top: "inception_3a/pool_proj"
  name: "inception_3a/pool_proj"
  type: CONVOLUTION
  blobs_lr: 1
  blobs_lr: 2
  weight_decay: 1
  weight_decay: 0
  convolution_param {
    num_output: 32
    kernel_size: 1
    weight_filler {
      type: "xavier"
      std: 0.1
    }
    bias_filler {
      type: "constant"
      value: 0.2
    }
  }
}
layers {
  bottom: "inception_3a/pool_proj"
  top: "inception_3a/pool_proj"
  name: "inception_3a/relu_pool_proj"
  type: RELU
}
layers {
  bottom: "inception_3a/1x1"
  bottom: "inception_3a/3x3"
  bottom: "inception_3a/5x5"
  bottom: "inception_3a/pool_proj"
  top: "inception_3a/output"
  name: "inception_3a/output"
  type: CONCAT
}
layers {
  bottom: "inception_3a/output"
  top: "inception_3b/1x1"
  name: "inception_3b/1x1"
  type: CONVOLUTION
  blobs_lr: 1
  blobs_lr: 2
  weight_decay: 1
  weight_decay: 0
  convolution_param {
    num_output: 128
    kernel_size: 1
    weight_filler {
      type: "xavier"
      std: 0.03
    }
    bias_filler {
      type: "constant"
      value: 0.2
    }
  }
}
layers {
  bottom: "inception_3b/1x1"
  top: "inception_3b/1x1"
  name: "inception_3b/relu_1x1"
  type: RELU
}
layers {
  bottom: "inception_3a/output"
  top: "inception_3b/3x3_reduce"
  name: "inception_3b/3x3_reduce"
  type: CONVOLUTION
  blobs_lr: 1
  blobs_lr: 2
  weight_decay: 1
  weight_decay: 0
  convolution_param {
    num_output: 128
    kernel_size: 1
    weight_filler {
      type: "xavier"
      std: 0.09
    }
    bias_filler {
      type: "constant"
      value: 0.2
    }
  }
}
layers {
  bottom: "inception_3b/3x3_reduce"
  top: "inception_3b/3x3_reduce"
  name: "inception_3b/relu_3x3_reduce"
  type: RELU
}
layers {
  bottom: "inception_3b/3x3_reduce"
  top: "inception_3b/3x3"
  name: "inception_3b/3x3"
  type: CONVOLUTION
  blobs_lr: 1
  blobs_lr: 2
  weight_decay: 1
  weight_decay: 0
  convolution_param {
    num_output: 192
    pad: 1
    kernel_size: 3
    weight_filler {
      type: "xavier"
      std: 0.03
    }
    bias_filler {
      type: "constant"
      value: 0.2
    }
  }
}
layers {
  bottom: "inception_3b/3x3"
  top: "inception_3b/3x3"
  name: "inception_3b/relu_3x3"
  type: RELU
}
layers {
  bottom: "inception_3a/output"
  top: "inception_3b/5x5_reduce"
  name: "inception_3b/5x5_reduce"
  type: CONVOLUTION
  blobs_lr: 1
  blobs_lr: 2
  weight_decay: 1
  weight_decay: 0
  convolution_param {
    num_output: 32
    kernel_size: 1
    weight_filler {
      type: "xavier"
      std: 0.2
    }
    bias_filler {
      type: "constant"
      value: 0.2
    }
  }
}
layers {
  bottom: "inception_3b/5x5_reduce"
  top: "inception_3b/5x5_reduce"
  name: "inception_3b/relu_5x5_reduce"
  type: RELU
}
layers {
  bottom: "inception_3b/5x5_reduce"
  top: "inception_3b/5x5"
  name: "inception_3b/5x5"
  type: CONVOLUTION
  blobs_lr: 1
  blobs_lr: 2
  weight_decay: 1
  weight_decay: 0
  convolution_param {
    num_output: 96
    pad: 2
    kernel_size: 5
    weight_filler {
      type: "xavier"
      std: 0.03
    }
    bias_filler {
      type: "constant"
      value: 0.2
    }
  }
}
layers {
  bottom: "inception_3b/5x5"
  top: "inception_3b/5x5"
  name: "inception_3b/relu_5x5"
  type: RELU
}
layers {
  bottom: "inception_3a/output"
  top: "inception_3b/pool"
  name: "inception_3b/pool"
  type: POOLING
  pooling_param {
    pool: MAX
    kernel_size: 3
    stride: 1
    pad: 1
  }
}
layers {
  bottom: "inception_3b/pool"
  top: "inception_3b/pool_proj"
  name: "inception_3b/pool_proj"
  type: CONVOLUTION
  blobs_lr: 1
  blobs_lr: 2
  weight_decay: 1
  weight_decay: 0
  convolution_param {
    num_output: 64
    kernel_size: 1
    weight_filler {
      type: "xavier"
      std: 0.1
    }
    bias_filler {
      type: "constant"
      value: 0.2
    }
  }
}
layers {
  bottom: "inception_3b/pool_proj"
  top: "inception_3b/pool_proj"
  name: "inception_3b/relu_pool_proj"
  type: RELU
}
layers {
  bottom: "inception_3b/1x1"
  bottom: "inception_3b/3x3"
  bottom: "inception_3b/5x5"
  bottom: "inception_3b/pool_proj"
  top: "inception_3b/output"
  name: "inception_3b/output"
  type: CONCAT
}
layers {
  bottom: "inception_3b/output"
  top: "pool3/3x3_s2"
  name: "pool3/3x3_s2"
  type: POOLING
  pooling_param {
    pool: MAX
    kernel_size: 3
    stride: 2
  }
}
layers {
  bottom: "pool3/3x3_s2"
  top: "inception_4a/1x1"
  name: "inception_4a/1x1"
  type: CONVOLUTION
  blobs_lr: 1
  blobs_lr: 2
  weight_decay: 1
  weight_decay: 0
  convolution_param {
    num_output: 192
    kernel_size: 1
    weight_filler {
      type: "xavier"
      std: 0.03
    }
    bias_filler {
      type: "constant"
      value: 0.2
    }
  }
}
layers {
  bottom: "inception_4a/1x1"
  top: "inception_4a/1x1"
  name: "inception_4a/relu_1x1"
  type: RELU
}
layers {
  bottom: "pool3/3x3_s2"
  top: "inception_4a/3x3_reduce"
  name: "inception_4a/3x3_reduce"
  type: CONVOLUTION
  blobs_lr: 1
  blobs_lr: 2
  weight_decay: 1
  weight_decay: 0
  convolution_param {
    num_output: 96
    kernel_size: 1
    weight_filler {
      type: "xavier"
      std: 0.09
    }
    bias_filler {
      type: "constant"
      value: 0.2
    }
  }
}
layers {
  bottom: "inception_4a/3x3_reduce"
  top: "inception_4a/3x3_reduce"
  name: "inception_4a/relu_3x3_reduce"
  type: RELU
}
layers {
  bottom: "inception_4a/3x3_reduce"
  top: "inception_4a/3x3"
  name: "inception_4a/3x3"
  type: CONVOLUTION
  blobs_lr: 1
  blobs_lr: 2
  weight_decay: 1
  weight_decay: 0
  convolution_param {
    num_output: 208
    pad: 1
    kernel_size: 3
    weight_filler {
      type: "xavier"
      std: 0.03
    }
    bias_filler {
      type: "constant"
      value: 0.2
    }
  }
}
layers {
  bottom: "inception_4a/3x3"
  top: "inception_4a/3x3"
  name: "inception_4a/relu_3x3"
  type: RELU
}
layers {
  bottom: "pool3/3x3_s2"
  top: "inception_4a/5x5_reduce"
  name: "inception_4a/5x5_reduce"
  type: CONVOLUTION
  blobs_lr: 1
  blobs_lr: 2
  weight_decay: 1
  weight_decay: 0
  convolution_param {
    num_output: 16
    kernel_size: 1
    weight_filler {
      type: "xavier"
      std: 0.2
    }
    bias_filler {
      type: "constant"
      value: 0.2
    }
  }
}
layers {
  bottom: "inception_4a/5x5_reduce"
  top: "inception_4a/5x5_reduce"
  name: "inception_4a/relu_5x5_reduce"
  type: RELU
}
layers {
  bottom: "inception_4a/5x5_reduce"
  top: "inception_4a/5x5"
  name: "inception_4a/5x5"
  type: CONVOLUTION
  blobs_lr: 1
  blobs_lr: 2
  weight_decay: 1
  weight_decay: 0
  convolution_param {
    num_output: 48
    pad: 2
    kernel_size: 5
    weight_filler {
      type: "xavier"
      std: 0.03
    }
    bias_filler {
      type: "constant"
      value: 0.2
    }
  }
}
layers {
  bottom: "inception_4a/5x5"
  top: "inception_4a/5x5"
  name: "inception_4a/relu_5x5"
  type: RELU
}
layers {
  bottom: "pool3/3x3_s2"
  top: "inception_4a/pool"
  name: "inception_4a/pool"
  type: POOLING
  pooling_param {
    pool: MAX
    kernel_size: 3
    stride: 1
    pad: 1
  }
}
layers {
  bottom: "inception_4a/pool"
  top: "inception_4a/pool_proj"
  name: "inception_4a/pool_proj"
  type: CONVOLUTION
  blobs_lr: 1
  blobs_lr: 2
  weight_decay: 1
  weight_decay: 0
  convolution_param {
    num_output: 64
    kernel_size: 1
    weight_filler {
      type: "xavier"
      std: 0.1
    }
    bias_filler {
      type: "constant"
      value: 0.2
    }
  }
}
layers {
  bottom: "inception_4a/pool_proj"
  top: "inception_4a/pool_proj"
  name: "inception_4a/relu_pool_proj"
  type: RELU
}
layers {
  bottom: "inception_4a/1x1"
  bottom: "inception_4a/3x3"
  bottom: "inception_4a/5x5"
  bottom: "inception_4a/pool_proj"
  top: "inception_4a/output"
  name: "inception_4a/output"
  type: CONCAT
}
layers {
  bottom: "inception_4a/output"
  top: "loss1/ave_pool"
  name: "loss1/ave_pool"
  type: POOLING
  pooling_param {
    pool: AVE
    kernel_size: 5
    stride: 3
  }
}
layers {
  bottom: "loss1/ave_pool"
  top: "loss1/conv"
  name: "loss1/conv"
  type: CONVOLUTION
  blobs_lr: 1
  blobs_lr: 2
  weight_decay: 1
  weight_decay: 0
  convolution_param {
    num_output: 128
    kernel_size: 1
    weight_filler {
      type: "xavier"
      std: 0.08
    }
    bias_filler {
      type: "constant"
      value: 0.2
    }
  }
}
layers {
  bottom: "loss1/conv"
  top: "loss1/conv"
  name: "loss1/relu_conv"
  type: RELU
}
layers {
  bottom: "loss1/conv"
  top: "loss1/fd_fc"
  name: "loss1/fd_fc"
  type: INNER_PRODUCT
  blobs_lr: 10
  blobs_lr: 20
  weight_decay: 1
  weight_decay: 0
  inner_product_param {
    num_output: 1024
    weight_filler {
      type: "xavier"
      std: 0.02
    }
    bias_filler {
      type: "constant"
      value: 0.2
    }
  }
}
layers {
  bottom: "loss1/fd_fc"
  top: "loss1/fd_fc"
  name: "loss1/relu_fc"
  type: RELU
}
layers {
  bottom: "loss1/fd_fc"
  top: "loss1/fd_fc"
  name: "loss1/drop_fc"
  type: DROPOUT
  dropout_param {
    dropout_ratio: 0.7
  }
}
layers {
  bottom: "loss1/fd_fc"
  top: "fd_loss1/classifier"
  name: "fd_loss1/classifier"
  type: INNER_PRODUCT
  blobs_lr: 10
  blobs_lr: 20
  weight_decay: 1
  weight_decay: 0
  inner_product_param {
    num_output: 2
    weight_filler {
      type: "xavier"
      std: 0.0009765625
    }
    bias_filler {
      type: "constant"
      value: 0
    }
  }
}
layers {
  bottom: "fd_loss1/classifier"
  bottom: "label"
  top: "loss1/loss1"
  name: "loss1/loss"
  type: SOFTMAX_LOSS
  loss_weight: 0.3
}
layers {
  bottom: "fd_loss1/classifier"
  bottom: "label"
  top: "loss1/top-1"
  name: "loss1/top-1"
  type: ACCURACY
  include {
    phase: TEST
  }
}
layers {
  bottom: "inception_4a/output"
  top: "inception_4b/1x1"
  name: "inception_4b/1x1"
  type: CONVOLUTION
  blobs_lr: 1
  blobs_lr: 2
  weight_decay: 1
  weight_decay: 0
  convolution_param {
    num_output: 160
    kernel_size: 1
    weight_filler {
      type: "xavier"
      std: 0.03
    }
    bias_filler {
      type: "constant"
      value: 0.2
    }
  }
}
layers {
  bottom: "inception_4b/1x1"
  top: "inception_4b/1x1"
  name: "inception_4b/relu_1x1"
  type: RELU
}
layers {
  bottom: "inception_4a/output"
  top: "inception_4b/3x3_reduce"
  name: "inception_4b/3x3_reduce"
  type: CONVOLUTION
  blobs_lr: 1
  blobs_lr: 2
  weight_decay: 1
  weight_decay: 0
  convolution_param {
    num_output: 112
    kernel_size: 1
    weight_filler {
      type: "xavier"
      std: 0.09
    }
    bias_filler {
      type: "constant"
      value: 0.2
    }
  }
}
layers {
  bottom: "inception_4b/3x3_reduce"
  top: "inception_4b/3x3_reduce"
  name: "inception_4b/relu_3x3_reduce"
  type: RELU
}
layers {
  bottom: "inception_4b/3x3_reduce"
  top: "inception_4b/3x3"
  name: "inception_4b/3x3"
  type: CONVOLUTION
  blobs_lr: 1
  blobs_lr: 2
  weight_decay: 1
  weight_decay: 0
  convolution_param {
    num_output: 224
    pad: 1
    kernel_size: 3
    weight_filler {
      type: "xavier"
      std: 0.03
    }
    bias_filler {
      type: "constant"
      value: 0.2
    }
  }
}
layers {
  bottom: "inception_4b/3x3"
  top: "inception_4b/3x3"
  name: "inception_4b/relu_3x3"
  type: RELU
}
layers {
  bottom: "inception_4a/output"
  top: "inception_4b/5x5_reduce"
  name: "inception_4b/5x5_reduce"
  type: CONVOLUTION
  blobs_lr: 1
  blobs_lr: 2
  weight_decay: 1
  weight_decay: 0
  convolution_param {
    num_output: 24
    kernel_size: 1
    weight_filler {
      type: "xavier"
      std: 0.2
    }
    bias_filler {
      type: "constant"
      value: 0.2
    }
  }
}
layers {
  bottom: "inception_4b/5x5_reduce"
  top: "inception_4b/5x5_reduce"
  name: "inception_4b/relu_5x5_reduce"
  type: RELU
}
layers {
  bottom: "inception_4b/5x5_reduce"
  top: "inception_4b/5x5"
  name: "inception_4b/5x5"
  type: CONVOLUTION
  blobs_lr: 1
  blobs_lr: 2
  weight_decay: 1
  weight_decay: 0
  convolution_param {
    num_output: 64
    pad: 2
    kernel_size: 5
    weight_filler {
      type: "xavier"
      std: 0.03
    }
    bias_filler {
      type: "constant"
      value: 0.2
    }
  }
}
layers {
  bottom: "inception_4b/5x5"
  top: "inception_4b/5x5"
  name: "inception_4b/relu_5x5"
  type: RELU
}
layers {
  bottom: "inception_4a/output"
  top: "inception_4b/pool"
  name: "inception_4b/pool"
  type: POOLING
  pooling_param {
    pool: MAX
    kernel_size: 3
    stride: 1
    pad: 1
  }
}
layers {
  bottom: "inception_4b/pool"
  top: "inception_4b/pool_proj"
  name: "inception_4b/pool_proj"
  type: CONVOLUTION
  blobs_lr: 1
  blobs_lr: 2
  weight_decay: 1
  weight_decay: 0
  convolution_param {
    num_output: 64
    kernel_size: 1
    weight_filler {
      type: "xavier"
      std: 0.1
    }
    bias_filler {
      type: "constant"
      value: 0.2
    }
  }
}
layers {
  bottom: "inception_4b/pool_proj"
  top: "inception_4b/pool_proj"
  name: "inception_4b/relu_pool_proj"
  type: RELU
}
layers {
  bottom: "inception_4b/1x1"
  bottom: "inception_4b/3x3"
  bottom: "inception_4b/5x5"
  bottom: "inception_4b/pool_proj"
  top: "inception_4b/output"
  name: "inception_4b/output"
  type: CONCAT
}
layers {
  bottom: "inception_4b/output"
  top: "inception_4c/1x1"
  name: "inception_4c/1x1"
  type: CONVOLUTION
  blobs_lr: 1
  blobs_lr: 2
  weight_decay: 1
  weight_decay: 0
  convolution_param {
    num_output: 128
    kernel_size: 1
    weight_filler {
      type: "xavier"
      std: 0.03
    }
    bias_filler {
      type: "constant"
      value: 0.2
    }
  }
}
layers {
  bottom: "inception_4c/1x1"
  top: "inception_4c/1x1"
  name: "inception_4c/relu_1x1"
  type: RELU
}
layers {
  bottom: "inception_4b/output"
  top: "inception_4c/3x3_reduce"
  name: "inception_4c/3x3_reduce"
  type: CONVOLUTION
  blobs_lr: 1
  blobs_lr: 2
  weight_decay: 1
  weight_decay: 0
  convolution_param {
    num_output: 128
    kernel_size: 1
    weight_filler {
      type: "xavier"
      std: 0.09
    }
    bias_filler {
      type: "constant"
      value: 0.2
    }
  }
}
layers {
  bottom: "inception_4c/3x3_reduce"
  top: "inception_4c/3x3_reduce"
  name: "inception_4c/relu_3x3_reduce"
  type: RELU
}
layers {
  bottom: "inception_4c/3x3_reduce"
  top: "inception_4c/3x3"
  name: "inception_4c/3x3"
  type: CONVOLUTION
  blobs_lr: 1
  blobs_lr: 2
  weight_decay: 1
  weight_decay: 0
  convolution_param {
    num_output: 256
    pad: 1
    kernel_size: 3
    weight_filler {
      type: "xavier"
      std: 0.03
    }
    bias_filler {
      type: "constant"
      value: 0.2
    }
  }
}
layers {
  bottom: "inception_4c/3x3"
  top: "inception_4c/3x3"
  name: "inception_4c/relu_3x3"
  type: RELU
}
layers {
  bottom: "inception_4b/output"
  top: "inception_4c/5x5_reduce"
  name: "inception_4c/5x5_reduce"
  type: CONVOLUTION
  blobs_lr: 1
  blobs_lr: 2
  weight_decay: 1
  weight_decay: 0
  convolution_param {
    num_output: 24
    kernel_size: 1
    weight_filler {
      type: "xavier"
      std: 0.2
    }
    bias_filler {
      type: "constant"
      value: 0.2
    }
  }
}
layers {
  bottom: "inception_4c/5x5_reduce"
  top: "inception_4c/5x5_reduce"
  name: "inception_4c/relu_5x5_reduce"
  type: RELU
}
layers {
  bottom: "inception_4c/5x5_reduce"
  top: "inception_4c/5x5"
  name: "inception_4c/5x5"
  type: CONVOLUTION
  blobs_lr: 1
  blobs_lr: 2
  weight_decay: 1
  weight_decay: 0
  convolution_param {
    num_output: 64
    pad: 2
    kernel_size: 5
    weight_filler {
      type: "xavier"
      std: 0.03
    }
    bias_filler {
      type: "constant"
      value: 0.2
    }
  }
}
layers {
  bottom: "inception_4c/5x5"
  top: "inception_4c/5x5"
  name: "inception_4c/relu_5x5"
  type: RELU
}
layers {
  bottom: "inception_4b/output"
  top: "inception_4c/pool"
  name: "inception_4c/pool"
  type: POOLING
  pooling_param {
    pool: MAX
    kernel_size: 3
    stride: 1
    pad: 1
  }
}
layers {
  bottom: "inception_4c/pool"
  top: "inception_4c/pool_proj"
  name: "inception_4c/pool_proj"
  type: CONVOLUTION
  blobs_lr: 1
  blobs_lr: 2
  weight_decay: 1
  weight_decay: 0
  convolution_param {
    num_output: 64
    kernel_size: 1
    weight_filler {
      type: "xavier"
      std: 0.1
    }
    bias_filler {
      type: "constant"
      value: 0.2
    }
  }
}
layers {
  bottom: "inception_4c/pool_proj"
  top: "inception_4c/pool_proj"
  name: "inception_4c/relu_pool_proj"
  type: RELU
}
layers {
  bottom: "inception_4c/1x1"
  bottom: "inception_4c/3x3"
  bottom: "inception_4c/5x5"
  bottom: "inception_4c/pool_proj"
  top: "inception_4c/output"
  name: "inception_4c/output"
  type: CONCAT
}
layers {
  bottom: "inception_4c/output"
  top: "inception_4d/1x1"
  name: "inception_4d/1x1"
  type: CONVOLUTION
  blobs_lr: 1
  blobs_lr: 2
  weight_decay: 1
  weight_decay: 0
  convolution_param {
    num_output: 112
    kernel_size: 1
    weight_filler {
      type: "xavier"
      std: 0.03
    }
    bias_filler {
      type: "constant"
      value: 0.2
    }
  }
}
layers {
  bottom: "inception_4d/1x1"
  top: "inception_4d/1x1"
  name: "inception_4d/relu_1x1"
  type: RELU
}
layers {
  bottom: "inception_4c/output"
  top: "inception_4d/3x3_reduce"
  name: "inception_4d/3x3_reduce"
  type: CONVOLUTION
  blobs_lr: 1
  blobs_lr: 2
  weight_decay: 1
  weight_decay: 0
  convolution_param {
    num_output: 144
    kernel_size: 1
    weight_filler {
      type: "xavier"
      std: 0.09
    }
    bias_filler {
      type: "constant"
      value: 0.2
    }
  }
}
layers {
  bottom: "inception_4d/3x3_reduce"
  top: "inception_4d/3x3_reduce"
  name: "inception_4d/relu_3x3_reduce"
  type: RELU
}
layers {
  bottom: "inception_4d/3x3_reduce"
  top: "inception_4d/3x3"
  name: "inception_4d/3x3"
  type: CONVOLUTION
  blobs_lr: 1
  blobs_lr: 2
  weight_decay: 1
  weight_decay: 0
  convolution_param {
    num_output: 288
    pad: 1
    kernel_size: 3
    weight_filler {
      type: "xavier"
      std: 0.03
    }
    bias_filler {
      type: "constant"
      value: 0.2
    }
  }
}
layers {
  bottom: "inception_4d/3x3"
  top: "inception_4d/3x3"
  name: "inception_4d/relu_3x3"
  type: RELU
}
layers {
  bottom: "inception_4c/output"
  top: "inception_4d/5x5_reduce"
  name: "inception_4d/5x5_reduce"
  type: CONVOLUTION
  blobs_lr: 1
  blobs_lr: 2
  weight_decay: 1
  weight_decay: 0
  convolution_param {
    num_output: 32
    kernel_size: 1
    weight_filler {
      type: "xavier"
      std: 0.2
    }
    bias_filler {
      type: "constant"
      value: 0.2
    }
  }
}
layers {
  bottom: "inception_4d/5x5_reduce"
  top: "inception_4d/5x5_reduce"
  name: "inception_4d/relu_5x5_reduce"
  type: RELU
}
layers {
  bottom: "inception_4d/5x5_reduce"
  top: "inception_4d/5x5"
  name: "inception_4d/5x5"
  type: CONVOLUTION
  blobs_lr: 1
  blobs_lr: 2
  weight_decay: 1
  weight_decay: 0
  convolution_param {
    num_output: 64
    pad: 2
    kernel_size: 5
    weight_filler {
      type: "xavier"
      std: 0.03
    }
    bias_filler {
      type: "constant"
      value: 0.2
    }
  }
}
layers {
  bottom: "inception_4d/5x5"
  top: "inception_4d/5x5"
  name: "inception_4d/relu_5x5"
  type: RELU
}
layers {
  bottom: "inception_4c/output"
  top: "inception_4d/pool"
  name: "inception_4d/pool"
  type: POOLING
  pooling_param {
    pool: MAX
    kernel_size: 3
    stride: 1
    pad: 1
  }
}
layers {
  bottom: "inception_4d/pool"
  top: "inception_4d/pool_proj"
  name: "inception_4d/pool_proj"
  type: CONVOLUTION
  blobs_lr: 1
  blobs_lr: 2
  weight_decay: 1
  weight_decay: 0
  convolution_param {
    num_output: 64
    kernel_size: 1
    weight_filler {
      type: "xavier"
      std: 0.1
    }
    bias_filler {
      type: "constant"
      value: 0.2
    }
  }
}
layers {
  bottom: "inception_4d/pool_proj"
  top: "inception_4d/pool_proj"
  name: "inception_4d/relu_pool_proj"
  type: RELU
}
layers {
  bottom: "inception_4d/1x1"
  bottom: "inception_4d/3x3"
  bottom: "inception_4d/5x5"
  bottom: "inception_4d/pool_proj"
  top: "inception_4d/output"
  name: "inception_4d/output"
  type: CONCAT
}
layers {
  bottom: "inception_4d/output"
  top: "loss2/ave_pool"
  name: "loss2/ave_pool"
  type: POOLING
  pooling_param {
    pool: AVE
    kernel_size: 5
    stride: 3
  }
}
layers {
  bottom: "loss2/ave_pool"
  top: "loss2/conv"
  name: "loss2/conv"
  type: CONVOLUTION
  blobs_lr: 1
  blobs_lr: 2
  weight_decay: 1
  weight_decay: 0
  convolution_param {
    num_output: 128
    kernel_size: 1
    weight_filler {
      type: "xavier"
      std: 0.08
    }
    bias_filler {
      type: "constant"
      value: 0.2
    }
  }
}
layers {
  bottom: "loss2/conv"
  top: "loss2/conv"
  name: "loss2/relu_conv"
  type: RELU
}
layers {
  bottom: "loss2/conv"
  top: "loss2/fd_fc"
  name: "loss2/fd_fc"
  type: INNER_PRODUCT
  blobs_lr: 10
  blobs_lr: 20
  weight_decay: 1
  weight_decay: 0
  inner_product_param {
    num_output: 1024
    weight_filler {
      type: "xavier"
      std: 0.02
    }
    bias_filler {
      type: "constant"
      value: 0.2
    }
  }
}
layers {
  bottom: "loss2/fd_fc"
  top: "loss2/fd_fc"
  name: "loss2/relu_fc"
  type: RELU
}
layers {
  bottom: "loss2/fd_fc"
  top: "loss2/fd_fc"
  name: "loss2/drop_fc"
  type: DROPOUT
  dropout_param {
    dropout_ratio: 0.7
  }
}
layers {
  bottom: "loss2/fd_fc"
  top: "fd_loss2/classifier"
  name: "fd_loss2/classifier"
  type: INNER_PRODUCT
  blobs_lr: 10
  blobs_lr: 20
  weight_decay: 1
  weight_decay: 0
  inner_product_param {
    num_output: 2
    weight_filler {
      type: "xavier"
      std: 0.0009765625
    }
    bias_filler {
      type: "constant"
      value: 0
    }
  }
}
layers {
  bottom: "fd_loss2/classifier"
  bottom: "label"
  top: "loss2/loss1"
  name: "loss2/loss"
  type: SOFTMAX_LOSS
  loss_weight: 0.3
}
layers {
  bottom: "fd_loss2/classifier"
  bottom: "label"
  top: "loss2/top-1"
  name: "loss2/top-1"
  type: ACCURACY
  include {
    phase: TEST
  }
}
layers {
  bottom: "inception_4d/output"
  top: "inception_4e/1x1"
  name: "inception_4e/1x1"
  type: CONVOLUTION
  blobs_lr: 1
  blobs_lr: 2
  weight_decay: 1
  weight_decay: 0
  convolution_param {
    num_output: 256
    kernel_size: 1
    weight_filler {
      type: "xavier"
      std: 0.03
    }
    bias_filler {
      type: "constant"
      value: 0.2
    }
  }
}
layers {
  bottom: "inception_4e/1x1"
  top: "inception_4e/1x1"
  name: "inception_4e/relu_1x1"
  type: RELU
}
layers {
  bottom: "inception_4d/output"
  top: "inception_4e/3x3_reduce"
  name: "inception_4e/3x3_reduce"
  type: CONVOLUTION
  blobs_lr: 1
  blobs_lr: 2
  weight_decay: 1
  weight_decay: 0
  convolution_param {
    num_output: 160
    kernel_size: 1
    weight_filler {
      type: "xavier"
      std: 0.09
    }
    bias_filler {
      type: "constant"
      value: 0.2
    }
  }
}
layers {
  bottom: "inception_4e/3x3_reduce"
  top: "inception_4e/3x3_reduce"
  name: "inception_4e/relu_3x3_reduce"
  type: RELU
}
layers {
  bottom: "inception_4e/3x3_reduce"
  top: "inception_4e/3x3"
  name: "inception_4e/3x3"
  type: CONVOLUTION
  blobs_lr: 1
  blobs_lr: 2
  weight_decay: 1
  weight_decay: 0
  convolution_param {
    num_output: 320
    pad: 1
    kernel_size: 3
    weight_filler {
      type: "xavier"
      std: 0.03
    }
    bias_filler {
      type: "constant"
      value: 0.2
    }
  }
}
layers {
  bottom: "inception_4e/3x3"
  top: "inception_4e/3x3"
  name: "inception_4e/relu_3x3"
  type: RELU
}
layers {
  bottom: "inception_4d/output"
  top: "inception_4e/5x5_reduce"
  name: "inception_4e/5x5_reduce"
  type: CONVOLUTION
  blobs_lr: 1
  blobs_lr: 2
  weight_decay: 1
  weight_decay: 0
  convolution_param {
    num_output: 32
    kernel_size: 1
    weight_filler {
      type: "xavier"
      std: 0.2
    }
    bias_filler {
…
I0414 08:08:59.914044   669 net.cpp:356] inception_4b/output_inception_4b/output_0_split -> inception_4b/output_inception_4b/output_0_split_2
I0414 08:08:59.914067   669 net.cpp:356] inception_4b/output_inception_4b/output_0_split -> inception_4b/output_inception_4b/output_0_split_3
I0414 08:08:59.914082   669 net.cpp:96] Setting up inception_4b/output_inception_4b/output_0_split
I0414 08:08:59.914094   669 net.cpp:103] Top shape: 32 512 10 10 (1638400)
I0414 08:08:59.914103   669 net.cpp:103] Top shape: 32 512 10 10 (1638400)
I0414 08:08:59.914109   669 net.cpp:103] Top shape: 32 512 10 10 (1638400)
I0414 08:08:59.914116   669 net.cpp:103] Top shape: 32 512 10 10 (1638400)
I0414 08:08:59.914122   669 net.cpp:113] Memory required for data: 699852424
I0414 08:08:59.914139   669 net.cpp:67] Creating Layer inception_4c/1x1
I0414 08:08:59.914149   669 net.cpp:394] inception_4c/1x1 <- inception_4b/output_inception_4b/output_0_split_0
I0414 08:08:59.914171   669 net.cpp:356] inception_4c/1x1 -> inception_4c/1x1
I0414 08:08:59.914192   669 net.cpp:96] Setting up inception_4c/1x1
I0414 08:08:59.918257   669 net.cpp:103] Top shape: 32 128 10 10 (409600)
I0414 08:08:59.918274   669 net.cpp:113] Memory required for data: 701490824
I0414 08:08:59.918295   669 net.cpp:67] Creating Layer inception_4c/relu_1x1
I0414 08:08:59.918305   669 net.cpp:394] inception_4c/relu_1x1 <- inception_4c/1x1
I0414 08:08:59.918323   669 net.cpp:345] inception_4c/relu_1x1 -> inception_4c/1x1 (in-place)
I0414 08:08:59.918336   669 net.cpp:96] Setting up inception_4c/relu_1x1
I0414 08:08:59.918344   669 net.cpp:103] Top shape: 32 128 10 10 (409600)
I0414 08:08:59.918351   669 net.cpp:113] Memory required for data: 703129224
I0414 08:08:59.918371   669 net.cpp:67] Creating Layer inception_4c/3x3_reduce
I0414 08:08:59.918390   669 net.cpp:394] inception_4c/3x3_reduce <- inception_4b/output_inception_4b/output_0_split_1
I0414 08:08:59.918413   669 net.cpp:356] inception_4c/3x3_reduce -> inception_4c/3x3_reduce
I0414 08:08:59.918431   669 net.cpp:96] Setting up inception_4c/3x3_reduce
I0414 08:08:59.922508   669 net.cpp:103] Top shape: 32 128 10 10 (409600)
I0414 08:08:59.922523   669 net.cpp:113] Memory required for data: 704767624
I0414 08:08:59.922545   669 net.cpp:67] Creating Layer inception_4c/relu_3x3_reduce
I0414 08:08:59.922555   669 net.cpp:394] inception_4c/relu_3x3_reduce <- inception_4c/3x3_reduce
I0414 08:08:59.922572   669 net.cpp:345] inception_4c/relu_3x3_reduce -> inception_4c/3x3_reduce (in-place)
I0414 08:08:59.922593   669 net.cpp:96] Setting up inception_4c/relu_3x3_reduce
I0414 08:08:59.922601   669 net.cpp:103] Top shape: 32 128 10 10 (409600)
I0414 08:08:59.922608   669 net.cpp:113] Memory required for data: 706406024
I0414 08:08:59.922627   669 net.cpp:67] Creating Layer inception_4c/3x3
I0414 08:08:59.922637   669 net.cpp:394] inception_4c/3x3 <- inception_4c/3x3_reduce
I0414 08:08:59.922658   669 net.cpp:356] inception_4c/3x3 -> inception_4c/3x3
I0414 08:08:59.922684   669 net.cpp:96] Setting up inception_4c/3x3
I0414 08:08:59.940857   669 net.cpp:103] Top shape: 32 256 10 10 (819200)
I0414 08:08:59.940877   669 net.cpp:113] Memory required for data: 709682824
I0414 08:08:59.940939   669 net.cpp:67] Creating Layer inception_4c/relu_3x3
I0414 08:08:59.940958   669 net.cpp:394] inception_4c/relu_3x3 <- inception_4c/3x3
I0414 08:08:59.940979   669 net.cpp:345] inception_4c/relu_3x3 -> inception_4c/3x3 (in-place)
I0414 08:08:59.940994   669 net.cpp:96] Setting up inception_4c/relu_3x3
I0414 08:08:59.941004   669 net.cpp:103] Top shape: 32 256 10 10 (819200)
I0414 08:08:59.941010   669 net.cpp:113] Memory required for data: 712959624
I0414 08:08:59.941031   669 net.cpp:67] Creating Layer inception_4c/5x5_reduce
I0414 08:08:59.941042   669 net.cpp:394] inception_4c/5x5_reduce <- inception_4b/output_inception_4b/output_0_split_2
I0414 08:08:59.941064   669 net.cpp:356] inception_4c/5x5_reduce -> inception_4c/5x5_reduce
I0414 08:08:59.941083   669 net.cpp:96] Setting up inception_4c/5x5_reduce
I0414 08:08:59.941877   669 net.cpp:103] Top shape: 32 24 10 10 (76800)
I0414 08:08:59.941892   669 net.cpp:113] Memory required for data: 713266824
I0414 08:08:59.941913   669 net.cpp:67] Creating Layer inception_4c/relu_5x5_reduce
I0414 08:08:59.941923   669 net.cpp:394] inception_4c/relu_5x5_reduce <- inception_4c/5x5_reduce
I0414 08:08:59.941941   669 net.cpp:345] inception_4c/relu_5x5_reduce -> inception_4c/5x5_reduce (in-place)
I0414 08:08:59.941956   669 net.cpp:96] Setting up inception_4c/relu_5x5_reduce
I0414 08:08:59.941963   669 net.cpp:103] Top shape: 32 24 10 10 (76800)
I0414 08:08:59.941970   669 net.cpp:113] Memory required for data: 713574024
I0414 08:08:59.941994   669 net.cpp:67] Creating Layer inception_4c/5x5
I0414 08:08:59.942006   669 net.cpp:394] inception_4c/5x5 <- inception_4c/5x5_reduce
I0414 08:08:59.942028   669 net.cpp:356] inception_4c/5x5 -> inception_4c/5x5
I0414 08:08:59.942054   669 net.cpp:96] Setting up inception_4c/5x5
I0414 08:08:59.944471   669 net.cpp:103] Top shape: 32 64 10 10 (204800)
I0414 08:08:59.944488   669 net.cpp:113] Memory required for data: 714393224
I0414 08:08:59.944509   669 net.cpp:67] Creating Layer inception_4c/relu_5x5
I0414 08:08:59.944519   669 net.cpp:394] inception_4c/relu_5x5 <- inception_4c/5x5
I0414 08:08:59.944540   669 net.cpp:345] inception_4c/relu_5x5 -> inception_4c/5x5 (in-place)
I0414 08:08:59.944555   669 net.cpp:96] Setting up inception_4c/relu_5x5
I0414 08:08:59.944564   669 net.cpp:103] Top shape: 32 64 10 10 (204800)
I0414 08:08:59.944571   669 net.cpp:113] Memory required for data: 715212424
I0414 08:08:59.944586   669 net.cpp:67] Creating Layer inception_4c/pool
I0414 08:08:59.944594   669 net.cpp:394] inception_4c/pool <- inception_4b/output_inception_4b/output_0_split_3
I0414 08:08:59.944613   669 net.cpp:356] inception_4c/pool -> inception_4c/pool
I0414 08:08:59.944638   669 net.cpp:96] Setting up inception_4c/pool
I0414 08:08:59.944653   669 net.cpp:103] Top shape: 32 512 10 10 (1638400)
I0414 08:08:59.944659   669 net.cpp:113] Memory required for data: 721766024
I0414 08:08:59.944679   669 net.cpp:67] Creating Layer inception_4c/pool_proj
I0414 08:08:59.944696   669 net.cpp:394] inception_4c/pool_proj <- inception_4c/pool
I0414 08:08:59.944718   669 net.cpp:356] inception_4c/pool_proj -> inception_4c/pool_proj
I0414 08:08:59.944736   669 net.cpp:96] Setting up inception_4c/pool_proj
I0414 08:08:59.946797   669 net.cpp:103] Top shape: 32 64 10 10 (204800)
I0414 08:08:59.946812   669 net.cpp:113] Memory required for data: 722585224
I0414 08:08:59.946832   669 net.cpp:67] Creating Layer inception_4c/relu_pool_proj
I0414 08:08:59.946843   669 net.cpp:394] inception_4c/relu_pool_proj <- inception_4c/pool_proj
I0414 08:08:59.946861   669 net.cpp:345] inception_4c/relu_pool_proj -> inception_4c/pool_proj (in-place)
I0414 08:08:59.946877   669 net.cpp:96] Setting up inception_4c/relu_pool_proj
I0414 08:08:59.946884   669 net.cpp:103] Top shape: 32 64 10 10 (204800)
I0414 08:08:59.946892   669 net.cpp:113] Memory required for data: 723404424
I0414 08:08:59.946907   669 net.cpp:67] Creating Layer inception_4c/output
I0414 08:08:59.946916   669 net.cpp:394] inception_4c/output <- inception_4c/1x1
I0414 08:08:59.946931   669 net.cpp:394] inception_4c/output <- inception_4c/3x3
I0414 08:08:59.946944   669 net.cpp:394] inception_4c/output <- inception_4c/5x5
I0414 08:08:59.946956   669 net.cpp:394] inception_4c/output <- inception_4c/pool_proj
I0414 08:08:59.946970   669 net.cpp:356] inception_4c/output -> inception_4c/output
I0414 08:08:59.946985   669 net.cpp:96] Setting up inception_4c/output
I0414 08:08:59.946997   669 net.cpp:103] Top shape: 32 512 10 10 (1638400)
I0414 08:08:59.947003   669 net.cpp:113] Memory required for data: 729958024
I0414 08:08:59.947016   669 net.cpp:67] Creating Layer inception_4c/output_inception_4c/output_0_split
I0414 08:08:59.947026   669 net.cpp:394] inception_4c/output_inception_4c/output_0_split <- inception_4c/output
I0414 08:08:59.947046   669 net.cpp:356] inception_4c/output_inception_4c/output_0_split -> inception_4c/output_inception_4c/output_0_split_0
I0414 08:08:59.947077   669 net.cpp:356] inception_4c/output_inception_4c/output_0_split -> inception_4c/output_inception_4c/output_0_split_1
I0414 08:08:59.947095   669 net.cpp:356] inception_4c/output_inception_4c/output_0_split -> inception_4c/output_inception_4c/output_0_split_2
I0414 08:08:59.947114   669 net.cpp:356] inception_4c/output_inception_4c/output_0_split -> inception_4c/output_inception_4c/output_0_split_3
I0414 08:08:59.947129   669 net.cpp:96] Setting up inception_4c/output_inception_4c/output_0_split
I0414 08:08:59.947141   669 net.cpp:103] Top shape: 32 512 10 10 (1638400)
I0414 08:08:59.947149   669 net.cpp:103] Top shape: 32 512 10 10 (1638400)
I0414 08:08:59.947156   669 net.cpp:103] Top shape: 32 512 10 10 (1638400)
I0414 08:08:59.947163   669 net.cpp:103] Top shape: 32 512 10 10 (1638400)
I0414 08:08:59.947170   669 net.cpp:113] Memory required for data: 756172424
I0414 08:08:59.947191   669 net.cpp:67] Creating Layer inception_4d/1x1
I0414 08:08:59.947201   669 net.cpp:394] inception_4d/1x1 <- inception_4c/output_inception_4c/output_0_split_0
I0414 08:08:59.947221   669 net.cpp:356] inception_4d/1x1 -> inception_4d/1x1
I0414 08:08:59.947242   669 net.cpp:96] Setting up inception_4d/1x1
I0414 08:08:59.950824   669 net.cpp:103] Top shape: 32 112 10 10 (358400)
I0414 08:08:59.950840   669 net.cpp:113] Memory required for data: 757606024
I0414 08:08:59.950861   669 net.cpp:67] Creating Layer inception_4d/relu_1x1
I0414 08:08:59.950872   669 net.cpp:394] inception_4d/relu_1x1 <- inception_4d/1x1
I0414 08:08:59.950896   669 net.cpp:345] inception_4d/relu_1x1 -> inception_4d/1x1 (in-place)
I0414 08:08:59.950911   669 net.cpp:96] Setting up inception_4d/relu_1x1
I0414 08:08:59.950919   669 net.cpp:103] Top shape: 32 112 10 10 (358400)
I0414 08:08:59.950927   669 net.cpp:113] Memory required for data: 759039624
I0414 08:08:59.950942   669 net.cpp:67] Creating Layer inception_4d/3x3_reduce
I0414 08:08:59.950952   669 net.cpp:394] inception_4d/3x3_reduce <- inception_4c/output_inception_4c/output_0_split_1
I0414 08:08:59.950974   669 net.cpp:356] inception_4d/3x3_reduce -> inception_4d/3x3_reduce
I0414 08:08:59.950996   669 net.cpp:96] Setting up inception_4d/3x3_reduce
I0414 08:08:59.955577   669 net.cpp:103] Top shape: 32 144 10 10 (460800)
I0414 08:08:59.955593   669 net.cpp:113] Memory required for data: 760882824
I0414 08:08:59.955615   669 net.cpp:67] Creating Layer inception_4d/relu_3x3_reduce
I0414 08:08:59.955624   669 net.cpp:394] inception_4d/relu_3x3_reduce <- inception_4d/3x3_reduce
I0414 08:08:59.955649   669 net.cpp:345] inception_4d/relu_3x3_reduce -> inception_4d/3x3_reduce (in-place)
I0414 08:08:59.955675   669 net.cpp:96] Setting up inception_4d/relu_3x3_reduce
I0414 08:08:59.955684   669 net.cpp:103] Top shape: 32 144 10 10 (460800)
I0414 08:08:59.955690   669 net.cpp:113] Memory required for data: 762726024
I0414 08:08:59.955708   669 net.cpp:67] Creating Layer inception_4d/3x3
I0414 08:08:59.955718   669 net.cpp:394] inception_4d/3x3 <- inception_4d/3x3_reduce
I0414 08:08:59.955741   669 net.cpp:356] inception_4d/3x3 -> inception_4d/3x3
I0414 08:08:59.955760   669 net.cpp:96] Setting up inception_4d/3x3
I0414 08:08:59.978703   669 net.cpp:103] Top shape: 32 288 10 10 (921600)
I0414 08:08:59.978721   669 net.cpp:113] Memory required for data: 766412424
I0414 08:08:59.978744   669 net.cpp:67] Creating Layer inception_4d/relu_3x3
I0414 08:08:59.978756   669 net.cpp:394] inception_4d/relu_3x3 <- inception_4d/3x3
I0414 08:08:59.978782   669 net.cpp:345] inception_4d/relu_3x3 -> inception_4d/3x3 (in-place)
I0414 08:08:59.978801   669 net.cpp:96] Setting up inception_4d/relu_3x3
I0414 08:08:59.978808   669 net.cpp:103] Top shape: 32 288 10 10 (921600)
I0414 08:08:59.978816   669 net.cpp:113] Memory required for data: 770098824
I0414 08:08:59.978832   669 net.cpp:67] Creating Layer inception_4d/5x5_reduce
I0414 08:08:59.978840   669 net.cpp:394] inception_4d/5x5_reduce <- inception_4c/output_inception_4c/output_0_split_2
I0414 08:08:59.978862   669 net.cpp:356] inception_4d/5x5_reduce -> inception_4d/5x5_reduce
I0414 08:08:59.978893   669 net.cpp:96] Setting up inception_4d/5x5_reduce
I0414 08:08:59.980131   669 net.cpp:103] Top shape: 32 32 10 10 (102400)
I0414 08:08:59.980151   669 net.cpp:113] Memory required for data: 770508424
I0414 08:08:59.980171   669 net.cpp:67] Creating Layer inception_4d/relu_5x5_reduce
I0414 08:08:59.980180   669 net.cpp:394] inception_4d/relu_5x5_reduce <- inception_4d/5x5_reduce
I0414 08:08:59.980198   669 net.cpp:345] inception_4d/relu_5x5_reduce -> inception_4d/5x5_reduce (in-place)
I0414 08:08:59.980211   669 net.cpp:96] Setting up inception_4d/relu_5x5_reduce
I0414 08:08:59.980218   669 net.cpp:103] Top shape: 32 32 10 10 (102400)
I0414 08:08:59.980223   669 net.cpp:113] Memory required for data: 770918024
I0414 08:08:59.980237   669 net.cpp:67] Creating Layer inception_4d/5x5
I0414 08:08:59.980244   669 net.cpp:394] inception_4d/5x5 <- inception_4d/5x5_reduce
I0414 08:08:59.980260   669 net.cpp:356] inception_4d/5x5 -> inception_4d/5x5
I0414 08:08:59.980274   669 net.cpp:96] Setting up inception_4d/5x5
I0414 08:08:59.984251   669 net.cpp:103] Top shape: 32 64 10 10 (204800)
I0414 08:08:59.984266   669 net.cpp:113] Memory required for data: 771737224
I0414 08:08:59.984282   669 net.cpp:67] Creating Layer inception_4d/relu_5x5
I0414 08:08:59.984288   669 net.cpp:394] inception_4d/relu_5x5 <- inception_4d/5x5
I0414 08:08:59.984298   669 net.cpp:345] inception_4d/relu_5x5 -> inception_4d/5x5 (in-place)
I0414 08:08:59.984307   669 net.cpp:96] Setting up inception_4d/relu_5x5
I0414 08:08:59.984311   669 net.cpp:103] Top shape: 32 64 10 10 (204800)
I0414 08:08:59.984314   669 net.cpp:113] Memory required for data: 772556424
I0414 08:08:59.984323   669 net.cpp:67] Creating Layer inception_4d/pool
I0414 08:08:59.984328   669 net.cpp:394] inception_4d/pool <- inception_4c/output_inception_4c/output_0_split_3
I0414 08:08:59.984336   669 net.cpp:356] inception_4d/pool -> inception_4d/pool
I0414 08:08:59.984344   669 net.cpp:96] Setting up inception_4d/pool
I0414 08:08:59.984352   669 net.cpp:103] Top shape: 32 512 10 10 (1638400)
I0414 08:08:59.984356   669 net.cpp:113] Memory required for data: 779110024
I0414 08:08:59.984367   669 net.cpp:67] Creating Layer inception_4d/pool_proj
I0414 08:08:59.984372   669 net.cpp:394] inception_4d/pool_proj <- inception_4d/pool
I0414 08:08:59.984385   669 net.cpp:356] inception_4d/pool_proj -> inception_4d/pool_proj
I0414 08:08:59.984393   669 net.cpp:96] Setting up inception_4d/pool_proj
I0414 08:08:59.986424   669 net.cpp:103] Top shape: 32 64 10 10 (204800)
I0414 08:08:59.986438   669 net.cpp:113] Memory required for data: 779929224
I0414 08:08:59.986451   669 net.cpp:67] Creating Layer inception_4d/relu_pool_proj
I0414 08:08:59.986456   669 net.cpp:394] inception_4d/relu_pool_proj <- inception_4d/pool_proj
I0414 08:08:59.986469   669 net.cpp:345] inception_4d/relu_pool_proj -> inception_4d/pool_proj (in-place)
I0414 08:08:59.986476   669 net.cpp:96] Setting up inception_4d/relu_pool_proj
I0414 08:08:59.986480   669 net.cpp:103] Top shape: 32 64 10 10 (204800)
I0414 08:08:59.986485   669 net.cpp:113] Memory required for data: 780748424
I0414 08:08:59.986490   669 net.cpp:67] Creating Layer inception_4d/output
I0414 08:08:59.986495   669 net.cpp:394] inception_4d/output <- inception_4d/1x1
I0414 08:08:59.986502   669 net.cpp:394] inception_4d/output <- inception_4d/3x3
I0414 08:08:59.986508   669 net.cpp:394] inception_4d/output <- inception_4d/5x5
I0414 08:08:59.986515   669 net.cpp:394] inception_4d/output <- inception_4d/pool_proj
I0414 08:08:59.986523   669 net.cpp:356] inception_4d/output -> inception_4d/output
I0414 08:08:59.986531   669 net.cpp:96] Setting up inception_4d/output
I0414 08:08:59.986537   669 net.cpp:103] Top shape: 32 528 10 10 (1689600)
I0414 08:08:59.986541   669 net.cpp:113] Memory required for data: 787506824
I0414 08:08:59.986547   669 net.cpp:67] Creating Layer inception_4d/output_inception_4d/output_0_split
I0414 08:08:59.986552   669 net.cpp:394] inception_4d/output_inception_4d/output_0_split <- inception_4d/output
I0414 08:08:59.986560   669 net.cpp:356] inception_4d/output_inception_4d/output_0_split -> inception_4d/output_inception_4d/output_0_split_0
I0414 08:08:59.986570   669 net.cpp:356] inception_4d/output_inception_4d/output_0_split -> inception_4d/output_inception_4d/output_0_split_1
I0414 08:08:59.986579   669 net.cpp:356] inception_4d/output_inception_4d/output_0_split -> inception_4d/output_inception_4d/output_0_split_2
I0414 08:08:59.986590   669 net.cpp:356] inception_4d/output_inception_4d/output_0_split -> inception_4d/output_inception_4d/output_0_split_3
I0414 08:08:59.986599   669 net.cpp:356] inception_4d/output_inception_4d/output_0_split -> inception_4d/output_inception_4d/output_0_split_4
I0414 08:08:59.986606   669 net.cpp:96] Setting up inception_4d/output_inception_4d/output_0_split
I0414 08:08:59.986616   669 net.cpp:103] Top shape: 32 528 10 10 (1689600)
I0414 08:08:59.986620   669 net.cpp:103] Top shape: 32 528 10 10 (1689600)
I0414 08:08:59.986624   669 net.cpp:103] Top shape: 32 528 10 10 (1689600)
I0414 08:08:59.986626   669 net.cpp:103] Top shape: 32 528 10 10 (1689600)
I0414 08:08:59.986630   669 net.cpp:103] Top shape: 32 528 10 10 (1689600)
I0414 08:08:59.986632   669 net.cpp:113] Memory required for data: 821298824
I0414 08:08:59.986640   669 net.cpp:67] Creating Layer loss2/ave_pool
I0414 08:08:59.986644   669 net.cpp:394] loss2/ave_pool <- inception_4d/output_inception_4d/output_0_split_0
I0414 08:08:59.986656   669 net.cpp:356] loss2/ave_pool -> loss2/ave_pool
I0414 08:08:59.986665   669 net.cpp:96] Setting up loss2/ave_pool
I0414 08:08:59.986672   669 net.cpp:103] Top shape: 32 528 3 3 (152064)
I0414 08:08:59.986675   669 net.cpp:113] Memory required for data: 821907080
I0414 08:08:59.986683   669 net.cpp:67] Creating Layer loss2/conv
I0414 08:08:59.986688   669 net.cpp:394] loss2/conv <- loss2/ave_pool
I0414 08:08:59.986698   669 net.cpp:356] loss2/conv -> loss2/conv
I0414 08:08:59.986706   669 net.cpp:96] Setting up loss2/conv
I0414 08:08:59.990887   669 net.cpp:103] Top shape: 32 128 3 3 (36864)
I0414 08:08:59.990903   669 net.cpp:113] Memory required for data: 822054536
I0414 08:08:59.990918   669 net.cpp:67] Creating Layer loss2/relu_conv
I0414 08:08:59.990923   669 net.cpp:394] loss2/relu_conv <- loss2/conv
I0414 08:08:59.990933   669 net.cpp:345] loss2/relu_conv -> loss2/conv (in-place)
I0414 08:08:59.990941   669 net.cpp:96] Setting up loss2/relu_conv
I0414 08:08:59.990944   669 net.cpp:103] Top shape: 32 128 3 3 (36864)
I0414 08:08:59.990948   669 net.cpp:113] Memory required for data: 822201992
I0414 08:08:59.990957   669 net.cpp:67] Creating Layer loss2/fd_fc
I0414 08:08:59.990962   669 net.cpp:394] loss2/fd_fc <- loss2/conv
I0414 08:08:59.990973   669 net.cpp:356] loss2/fd_fc -> loss2/fd_fc
I0414 08:08:59.990983   669 net.cpp:96] Setting up loss2/fd_fc
I0414 08:09:00.063303   669 net.cpp:103] Top shape: 32 1024 1 1 (32768)
I0414 08:09:00.063333   669 net.cpp:113] Memory required for data: 822333064
I0414 08:09:00.063356   669 net.cpp:67] Creating Layer loss2/relu_fc
I0414 08:09:00.063365   669 net.cpp:394] loss2/relu_fc <- loss2/fd_fc
I0414 08:09:00.063382   669 net.cpp:345] loss2/relu_fc -> loss2/fd_fc (in-place)
I0414 08:09:00.063391   669 net.cpp:96] Setting up loss2/relu_fc
I0414 08:09:00.063396   669 net.cpp:103] Top shape: 32 1024 1 1 (32768)
I0414 08:09:00.063400   669 net.cpp:113] Memory required for data: 822464136
I0414 08:09:00.063408   669 net.cpp:67] Creating Layer loss2/drop_fc
I0414 08:09:00.063412   669 net.cpp:394] loss2/drop_fc <- loss2/fd_fc
I0414 08:09:00.063421   669 net.cpp:345] loss2/drop_fc -> loss2/fd_fc (in-place)
I0414 08:09:00.063428   669 net.cpp:96] Setting up loss2/drop_fc
I0414 08:09:00.063433   669 net.cpp:103] Top shape: 32 1024 1 1 (32768)
I0414 08:09:00.063436   669 net.cpp:113] Memory required for data: 822595208
I0414 08:09:00.063446   669 net.cpp:67] Creating Layer fd_loss2/classifier
I0414 08:09:00.063451   669 net.cpp:394] fd_loss2/classifier <- loss2/fd_fc
I0414 08:09:00.063463   669 net.cpp:356] fd_loss2/classifier -> fd_loss2/classifier
I0414 08:09:00.063473   669 net.cpp:96] Setting up fd_loss2/classifier
I0414 08:09:00.063632   669 net.cpp:103] Top shape: 32 2 1 1 (64)
I0414 08:09:00.063644   669 net.cpp:113] Memory required for data: 822595464
I0414 08:09:00.063663   669 net.cpp:67] Creating Layer fd_loss2/classifier_fd_loss2/classifier_0_split
I0414 08:09:00.063668   669 net.cpp:394] fd_loss2/classifier_fd_loss2/classifier_0_split <- fd_loss2/classifier
I0414 08:09:00.063678   669 net.cpp:356] fd_loss2/classifier_fd_loss2/classifier_0_split -> fd_loss2/classifier_fd_loss2/classifier_0_split_0
I0414 08:09:00.063688   669 net.cpp:356] fd_loss2/classifier_fd_loss2/classifier_0_split -> fd_loss2/classifier_fd_loss2/classifier_0_split_1
I0414 08:09:00.063695   669 net.cpp:96] Setting up fd_loss2/classifier_fd_loss2/classifier_0_split
I0414 08:09:00.063702   669 net.cpp:103] Top shape: 32 2 1 1 (64)
I0414 08:09:00.063706   669 net.cpp:103] Top shape: 32 2 1 1 (64)
I0414 08:09:00.063709   669 net.cpp:113] Memory required for data: 822595976
I0414 08:09:00.063720   669 net.cpp:67] Creating Layer loss2/loss
I0414 08:09:00.063724   669 net.cpp:394] loss2/loss <- fd_loss2/classifier_fd_loss2/classifier_0_split_0
I0414 08:09:00.063732   669 net.cpp:394] loss2/loss <- label_data_1_split_2
I0414 08:09:00.063741   669 net.cpp:356] loss2/loss -> loss2/loss1
I0414 08:09:00.063750   669 net.cpp:96] Setting up loss2/loss
I0414 08:09:00.063763   669 net.cpp:103] Top shape: 1 1 1 1 (1)
I0414 08:09:00.063766   669 net.cpp:109]     with loss weight 0.3
I0414 08:09:00.063781   669 net.cpp:113] Memory required for data: 822595980
I0414 08:09:00.063791   669 net.cpp:67] Creating Layer loss2/top-1
I0414 08:09:00.063794   669 net.cpp:394] loss2/top-1 <- fd_loss2/classifier_fd_loss2/classifier_0_split_1
I0414 08:09:00.063802   669 net.cpp:394] loss2/top-1 <- label_data_1_split_3
I0414 08:09:00.063810   669 net.cpp:356] loss2/top-1 -> loss2/top-1
I0414 08:09:00.063818   669 net.cpp:96] Setting up loss2/top-1
I0414 08:09:00.063824   669 net.cpp:103] Top shape: 1 1 1 1 (1)
I0414 08:09:00.063827   669 net.cpp:113] Memory required for data: 822595984
I0414 08:09:00.063840   669 net.cpp:67] Creating Layer inception_4e/1x1
I0414 08:09:00.063846   669 net.cpp:394] inception_4e/1x1 <- inception_4d/output_inception_4d/output_0_split_1
I0414 08:09:00.063856   669 net.cpp:356] inception_4e/1x1 -> inception_4e/1x1
I0414 08:09:00.063864   669 net.cpp:96] Setting up inception_4e/1x1
I0414 08:09:00.073211   669 net.cpp:103] Top shape: 32 256 10 10 (819200)
I0414 08:09:00.073228   669 net.cpp:113] Memory required for data: 825872784
I0414 08:09:00.073246   669 net.cpp:67] Creating Layer inception_4e/relu_1x1
I0414 08:09:00.073251   669 net.cpp:394] inception_4e/relu_1x1 <- inception_4e/1x1
I0414 08:09:00.073261   669 net.cpp:345] inception_4e/relu_1x1 -> inception_4e/1x1 (in-place)
I0414 08:09:00.073271   669 net.cpp:96] Setting up inception_4e/relu_1x1
I0414 08:09:00.073274   669 net.cpp:103] Top shape: 32 256 10 10 (819200)
I0414 08:09:00.073277   669 net.cpp:113] Memory required for data: 829149584
I0414 08:09:00.073288   669 net.cpp:67] Creating Layer inception_4e/3x3_reduce
I0414 08:09:00.073294   669 net.cpp:394] inception_4e/3x3_reduce <- inception_4d/output_inception_4d/output_0_split_2
I0414 08:09:00.073304   669 net.cpp:356] inception_4e/3x3_reduce -> inception_4e/3x3_reduce
I0414 08:09:00.073313   669 net.cpp:96] Setting up inception_4e/3x3_reduce
I0414 08:09:00.078542   669 net.cpp:103] Top shape: 32 160 10 10 (512000)
I0414 08:09:00.078557   669 net.cpp:113] Memory required for data: 831197584
I0414 08:09:00.078569   669 net.cpp:67] Creating Layer inception_4e/relu_3x3_reduce
I0414 08:09:00.078575   669 net.cpp:394] inception_4e/relu_3x3_reduce <- inception_4e/3x3_reduce
I0414 08:09:00.078585   669 net.cpp:345] inception_4e/relu_3x3_reduce -> inception_4e/3x3_reduce (in-place)
I0414 08:09:00.078593   669 net.cpp:96] Setting up inception_4e/relu_3x3_reduce
I0414 08:09:00.078598   669 net.cpp:103] Top shape: 32 160 10 10 (512000)
I0414 08:09:00.078600   669 net.cpp:113] Memory required for data: 833245584
I0414 08:09:00.078644   669 net.cpp:67] Creating Layer inception_4e/3x3
I0414 08:09:00.078651   669 net.cpp:394] inception_4e/3x3 <- inception_4e/3x3_reduce
I0414 08:09:00.078666   669 net.cpp:356] inception_4e/3x3 -> inception_4e/3x3
I0414 08:09:00.078676   669 net.cpp:96] Setting up inception_4e/3x3
I0414 08:09:00.107009   669 net.cpp:103] Top shape: 32 320 10 10 (1024000)
I0414 08:09:00.107028   669 net.cpp:113] Memory required for data: 837341584
I0414 08:09:00.107048   669 net.cpp:67] Creating Layer inception_4e/relu_3x3
I0414 08:09:00.107054   669 net.cpp:394] inception_4e/relu_3x3 <- inception_4e/3x3
I0414 08:09:00.107067   669 net.cpp:345] inception_4e/relu_3x3 -> inception_4e/3x3 (in-place)
I0414 08:09:00.107075   669 net.cpp:96] Setting up inception_4e/relu_3x3
I0414 08:09:00.107080   669 net.cpp:103] Top shape: 32 320 10 10 (1024000)
I0414 08:09:00.107084   669 net.cpp:113] Memory required for data: 841437584
I0414 08:09:00.107092   669 net.cpp:67] Creating Layer inception_4e/5x5_reduce
I0414 08:09:00.107097   669 net.cpp:394] inception_4e/5x5_reduce <- inception_4d/output_inception_4d/output_0_split_3
I0414 08:09:00.107110   669 net.cpp:356] inception_4e/5x5_reduce -> inception_4e/5x5_reduce
I0414 08:09:00.107118   669 net.cpp:96] Setting up inception_4e/5x5_reduce
I0414 08:09:00.108188   669 net.cpp:103] Top shape: 32 32 10 10 (102400)
I0414 08:09:00.108202   669 net.cpp:113] Memory required for data: 841847184
I0414 08:09:00.108217   669 net.cpp:67] Creating Layer inception_4e/relu_5x5_reduce
I0414 08:09:00.108222   669 net.cpp:394] inception_4e/relu_5x5_reduce <- inception_4e/5x5_reduce
I0414 08:09:00.108232   669 net.cpp:345] inception_4e/relu_5x5_reduce -> inception_4e/5x5_reduce (in-place)
I0414 08:09:00.108242   669 net.cpp:96] Setting up inception_4e/relu_5x5_reduce
I0414 08:09:00.108245   669 net.cpp:103] Top shape: 32 32 10 10 (102400)
I0414 08:09:00.108249   669 net.cpp:113] Memory required for data: 842256784
I0414 08:09:00.108258   669 net.cpp:67] Creating Layer inception_4e/5x5
I0414 08:09:00.108263   669 net.cpp:394] inception_4e/5x5 <- inception_4e/5x5_reduce
I0414 08:09:00.108275   669 net.cpp:356] inception_4e/5x5 -> inception_4e/5x5
I0414 08:09:00.108284   669 net.cpp:96] Setting up inception_4e/5x5
I0414 08:09:00.114620   669 net.cpp:103] Top shape: 32 128 10 10 (409600)
I0414 08:09:00.114635   669 net.cpp:113] Memory required for data: 843895184
I0414 08:09:00.114650   669 net.cpp:67] Creating Layer inception_4e/relu_5x5
I0414 08:09:00.114655   669 net.cpp:394] inception_4e/relu_5x5 <- inception_4e/5x5
I0414 08:09:00.114665   669 net.cpp:345] inception_4e/relu_5x5 -> inception_4e/5x5 (in-place)
I0414 08:09:00.114672   669 net.cpp:96] Setting up inception_4e/relu_5x5
I0414 08:09:00.114677   669 net.cpp:103] Top shape: 32 128 10 10 (409600)
I0414 08:09:00.114681   669 net.cpp:113] Memory required for data: 845533584
I0414 08:09:00.114689   669 net.cpp:67] Creating Layer inception_4e/pool
I0414 08:09:00.114693   669 net.cpp:394] inception_4e/pool <- inception_4d/output_inception_4d/output_0_split_4
I0414 08:09:00.114706   669 net.cpp:356] inception_4e/pool -> inception_4e/pool
I0414 08:09:00.114714   669 net.cpp:96] Setting up inception_4e/pool
I0414 08:09:00.114722   669 net.cpp:103] Top shape: 32 528 10 10 (1689600)
I0414 08:09:00.114727   669 net.cpp:113] Memory required for data: 852291984
I0414 08:09:00.114735   669 net.cpp:67] Creating Layer inception_4e/pool_proj
I0414 08:09:00.114739   669 net.cpp:394] inception_4e/pool_proj <- inception_4e/pool
I0414 08:09:00.114752   669 net.cpp:356] inception_4e/pool_proj -> inception_4e/pool_proj
I0414 08:09:00.114760   669 net.cpp:96] Setting up inception_4e/pool_proj
I0414 08:09:00.119103   669 net.cpp:103] Top shape: 32 128 10 10 (409600)
I0414 08:09:00.119119   669 net.cpp:113] Memory required for data: 853930384
I0414 08:09:00.119132   669 net.cpp:67] Creating Layer inception_4e/relu_pool_proj
I0414 08:09:00.119139   669 net.cpp:394] inception_4e/relu_pool_proj <- inception_4e/pool_proj
I0414 08:09:00.119148   669 net.cpp:345] inception_4e/relu_pool_proj -> inception_4e/pool_proj (in-place)
I0414 08:09:00.119156   669 net.cpp:96] Setting up inception_4e/relu_pool_proj
I0414 08:09:00.119160   669 net.cpp:103] Top shape: 32 128 10 10 (409600)
I0414 08:09:00.119164   669 net.cpp:113] Memory required for data: 855568784
I0414 08:09:00.119174   669 net.cpp:67] Creating Layer inception_4e/output
I0414 08:09:00.119177   669 net.cpp:394] inception_4e/output <- inception_4e/1x1
I0414 08:09:00.119185   669 net.cpp:394] inception_4e/output <- inception_4e/3x3
I0414 08:09:00.119191   669 net.cpp:394] inception_4e/output <- inception_4e/5x5
I0414 08:09:00.119197   669 net.cpp:394] inception_4e/output <- inception_4e/pool_proj
I0414 08:09:00.119204   669 net.cpp:356] inception_4e/output -> inception_4e/output
I0414 08:09:00.119212   669 net.cpp:96] Setting up inception_4e/output
I0414 08:09:00.119218   669 net.cpp:103] Top shape: 32 832 10 10 (2662400)
I0414 08:09:00.119221   669 net.cpp:113] Memory required for data: 866218384
I0414 08:09:00.119228   669 net.cpp:67] Creating Layer pool4/3x3_s2
I0414 08:09:00.119233   669 net.cpp:394] pool4/3x3_s2 <- inception_4e/output
I0414 08:09:00.119242   669 net.cpp:356] pool4/3x3_s2 -> pool4/3x3_s2
I0414 08:09:00.119259   669 net.cpp:96] Setting up pool4/3x3_s2
I0414 08:09:00.119271   669 net.cpp:103] Top shape: 32 832 5 5 (665600)
I0414 08:09:00.119278   669 net.cpp:113] Memory required for data: 868880784
I0414 08:09:00.119290   669 net.cpp:67] Creating Layer pool4/3x3_s2_pool4/3x3_s2_0_split
I0414 08:09:00.119299   669 net.cpp:394] pool4/3x3_s2_pool4/3x3_s2_0_split <- pool4/3x3_s2
I0414 08:09:00.119318   669 net.cpp:356] pool4/3x3_s2_pool4/3x3_s2_0_split -> pool4/3x3_s2_pool4/3x3_s2_0_split_0
I0414 08:09:00.119343   669 net.cpp:356] pool4/3x3_s2_pool4/3x3_s2_0_split -> pool4/3x3_s2_pool4/3x3_s2_0_split_1
I0414 08:09:00.119376   669 net.cpp:356] pool4/3x3_s2_pool4/3x3_s2_0_split -> pool4/3x3_s2_pool4/3x3_s2_0_split_2
I0414 08:09:00.119391   669 net.cpp:356] pool4/3x3_s2_pool4/3x3_s2_0_split -> pool4/3x3_s2_pool4/3x3_s2_0_split_3
I0414 08:09:00.119405   669 net.cpp:96] Setting up pool4/3x3_s2_pool4/3x3_s2_0_split
I0414 08:09:00.119413   669 net.cpp:103] Top shape: 32 832 5 5 (665600)
I0414 08:09:00.119417   669 net.cpp:103] Top shape: 32 832 5 5 (665600)
I0414 08:09:00.119421   669 net.cpp:103] Top shape: 32 832 5 5 (665600)
I0414 08:09:00.119424   669 net.cpp:103] Top shape: 32 832 5 5 (665600)
I0414 08:09:00.119427   669 net.cpp:113] Memory required for data: 879530384
I0414 08:09:00.119437   669 net.cpp:67] Creating Layer inception_5a/1x1
I0414 08:09:00.119442   669 net.cpp:394] inception_5a/1x1 <- pool4/3x3_s2_pool4/3x3_s2_0_split_0
I0414 08:09:00.119457   669 net.cpp:356] inception_5a/1x1 -> inception_5a/1x1
I0414 08:09:00.119472   669 net.cpp:96] Setting up inception_5a/1x1
I0414 08:09:00.132726   669 net.cpp:103] Top shape: 32 256 5 5 (204800)
I0414 08:09:00.132742   669 net.cpp:113] Memory required for data: 880349584
I0414 08:09:00.132755   669 net.cpp:67] Creating Layer inception_5a/relu_1x1
I0414 08:09:00.132761   669 net.cpp:394] inception_5a/relu_1x1 <- inception_5a/1x1
I0414 08:09:00.132771   669 net.cpp:345] inception_5a/relu_1x1 -> inception_5a/1x1 (in-place)
I0414 08:09:00.132779   669 net.cpp:96] Setting up inception_5a/relu_1x1
I0414 08:09:00.132783   669 net.cpp:103] Top shape: 32 256 5 5 (204800)
I0414 08:09:00.132786   669 net.cpp:113] Memory required for data: 881168784
I0414 08:09:00.132797   669 net.cpp:67] Creating Layer inception_5a/3x3_reduce
I0414 08:09:00.132803   669 net.cpp:394] inception_5a/3x3_reduce <- pool4/3x3_s2_pool4/3x3_s2_0_split_1
I0414 08:09:00.132813   669 net.cpp:356] inception_5a/3x3_reduce -> inception_5a/3x3_reduce
I0414 08:09:00.132823   669 net.cpp:96] Setting up inception_5a/3x3_reduce
I0414 08:09:00.141057   669 net.cpp:103] Top shape: 32 160 5 5 (128000)
I0414 08:09:00.141072   669 net.cpp:113] Memory required for data: 881680784
I0414 08:09:00.141086   669 net.cpp:67] Creating Layer inception_5a/relu_3x3_reduce
I0414 08:09:00.141093   669 net.cpp:394] inception_5a/relu_3x3_reduce <- inception_5a/3x3_reduce
I0414 08:09:00.141105   669 net.cpp:345] inception_5a/relu_3x3_reduce -> inception_5a/3x3_reduce (in-place)
I0414 08:09:00.141114   669 net.cpp:96] Setting up inception_5a/relu_3x3_reduce
I0414 08:09:00.141119   669 net.cpp:103] Top shape: 32 160 5 5 (128000)
I0414 08:09:00.141121   669 net.cpp:113] Memory required for data: 882192784
I0414 08:09:00.141130   669 net.cpp:67] Creating Layer inception_5a/3x3
I0414 08:09:00.141134   669 net.cpp:394] inception_5a/3x3 <- inception_5a/3x3_reduce
I0414 08:09:00.141147   669 net.cpp:356] inception_5a/3x3 -> inception_5a/3x3
I0414 08:09:00.141156   669 net.cpp:96] Setting up inception_5a/3x3
I0414 08:09:00.170550   669 net.cpp:103] Top shape: 32 320 5 5 (256000)
I0414 08:09:00.170570   669 net.cpp:113] Memory required for data: 883216784
I0414 08:09:00.170593   669 net.cpp:67] Creating Layer inception_5a/relu_3x3
I0414 08:09:00.170600   669 net.cpp:394] inception_5a/relu_3x3 <- inception_5a/3x3
I0414 08:09:00.170613   669 net.cpp:345] inception_5a/relu_3x3 -> inception_5a/3x3 (in-place)
I0414 08:09:00.170620   669 net.cpp:96] Setting up inception_5a/relu_3x3
I0414 08:09:00.170625   669 net.cpp:103] Top shape: 32 320 5 5 (256000)
I0414 08:09:00.170629   669 net.cpp:113] Memory required for data: 884240784
I0414 08:09:00.170640   669 net.cpp:67] Creating Layer inception_5a/5x5_reduce
I0414 08:09:00.170646   669 net.cpp:394] inception_5a/5x5_reduce <- pool4/3x3_s2_pool4/3x3_s2_0_split_2
I0414 08:09:00.170656   669 net.cpp:356] inception_5a/5x5_reduce -> inception_5a/5x5_reduce
I0414 08:09:00.170666   669 net.cpp:96] Setting up inception_5a/5x5_reduce
I0414 08:09:00.172371   669 net.cpp:103] Top shape: 32 32 5 5 (25600)
I0414 08:09:00.172387   669 net.cpp:113] Memory required for data: 884343184
I0414 08:09:00.172402   669 net.cpp:67] Creating Layer inception_5a/relu_5x5_reduce
I0414 08:09:00.172408   669 net.cpp:394] inception_5a/relu_5x5_reduce <- inception_5a/5x5_reduce
I0414 08:09:00.172417   669 net.cpp:345] inception_5a/relu_5x5_reduce -> inception_5a/5x5_reduce (in-place)
I0414 08:09:00.172425   669 net.cpp:96] Setting up inception_5a/relu_5x5_reduce
I0414 08:09:00.172430   669 net.cpp:103] Top shape: 32 32 5 5 (25600)
I0414 08:09:00.172433   669 net.cpp:113] Memory required for data: 884445584
I0414 08:09:00.172443   669 net.cpp:67] Creating Layer inception_5a/5x5
I0414 08:09:00.172448   669 net.cpp:394] inception_5a/5x5 <- inception_5a/5x5_reduce
I0414 08:09:00.172458   669 net.cpp:356] inception_5a/5x5 -> inception_5a/5x5
I0414 08:09:00.172466   669 net.cpp:96] Setting up inception_5a/5x5
I0414 08:09:00.178810   669 net.cpp:103] Top shape: 32 128 5 5 (102400)
I0414 08:09:00.178825   669 net.cpp:113] Memory required for data: 884855184
I0414 08:09:00.178840   669 net.cpp:67] Creating Layer inception_5a/relu_5x5
I0414 08:09:00.178846   669 net.cpp:394] inception_5a/relu_5x5 <- inception_5a/5x5
I0414 08:09:00.178856   669 net.cpp:345] inception_5a/relu_5x5 -> inception_5a/5x5 (in-place)
I0414 08:09:00.178864   669 net.cpp:96] Setting up inception_5a/relu_5x5
I0414 08:09:00.178867   669 net.cpp:103] Top shape: 32 128 5 5 (102400)
I0414 08:09:00.178871   669 net.cpp:113] Memory required for data: 885264784
I0414 08:09:00.178881   669 net.cpp:67] Creating Layer inception_5a/pool
I0414 08:09:00.178887   669 net.cpp:394] inception_5a/pool <- pool4/3x3_s2_pool4/3x3_s2_0_split_3
I0414 08:09:00.178896   669 net.cpp:356] inception_5a/pool -> inception_5a/pool
I0414 08:09:00.178947   669 net.cpp:96] Setting up inception_5a/pool
I0414 08:09:00.178968   669 net.cpp:103] Top shape: 32 832 5 5 (665600)
I0414 08:09:00.178977   669 net.cpp:113] Memory required for data: 887927184
I0414 08:09:00.178994   669 net.cpp:67] Creating Layer inception_5a/pool_proj
I0414 08:09:00.179005   669 net.cpp:394] inception_5a/pool_proj <- inception_5a/pool
I0414 08:09:00.179025   669 net.cpp:356] inception_5a/pool_proj -> inception_5a/pool_proj
I0414 08:09:00.179044   669 net.cpp:96] Setting up inception_5a/pool_proj
I0414 08:09:00.185637   669 net.cpp:103] Top shape: 32 128 5 5 (102400)
I0414 08:09:00.185653   669 net.cpp:113] Memory required for data: 888336784
I0414 08:09:00.185668   669 net.cpp:67] Creating Layer inception_5a/relu_pool_proj
I0414 08:09:00.185674   669 net.cpp:394] inception_5a/relu_pool_proj <- inception_5a/pool_proj
I0414 08:09:00.185684   669 net.cpp:345] inception_5a/relu_pool_proj -> inception_5a/pool_proj (in-place)
I0414 08:09:00.185693   669 net.cpp:96] Setting up inception_5a/relu_pool_proj
I0414 08:09:00.185696   669 net.cpp:103] Top shape: 32 128 5 5 (102400)
I0414 08:09:00.185699   669 net.cpp:113] Memory required for data: 888746384
I0414 08:09:00.185706   669 net.cpp:67] Creating Layer inception_5a/output
I0414 08:09:00.185710   669 net.cpp:394] inception_5a/output <- inception_5a/1x1
I0414 08:09:00.185717   669 net.cpp:394] inception_5a/output <- inception_5a/3x3
I0414 08:09:00.185724   669 net.cpp:394] inception_5a/output <- inception_5a/5x5
I0414 08:09:00.185730   669 net.cpp:394] inception_5a/output <- inception_5a/pool_proj
I0414 08:09:00.185739   669 net.cpp:356] inception_5a/output -> inception_5a/output
I0414 08:09:00.185747   669 net.cpp:96] Setting up inception_5a/output
I0414 08:09:00.185753   669 net.cpp:103] Top shape: 32 832 5 5 (665600)
I0414 08:09:00.185756   669 net.cpp:113] Memory required for data: 891408784
I0414 08:09:00.185763   669 net.cpp:67] Creating Layer inception_5a/output_inception_5a/output_0_split
I0414 08:09:00.185771   669 net.cpp:394] inception_5a/output_inception_5a/output_0_split <- inception_5a/output
I0414 08:09:00.185787   669 net.cpp:356] inception_5a/output_inception_5a/output_0_split -> inception_5a/output_inception_5a/output_0_split_0
I0414 08:09:00.185807   669 net.cpp:356] inception_5a/output_inception_5a/output_0_split -> inception_5a/output_inception_5a/output_0_split_1
I0414 08:09:00.185828   669 net.cpp:356] inception_5a/output_inception_5a/output_0_split -> inception_5a/output_inception_5a/output_0_split_2
I0414 08:09:00.185839   669 net.cpp:356] inception_5a/output_inception_5a/output_0_split -> inception_5a/output_inception_5a/output_0_split_3
I0414 08:09:00.185847   669 net.cpp:96] Setting up inception_5a/output_inception_5a/output_0_split
I0414 08:09:00.185853   669 net.cpp:103] Top shape: 32 832 5 5 (665600)
I0414 08:09:00.185858   669 net.cpp:103] Top shape: 32 832 5 5 (665600)
I0414 08:09:00.185860   669 net.cpp:103] Top shape: 32 832 5 5 (665600)
I0414 08:09:00.185863   669 net.cpp:103] Top shape: 32 832 5 5 (665600)
I0414 08:09:00.185866   669 net.cpp:113] Memory required for data: 902058384
I0414 08:09:00.185880   669 net.cpp:67] Creating Layer inception_5b/1x1
I0414 08:09:00.185889   669 net.cpp:394] inception_5b/1x1 <- inception_5a/output_inception_5a/output_0_split_0
I0414 08:09:00.185914   669 net.cpp:356] inception_5b/1x1 -> inception_5b/1x1
I0414 08:09:00.185927   669 net.cpp:96] Setting up inception_5b/1x1
I0414 08:09:00.205590   669 net.cpp:103] Top shape: 32 384 5 5 (307200)
I0414 08:09:00.205605   669 net.cpp:113] Memory required for data: 903287184
I0414 08:09:00.205621   669 net.cpp:67] Creating Layer inception_5b/relu_1x1
I0414 08:09:00.205626   669 net.cpp:394] inception_5b/relu_1x1 <- inception_5b/1x1
I0414 08:09:00.205636   669 net.cpp:345] inception_5b/relu_1x1 -> inception_5b/1x1 (in-place)
I0414 08:09:00.205644   669 net.cpp:96] Setting up inception_5b/relu_1x1
I0414 08:09:00.205648   669 net.cpp:103] Top shape: 32 384 5 5 (307200)
I0414 08:09:00.205651   669 net.cpp:113] Memory required for data: 904515984
I0414 08:09:00.205663   669 net.cpp:67] Creating Layer inception_5b/3x3_reduce
I0414 08:09:00.205668   669 net.cpp:394] inception_5b/3x3_reduce <- inception_5a/output_inception_5a/output_0_split_1
I0414 08:09:00.205680   669 net.cpp:356] inception_5b/3x3_reduce -> inception_5b/3x3_reduce
I0414 08:09:00.205690   669 net.cpp:96] Setting up inception_5b/3x3_reduce
I0414 08:09:00.215581   669 net.cpp:103] Top shape: 32 192 5 5 (153600)
I0414 08:09:00.215596   669 net.cpp:113] Memory required for data: 905130384
I0414 08:09:00.215610   669 net.cpp:67] Creating Layer inception_5b/relu_3x3_reduce
I0414 08:09:00.215615   669 net.cpp:394] inception_5b/relu_3x3_reduce <- inception_5b/3x3_reduce
I0414 08:09:00.215627   669 net.cpp:345] inception_5b/relu_3x3_reduce -> inception_5b/3x3_reduce (in-place)
I0414 08:09:00.215636   669 net.cpp:96] Setting up inception_5b/relu_3x3_reduce
I0414 08:09:00.215641   669 net.cpp:103] Top shape: 32 192 5 5 (153600)
I0414 08:09:00.215643   669 net.cpp:113] Memory required for data: 905744784
I0414 08:09:00.215651   669 net.cpp:67] Creating Layer inception_5b/3x3
I0414 08:09:00.215656   669 net.cpp:394] inception_5b/3x3 <- inception_5b/3x3_reduce
I0414 08:09:00.215668   669 net.cpp:356] inception_5b/3x3 -> inception_5b/3x3
I0414 08:09:00.215677   669 net.cpp:96] Setting up inception_5b/3x3
I0414 08:09:00.256121   669 net.cpp:103] Top shape: 32 384 5 5 (307200)
I0414 08:09:00.256139   669 net.cpp:113] Memory required for data: 906973584
I0414 08:09:00.256155   669 net.cpp:67] Creating Layer inception_5b/relu_3x3
I0414 08:09:00.256161   669 net.cpp:394] inception_5b/relu_3x3 <- inception_5b/3x3
I0414 08:09:00.256175   669 net.cpp:345] inception_5b/relu_3x3 -> inception_5b/3x3 (in-place)
I0414 08:09:00.256182   669 net.cpp:96] Setting up inception_5b/relu_3x3
I0414 08:09:00.256186   669 net.cpp:103] Top shape: 32 384 5 5 (307200)
I0414 08:09:00.256189   669 net.cpp:113] Memory required for data: 908202384
I0414 08:09:00.256198   669 net.cpp:67] Creating Layer inception_5b/5x5_reduce
I0414 08:09:00.256204   669 net.cpp:394] inception_5b/5x5_reduce <- inception_5a/output_inception_5a/output_0_split_2
I0414 08:09:00.256214   669 net.cpp:356] inception_5b/5x5_reduce -> inception_5b/5x5_reduce
I0414 08:09:00.256223   669 net.cpp:96] Setting up inception_5b/5x5_reduce
I0414 08:09:00.258724   669 net.cpp:103] Top shape: 32 48 5 5 (38400)
I0414 08:09:00.258740   669 net.cpp:113] Memory required for data: 908355984
I0414 08:09:00.258752   669 net.cpp:67] Creating Layer inception_5b/relu_5x5_reduce
I0414 08:09:00.258759   669 net.cpp:394] inception_5b/relu_5x5_reduce <- inception_5b/5x5_reduce
I0414 08:09:00.258771   669 net.cpp:345] inception_5b/relu_5x5_reduce -> inception_5b/5x5_reduce (in-place)
I0414 08:09:00.258780   669 net.cpp:96] Setting up inception_5b/relu_5x5_reduce
I0414 08:09:00.258785   669 net.cpp:103] Top shape: 32 48 5 5 (38400)
I0414 08:09:00.258788   669 net.cpp:113] Memory required for data: 908509584
I0414 08:09:00.258797   669 net.cpp:67] Creating Layer inception_5b/5x5
I0414 08:09:00.258801   669 net.cpp:394] inception_5b/5x5 <- inception_5b/5x5_reduce
I0414 08:09:00.258811   669 net.cpp:356] inception_5b/5x5 -> inception_5b/5x5
I0414 08:09:00.258821   669 net.cpp:96] Setting up inception_5b/5x5
I0414 08:09:00.269363   669 net.cpp:103] Top shape: 32 128 5 5 (102400)
I0414 08:09:00.269381   669 net.cpp:113] Memory required for data: 908919184
I0414 08:09:00.269395   669 net.cpp:67] Creating Layer inception_5b/relu_5x5
I0414 08:09:00.269402   669 net.cpp:394] inception_5b/relu_5x5 <- inception_5b/5x5
I0414 08:09:00.269414   669 net.cpp:345] inception_5b/relu_5x5 -> inception_5b/5x5 (in-place)
I0414 08:09:00.269423   669 net.cpp:96] Setting up inception_5b/relu_5x5
I0414 08:09:00.269428   669 net.cpp:103] Top shape: 32 128 5 5 (102400)
I0414 08:09:00.269431   669 net.cpp:113] Memory required for data: 909328784
I0414 08:09:00.269440   669 net.cpp:67] Creating Layer inception_5b/pool
I0414 08:09:00.269445   669 net.cpp:394] inception_5b/pool <- inception_5a/output_inception_5a/output_0_split_3
I0414 08:09:00.269454   669 net.cpp:356] inception_5b/pool -> inception_5b/pool
I0414 08:09:00.269464   669 net.cpp:96] Setting up inception_5b/pool
I0414 08:09:00.269471   669 net.cpp:103] Top shape: 32 832 5 5 (665600)
I0414 08:09:00.269475   669 net.cpp:113] Memory required for data: 911991184
I0414 08:09:00.269485   669 net.cpp:67] Creating Layer inception_5b/pool_proj
I0414 08:09:00.269490   669 net.cpp:394] inception_5b/pool_proj <- inception_5b/pool
I0414 08:09:00.269501   669 net.cpp:356] inception_5b/pool_proj -> inception_5b/pool_proj
I0414 08:09:00.269515   669 net.cpp:96] Setting up inception_5b/pool_proj
I0414 08:09:00.276139   669 net.cpp:103] Top shape: 32 128 5 5 (102400)
I0414 08:09:00.276154   669 net.cpp:113] Memory required for data: 912400784
I0414 08:09:00.276167   669 net.cpp:67] Creating Layer inception_5b/relu_pool_proj
I0414 08:09:00.276173   669 net.cpp:394] inception_5b/relu_pool_proj <- inception_5b/pool_proj
I0414 08:09:00.276183   669 net.cpp:345] inception_5b/relu_pool_proj -> inception_5b/pool_proj (in-place)
I0414 08:09:00.276191   669 net.cpp:96] Setting up inception_5b/relu_pool_proj
I0414 08:09:00.276196   669 net.cpp:103] Top shape: 32 128 5 5 (102400)
I0414 08:09:00.276198   669 net.cpp:113] Memory required for data: 912810384
I0414 08:09:00.276208   669 net.cpp:67] Creating Layer inception_5b/output
I0414 08:09:00.276212   669 net.cpp:394] inception_5b/output <- inception_5b/1x1
I0414 08:09:00.276221   669 net.cpp:394] inception_5b/output <- inception_5b/3x3
I0414 08:09:00.276227   669 net.cpp:394] inception_5b/output <- inception_5b/5x5
I0414 08:09:00.276232   669 net.cpp:394] inception_5b/output <- inception_5b/pool_proj
I0414 08:09:00.276240   669 net.cpp:356] inception_5b/output -> inception_5b/output
I0414 08:09:00.276248   669 net.cpp:96] Setting up inception_5b/output
I0414 08:09:00.276254   669 net.cpp:103] Top shape: 32 1024 5 5 (819200)
I0414 08:09:00.276257   669 net.cpp:113] Memory required for data: 916087184
I0414 08:09:00.276267   669 net.cpp:67] Creating Layer pool5/fd_7x7_s1
I0414 08:09:00.276271   669 net.cpp:394] pool5/fd_7x7_s1 <- inception_5b/output
I0414 08:09:00.276285   669 net.cpp:356] pool5/fd_7x7_s1 -> pool5/fd_7x7_s1
I0414 08:09:00.276301   669 net.cpp:96] Setting up pool5/fd_7x7_s1
I0414 08:09:00.276314   669 net.cpp:103] Top shape: 32 1024 1 1 (32768)
I0414 08:09:00.276320   669 net.cpp:113] Memory required for data: 916218256
I0414 08:09:00.276337   669 net.cpp:67] Creating Layer pool5/drop_7x7_s1
I0414 08:09:00.276345   669 net.cpp:394] pool5/drop_7x7_s1 <- pool5/fd_7x7_s1
I0414 08:09:00.276362   669 net.cpp:345] pool5/drop_7x7_s1 -> pool5/fd_7x7_s1 (in-place)
I0414 08:09:00.276378   669 net.cpp:96] Setting up pool5/drop_7x7_s1
I0414 08:09:00.276386   669 net.cpp:103] Top shape: 32 1024 1 1 (32768)
I0414 08:09:00.276388   669 net.cpp:113] Memory required for data: 916349328
I0414 08:09:00.276401   669 net.cpp:67] Creating Layer fd_loss3/classifier
I0414 08:09:00.276407   669 net.cpp:394] fd_loss3/classifier <- pool5/fd_7x7_s1
I0414 08:09:00.276419   669 net.cpp:356] fd_loss3/classifier -> fd_loss3/classifier
I0414 08:09:00.276437   669 net.cpp:96] Setting up fd_loss3/classifier
I0414 08:09:00.276631   669 net.cpp:103] Top shape: 32 2 1 1 (64)
I0414 08:09:00.276645   669 net.cpp:113] Memory required for data: 916349584
I0414 08:09:00.276659   669 net.cpp:67] Creating Layer fd_loss3/classifier_fd_loss3/classifier_0_split
I0414 08:09:00.276665   669 net.cpp:394] fd_loss3/classifier_fd_loss3/classifier_0_split <- fd_loss3/classifier
I0414 08:09:00.276675   669 net.cpp:356] fd_loss3/classifier_fd_loss3/classifier_0_split -> fd_loss3/classifier_fd_loss3/classifier_0_split_0
I0414 08:09:00.276686   669 net.cpp:356] fd_loss3/classifier_fd_loss3/classifier_0_split -> fd_loss3/classifier_fd_loss3/classifier_0_split_1
I0414 08:09:00.276695   669 net.cpp:96] Setting up fd_loss3/classifier_fd_loss3/classifier_0_split
I0414 08:09:00.276701   669 net.cpp:103] Top shape: 32 2 1 1 (64)
I0414 08:09:00.276705   669 net.cpp:103] Top shape: 32 2 1 1 (64)
I0414 08:09:00.276707   669 net.cpp:113] Memory required for data: 916350096
I0414 08:09:00.276721   669 net.cpp:67] Creating Layer loss3/loss3
I0414 08:09:00.276726   669 net.cpp:394] loss3/loss3 <- fd_loss3/classifier_fd_loss3/classifier_0_split_0
I0414 08:09:00.276738   669 net.cpp:394] loss3/loss3 <- label_data_1_split_4
I0414 08:09:00.276753   669 net.cpp:356] loss3/loss3 -> loss3/loss3
I0414 08:09:00.276770   669 net.cpp:96] Setting up loss3/loss3
I0414 08:09:00.276787   669 net.cpp:103] Top shape: 1 1 1 1 (1)
I0414 08:09:00.276794   669 net.cpp:109]     with loss weight 1
I0414 08:09:00.276823   669 net.cpp:113] Memory required for data: 916350100
I0414 08:09:00.276834   669 net.cpp:67] Creating Layer loss3/top-1
I0414 08:09:00.276841   669 net.cpp:394] loss3/top-1 <- fd_loss3/classifier_fd_loss3/classifier_0_split_1
I0414 08:09:00.276859   669 net.cpp:394] loss3/top-1 <- label_data_1_split_5
I0414 08:09:00.276878   669 net.cpp:356] loss3/top-1 -> loss3/top-1
I0414 08:09:00.276898   669 net.cpp:96] Setting up loss3/top-1
I0414 08:09:00.276906   669 net.cpp:103] Top shape: 1 1 1 1 (1)
I0414 08:09:00.276912   669 net.cpp:113] Memory required for data: 916350104
I0414 08:09:00.276919   669 net.cpp:172] loss3/top-1 does not need backward computation.
I0414 08:09:00.276926   669 net.cpp:170] loss3/loss3 needs backward computation.
I0414 08:09:00.276933   669 net.cpp:170] fd_loss3/classifier_fd_loss3/classifier_0_split needs backward computation.
I0414 08:09:00.276942   669 net.cpp:170] fd_loss3/classifier needs backward computation.
…
